{"format": "layers-model", "generatedBy": "keras v2.15.0", "convertedBy": "TensorFlow.js Converter v4.17.0", "modelTopology": {"keras_version": "2.15.0", "backend": "tensorflow", "model_config": {"class_name": "Functional", "config": {"name": "model_13", "trainable": true, "layers": [{"class_name": "InputLayer", "config": {"batch_input_shape": [null, 456, 456, 3], "dtype": "float32", "sparse": false, "ragged": false, "name": "input_image"}, "name": "input_image", "inbound_nodes": []}, {"class_name": "Functional", "config": {"name": "model_12", "trainable": true, "layers": [{"class_name": "InputLayer", "config": {"batch_input_shape": [null, 456, 456, 3], "dtype": "float32", "sparse": false, "ragged": false, "name": "input_11"}, "name": "input_11", "inbound_nodes": []}, {"class_name": "Rescaling", "config": {"name": "rescaling_8", "trainable": false, "dtype": "float32", "scale": 0.00392156862745098, "offset": 0.0}, "name": "rescaling_8", "inbound_nodes": [[["input_11", 0, 0, {}]]]}, {"class_name": "LayerNormalization", "config": {"name": "normalization_4", "trainable": false, "dtype": "float32", "axis": [3], "invert": false, "mean": null, "variance": null}, "name": "normalization_4", "inbound_nodes": [[["rescaling_8", 0, 0, {}]]]}, {"class_name": "Rescaling", "config": {"name": "rescaling_9", "trainable": false, "dtype": "float32", "scale": [2.0896918976428642, 2.1128856368212916, 2.1081851067789197], "offset": 0.0}, "name": "rescaling_9", "inbound_nodes": [[["normalization_4", 0, 0, {}]]]}, {"class_name": "ZeroPadding2D", "config": {"name": "stem_conv_pad", "trainable": false, "dtype": "float32", "padding": [[0, 1], [0, 1]], "data_format": "channels_last"}, "name": "stem_conv_pad", "inbound_nodes": [[["rescaling_9", 0, 0, {}]]]}, {"class_name": "Conv2D", "config": {"name": "stem_conv", "trainable": false, "dtype": "float32", "filters": 48, "kernel_size": [3, 3], "strides": [2, 2], "padding": "valid", "data_format": "channels_last", "dilation_rate": [1, 1], "groups": 1, "activation": "linear", "use_bias": false, "kernel_initializer": {"module": "keras.initializers", "class_name": "VarianceScaling", "config": {"scale": 2.0, "mode": "fan_out", "distribution": "truncated_normal", "seed": null}, "registered_name": null}, "bias_initializer": {"module": "keras.initializers", "class_name": "Zeros", "config": {}, "registered_name": null}, "kernel_regularizer": null, "bias_regularizer": null, "activity_regularizer": null, "kernel_constraint": null, "bias_constraint": null}, "name": "stem_conv", "inbound_nodes": [[["stem_conv_pad", 0, 0, {}]]]}, {"class_name": "BatchNormalization", "config": {"name": "stem_bn", "trainable": false, "dtype": "float32", "axis": [3], "momentum": 0.99, "epsilon": 0.001, "center": true, "scale": true, "beta_initializer": {"module": "keras.initializers", "class_name": "Zeros", "config": {}, "registered_name": null}, "gamma_initializer": {"module": "keras.initializers", "class_name": "Ones", "config": {}, "registered_name": null}, "moving_mean_initializer": {"module": "keras.initializers", "class_name": "Zeros", "config": {}, "registered_name": null}, "moving_variance_initializer": {"module": "keras.initializers", "class_name": "Ones", "config": {}, "registered_name": null}, "beta_regularizer": null, "gamma_regularizer": null, "beta_constraint": null, "gamma_constraint": null}, "name": "stem_bn", "inbound_nodes": [[["stem_conv", 0, 0, {}]]]}, {"class_name": "Activation", "config": {"name": "stem_activation", "trainable": false, "dtype": "float32", "activation": "swish"}, "name": "stem_activation", "inbound_nodes": [[["stem_bn", 0, 0, {}]]]}, {"class_name": "DepthwiseConv2D", "config": {"name": "block1a_dwconv", "trainable": false, "dtype": "float32", "kernel_size": [3, 3], "strides": [1, 1], "padding": "same", "data_format": "channels_last", "dilation_rate": [1, 1], "groups": 1, "activation": "linear", "use_bias": false, "bias_initializer": {"module": "keras.initializers", "class_name": "Zeros", "config": {}, "registered_name": null}, "bias_regularizer": null, "activity_regularizer": null, "bias_constraint": null, "depth_multiplier": 1, "depthwise_initializer": {"module": "keras.initializers", "class_name": "VarianceScaling", "config": {"scale": 2.0, "mode": "fan_out", "distribution": "truncated_normal", "seed": null}, "registered_name": null}, "depthwise_regularizer": null, "depthwise_constraint": null}, "name": "block1a_dwconv", "inbound_nodes": [[["stem_activation", 0, 0, {}]]]}, {"class_name": "BatchNormalization", "config": {"name": "block1a_bn", "trainable": false, "dtype": "float32", "axis": [3], "momentum": 0.99, "epsilon": 0.001, "center": true, "scale": true, "beta_initializer": {"module": "keras.initializers", "class_name": "Zeros", "config": {}, "registered_name": null}, "gamma_initializer": {"module": "keras.initializers", "class_name": "Ones", "config": {}, "registered_name": null}, "moving_mean_initializer": {"module": "keras.initializers", "class_name": "Zeros", "config": {}, "registered_name": null}, "moving_variance_initializer": {"module": "keras.initializers", "class_name": "Ones", "config": {}, "registered_name": null}, "beta_regularizer": null, "gamma_regularizer": null, "beta_constraint": null, "gamma_constraint": null}, "name": "block1a_bn", "inbound_nodes": [[["block1a_dwconv", 0, 0, {}]]]}, {"class_name": "Activation", "config": {"name": "block1a_activation", "trainable": false, "dtype": "float32", "activation": "swish"}, "name": "block1a_activation", "inbound_nodes": [[["block1a_bn", 0, 0, {}]]]}, {"class_name": "GlobalAveragePooling2D", "config": {"name": "block1a_se_squeeze", "trainable": false, "dtype": "float32", "data_format": "channels_last", "keepdims": false}, "name": "block1a_se_squeeze", "inbound_nodes": [[["block1a_activation", 0, 0, {}]]]}, {"class_name": "Reshape", "config": {"name": "block1a_se_reshape", "trainable": false, "dtype": "float32", "target_shape": [1, 1, 48]}, "name": "block1a_se_reshape", "inbound_nodes": [[["block1a_se_squeeze", 0, 0, {}]]]}, {"class_name": "Conv2D", "config": {"name": "block1a_se_reduce", "trainable": false, "dtype": "float32", "filters": 12, "kernel_size": [1, 1], "strides": [1, 1], "padding": "same", "data_format": "channels_last", "dilation_rate": [1, 1], "groups": 1, "activation": "swish", "use_bias": true, "kernel_initializer": {"module": "keras.initializers", "class_name": "VarianceScaling", "config": {"scale": 2.0, "mode": "fan_out", "distribution": "truncated_normal", "seed": null}, "registered_name": null}, "bias_initializer": {"module": "keras.initializers", "class_name": "Zeros", "config": {}, "registered_name": null}, "kernel_regularizer": null, "bias_regularizer": null, "activity_regularizer": null, "kernel_constraint": null, "bias_constraint": null}, "name": "block1a_se_reduce", "inbound_nodes": [[["block1a_se_reshape", 0, 0, {}]]]}, {"class_name": "Conv2D", "config": {"name": "block1a_se_expand", "trainable": false, "dtype": "float32", "filters": 48, "kernel_size": [1, 1], "strides": [1, 1], "padding": "same", "data_format": "channels_last", "dilation_rate": [1, 1], "groups": 1, "activation": "sigmoid", "use_bias": true, "kernel_initializer": {"module": "keras.initializers", "class_name": "VarianceScaling", "config": {"scale": 2.0, "mode": "fan_out", "distribution": "truncated_normal", "seed": null}, "registered_name": null}, "bias_initializer": {"module": "keras.initializers", "class_name": "Zeros", "config": {}, "registered_name": null}, "kernel_regularizer": null, "bias_regularizer": null, "activity_regularizer": null, "kernel_constraint": null, "bias_constraint": null}, "name": "block1a_se_expand", "inbound_nodes": [[["block1a_se_reduce", 0, 0, {}]]]}, {"class_name": "Multiply", "config": {"name": "block1a_se_excite", "trainable": false, "dtype": "float32"}, "name": "block1a_se_excite", "inbound_nodes": [[["block1a_activation", 0, 0, {}], ["block1a_se_expand", 0, 0, {}]]]}, {"class_name": "Conv2D", "config": {"name": "block1a_project_conv", "trainable": false, "dtype": "float32", "filters": 24, "kernel_size": [1, 1], "strides": [1, 1], "padding": "same", "data_format": "channels_last", "dilation_rate": [1, 1], "groups": 1, "activation": "linear", "use_bias": false, "kernel_initializer": {"module": "keras.initializers", "class_name": "VarianceScaling", "config": {"scale": 2.0, "mode": "fan_out", "distribution": "truncated_normal", "seed": null}, "registered_name": null}, "bias_initializer": {"module": "keras.initializers", "class_name": "Zeros", "config": {}, "registered_name": null}, "kernel_regularizer": null, "bias_regularizer": null, "activity_regularizer": null, "kernel_constraint": null, "bias_constraint": null}, "name": "block1a_project_conv", "inbound_nodes": [[["block1a_se_excite", 0, 0, {}]]]}, {"class_name": "BatchNormalization", "config": {"name": "block1a_project_bn", "trainable": false, "dtype": "float32", "axis": [3], "momentum": 0.99, "epsilon": 0.001, "center": true, "scale": true, "beta_initializer": {"module": "keras.initializers", "class_name": "Zeros", "config": {}, "registered_name": null}, "gamma_initializer": {"module": "keras.initializers", "class_name": "Ones", "config": {}, "registered_name": null}, "moving_mean_initializer": {"module": "keras.initializers", "class_name": "Zeros", "config": {}, "registered_name": null}, "moving_variance_initializer": {"module": "keras.initializers", "class_name": "Ones", "config": {}, "registered_name": null}, "beta_regularizer": null, "gamma_regularizer": null, "beta_constraint": null, "gamma_constraint": null}, "name": "block1a_project_bn", "inbound_nodes": [[["block1a_project_conv", 0, 0, {}]]]}, {"class_name": "DepthwiseConv2D", "config": {"name": "block1b_dwconv", "trainable": false, "dtype": "float32", "kernel_size": [3, 3], "strides": [1, 1], "padding": "same", "data_format": "channels_last", "dilation_rate": [1, 1], "groups": 1, "activation": "linear", "use_bias": false, "bias_initializer": {"module": "keras.initializers", "class_name": "Zeros", "config": {}, "registered_name": null}, "bias_regularizer": null, "activity_regularizer": null, "bias_constraint": null, "depth_multiplier": 1, "depthwise_initializer": {"module": "keras.initializers", "class_name": "VarianceScaling", "config": {"scale": 2.0, "mode": "fan_out", "distribution": "truncated_normal", "seed": null}, "registered_name": null}, "depthwise_regularizer": null, "depthwise_constraint": null}, "name": "block1b_dwconv", "inbound_nodes": [[["block1a_project_bn", 0, 0, {}]]]}, {"class_name": "BatchNormalization", "config": {"name": "block1b_bn", "trainable": false, "dtype": "float32", "axis": [3], "momentum": 0.99, "epsilon": 0.001, "center": true, "scale": true, "beta_initializer": {"module": "keras.initializers", "class_name": "Zeros", "config": {}, "registered_name": null}, "gamma_initializer": {"module": "keras.initializers", "class_name": "Ones", "config": {}, "registered_name": null}, "moving_mean_initializer": {"module": "keras.initializers", "class_name": "Zeros", "config": {}, "registered_name": null}, "moving_variance_initializer": {"module": "keras.initializers", "class_name": "Ones", "config": {}, "registered_name": null}, "beta_regularizer": null, "gamma_regularizer": null, "beta_constraint": null, "gamma_constraint": null}, "name": "block1b_bn", "inbound_nodes": [[["block1b_dwconv", 0, 0, {}]]]}, {"class_name": "Activation", "config": {"name": "block1b_activation", "trainable": false, "dtype": "float32", "activation": "swish"}, "name": "block1b_activation", "inbound_nodes": [[["block1b_bn", 0, 0, {}]]]}, {"class_name": "GlobalAveragePooling2D", "config": {"name": "block1b_se_squeeze", "trainable": false, "dtype": "float32", "data_format": "channels_last", "keepdims": false}, "name": "block1b_se_squeeze", "inbound_nodes": [[["block1b_activation", 0, 0, {}]]]}, {"class_name": "Reshape", "config": {"name": "block1b_se_reshape", "trainable": false, "dtype": "float32", "target_shape": [1, 1, 24]}, "name": "block1b_se_reshape", "inbound_nodes": [[["block1b_se_squeeze", 0, 0, {}]]]}, {"class_name": "Conv2D", "config": {"name": "block1b_se_reduce", "trainable": false, "dtype": "float32", "filters": 6, "kernel_size": [1, 1], "strides": [1, 1], "padding": "same", "data_format": "channels_last", "dilation_rate": [1, 1], "groups": 1, "activation": "swish", "use_bias": true, "kernel_initializer": {"module": "keras.initializers", "class_name": "VarianceScaling", "config": {"scale": 2.0, "mode": "fan_out", "distribution": "truncated_normal", "seed": null}, "registered_name": null}, "bias_initializer": {"module": "keras.initializers", "class_name": "Zeros", "config": {}, "registered_name": null}, "kernel_regularizer": null, "bias_regularizer": null, "activity_regularizer": null, "kernel_constraint": null, "bias_constraint": null}, "name": "block1b_se_reduce", "inbound_nodes": [[["block1b_se_reshape", 0, 0, {}]]]}, {"class_name": "Conv2D", "config": {"name": "block1b_se_expand", "trainable": false, "dtype": "float32", "filters": 24, "kernel_size": [1, 1], "strides": [1, 1], "padding": "same", "data_format": "channels_last", "dilation_rate": [1, 1], "groups": 1, "activation": "sigmoid", "use_bias": true, "kernel_initializer": {"module": "keras.initializers", "class_name": "VarianceScaling", "config": {"scale": 2.0, "mode": "fan_out", "distribution": "truncated_normal", "seed": null}, "registered_name": null}, "bias_initializer": {"module": "keras.initializers", "class_name": "Zeros", "config": {}, "registered_name": null}, "kernel_regularizer": null, "bias_regularizer": null, "activity_regularizer": null, "kernel_constraint": null, "bias_constraint": null}, "name": "block1b_se_expand", "inbound_nodes": [[["block1b_se_reduce", 0, 0, {}]]]}, {"class_name": "Multiply", "config": {"name": "block1b_se_excite", "trainable": false, "dtype": "float32"}, "name": "block1b_se_excite", "inbound_nodes": [[["block1b_activation", 0, 0, {}], ["block1b_se_expand", 0, 0, {}]]]}, {"class_name": "Conv2D", "config": {"name": "block1b_project_conv", "trainable": false, "dtype": "float32", "filters": 24, "kernel_size": [1, 1], "strides": [1, 1], "padding": "same", "data_format": "channels_last", "dilation_rate": [1, 1], "groups": 1, "activation": "linear", "use_bias": false, "kernel_initializer": {"module": "keras.initializers", "class_name": "VarianceScaling", "config": {"scale": 2.0, "mode": "fan_out", "distribution": "truncated_normal", "seed": null}, "registered_name": null}, "bias_initializer": {"module": "keras.initializers", "class_name": "Zeros", "config": {}, "registered_name": null}, "kernel_regularizer": null, "bias_regularizer": null, "activity_regularizer": null, "kernel_constraint": null, "bias_constraint": null}, "name": "block1b_project_conv", "inbound_nodes": [[["block1b_se_excite", 0, 0, {}]]]}, {"class_name": "BatchNormalization", "config": {"name": "block1b_project_bn", "trainable": false, "dtype": "float32", "axis": [3], "momentum": 0.99, "epsilon": 0.001, "center": true, "scale": true, "beta_initializer": {"module": "keras.initializers", "class_name": "Zeros", "config": {}, "registered_name": null}, "gamma_initializer": {"module": "keras.initializers", "class_name": "Ones", "config": {}, "registered_name": null}, "moving_mean_initializer": {"module": "keras.initializers", "class_name": "Zeros", "config": {}, "registered_name": null}, "moving_variance_initializer": {"module": "keras.initializers", "class_name": "Ones", "config": {}, "registered_name": null}, "beta_regularizer": null, "gamma_regularizer": null, "beta_constraint": null, "gamma_constraint": null}, "name": "block1b_project_bn", "inbound_nodes": [[["block1b_project_conv", 0, 0, {}]]]}, {"class_name": "Dropout", "config": {"name": "block1b_drop", "trainable": false, "dtype": "float32", "rate": 0.005128205128205128, "noise_shape": [null, 1, 1, 1], "seed": null}, "name": "block1b_drop", "inbound_nodes": [[["block1b_project_bn", 0, 0, {}]]]}, {"class_name": "Add", "config": {"name": "block1b_add", "trainable": false, "dtype": "float32"}, "name": "block1b_add", "inbound_nodes": [[["block1b_drop", 0, 0, {}], ["block1a_project_bn", 0, 0, {}]]]}, {"class_name": "DepthwiseConv2D", "config": {"name": "block1c_dwconv", "trainable": false, "dtype": "float32", "kernel_size": [3, 3], "strides": [1, 1], "padding": "same", "data_format": "channels_last", "dilation_rate": [1, 1], "groups": 1, "activation": "linear", "use_bias": false, "bias_initializer": {"module": "keras.initializers", "class_name": "Zeros", "config": {}, "registered_name": null}, "bias_regularizer": null, "activity_regularizer": null, "bias_constraint": null, "depth_multiplier": 1, "depthwise_initializer": {"module": "keras.initializers", "class_name": "VarianceScaling", "config": {"scale": 2.0, "mode": "fan_out", "distribution": "truncated_normal", "seed": null}, "registered_name": null}, "depthwise_regularizer": null, "depthwise_constraint": null}, "name": "block1c_dwconv", "inbound_nodes": [[["block1b_add", 0, 0, {}]]]}, {"class_name": "BatchNormalization", "config": {"name": "block1c_bn", "trainable": false, "dtype": "float32", "axis": [3], "momentum": 0.99, "epsilon": 0.001, "center": true, "scale": true, "beta_initializer": {"module": "keras.initializers", "class_name": "Zeros", "config": {}, "registered_name": null}, "gamma_initializer": {"module": "keras.initializers", "class_name": "Ones", "config": {}, "registered_name": null}, "moving_mean_initializer": {"module": "keras.initializers", "class_name": "Zeros", "config": {}, "registered_name": null}, "moving_variance_initializer": {"module": "keras.initializers", "class_name": "Ones", "config": {}, "registered_name": null}, "beta_regularizer": null, "gamma_regularizer": null, "beta_constraint": null, "gamma_constraint": null}, "name": "block1c_bn", "inbound_nodes": [[["block1c_dwconv", 0, 0, {}]]]}, {"class_name": "Activation", "config": {"name": "block1c_activation", "trainable": false, "dtype": "float32", "activation": "swish"}, "name": "block1c_activation", "inbound_nodes": [[["block1c_bn", 0, 0, {}]]]}, {"class_name": "GlobalAveragePooling2D", "config": {"name": "block1c_se_squeeze", "trainable": false, "dtype": "float32", "data_format": "channels_last", "keepdims": false}, "name": "block1c_se_squeeze", "inbound_nodes": [[["block1c_activation", 0, 0, {}]]]}, {"class_name": "Reshape", "config": {"name": "block1c_se_reshape", "trainable": false, "dtype": "float32", "target_shape": [1, 1, 24]}, "name": "block1c_se_reshape", "inbound_nodes": [[["block1c_se_squeeze", 0, 0, {}]]]}, {"class_name": "Conv2D", "config": {"name": "block1c_se_reduce", "trainable": false, "dtype": "float32", "filters": 6, "kernel_size": [1, 1], "strides": [1, 1], "padding": "same", "data_format": "channels_last", "dilation_rate": [1, 1], "groups": 1, "activation": "swish", "use_bias": true, "kernel_initializer": {"module": "keras.initializers", "class_name": "VarianceScaling", "config": {"scale": 2.0, "mode": "fan_out", "distribution": "truncated_normal", "seed": null}, "registered_name": null}, "bias_initializer": {"module": "keras.initializers", "class_name": "Zeros", "config": {}, "registered_name": null}, "kernel_regularizer": null, "bias_regularizer": null, "activity_regularizer": null, "kernel_constraint": null, "bias_constraint": null}, "name": "block1c_se_reduce", "inbound_nodes": [[["block1c_se_reshape", 0, 0, {}]]]}, {"class_name": "Conv2D", "config": {"name": "block1c_se_expand", "trainable": false, "dtype": "float32", "filters": 24, "kernel_size": [1, 1], "strides": [1, 1], "padding": "same", "data_format": "channels_last", "dilation_rate": [1, 1], "groups": 1, "activation": "sigmoid", "use_bias": true, "kernel_initializer": {"module": "keras.initializers", "class_name": "VarianceScaling", "config": {"scale": 2.0, "mode": "fan_out", "distribution": "truncated_normal", "seed": null}, "registered_name": null}, "bias_initializer": {"module": "keras.initializers", "class_name": "Zeros", "config": {}, "registered_name": null}, "kernel_regularizer": null, "bias_regularizer": null, "activity_regularizer": null, "kernel_constraint": null, "bias_constraint": null}, "name": "block1c_se_expand", "inbound_nodes": [[["block1c_se_reduce", 0, 0, {}]]]}, {"class_name": "Multiply", "config": {"name": "block1c_se_excite", "trainable": false, "dtype": "float32"}, "name": "block1c_se_excite", "inbound_nodes": [[["block1c_activation", 0, 0, {}], ["block1c_se_expand", 0, 0, {}]]]}, {"class_name": "Conv2D", "config": {"name": "block1c_project_conv", "trainable": false, "dtype": "float32", "filters": 24, "kernel_size": [1, 1], "strides": [1, 1], "padding": "same", "data_format": "channels_last", "dilation_rate": [1, 1], "groups": 1, "activation": "linear", "use_bias": false, "kernel_initializer": {"module": "keras.initializers", "class_name": "VarianceScaling", "config": {"scale": 2.0, "mode": "fan_out", "distribution": "truncated_normal", "seed": null}, "registered_name": null}, "bias_initializer": {"module": "keras.initializers", "class_name": "Zeros", "config": {}, "registered_name": null}, "kernel_regularizer": null, "bias_regularizer": null, "activity_regularizer": null, "kernel_constraint": null, "bias_constraint": null}, "name": "block1c_project_conv", "inbound_nodes": [[["block1c_se_excite", 0, 0, {}]]]}, {"class_name": "BatchNormalization", "config": {"name": "block1c_project_bn", "trainable": false, "dtype": "float32", "axis": [3], "momentum": 0.99, "epsilon": 0.001, "center": true, "scale": true, "beta_initializer": {"module": "keras.initializers", "class_name": "Zeros", "config": {}, "registered_name": null}, "gamma_initializer": {"module": "keras.initializers", "class_name": "Ones", "config": {}, "registered_name": null}, "moving_mean_initializer": {"module": "keras.initializers", "class_name": "Zeros", "config": {}, "registered_name": null}, "moving_variance_initializer": {"module": "keras.initializers", "class_name": "Ones", "config": {}, "registered_name": null}, "beta_regularizer": null, "gamma_regularizer": null, "beta_constraint": null, "gamma_constraint": null}, "name": "block1c_project_bn", "inbound_nodes": [[["block1c_project_conv", 0, 0, {}]]]}, {"class_name": "Dropout", "config": {"name": "block1c_drop", "trainable": false, "dtype": "float32", "rate": 0.010256410256410256, "noise_shape": [null, 1, 1, 1], "seed": null}, "name": "block1c_drop", "inbound_nodes": [[["block1c_project_bn", 0, 0, {}]]]}, {"class_name": "Add", "config": {"name": "block1c_add", "trainable": false, "dtype": "float32"}, "name": "block1c_add", "inbound_nodes": [[["block1c_drop", 0, 0, {}], ["block1b_add", 0, 0, {}]]]}, {"class_name": "Conv2D", "config": {"name": "block2a_expand_conv", "trainable": false, "dtype": "float32", "filters": 144, "kernel_size": [1, 1], "strides": [1, 1], "padding": "same", "data_format": "channels_last", "dilation_rate": [1, 1], "groups": 1, "activation": "linear", "use_bias": false, "kernel_initializer": {"module": "keras.initializers", "class_name": "VarianceScaling", "config": {"scale": 2.0, "mode": "fan_out", "distribution": "truncated_normal", "seed": null}, "registered_name": null}, "bias_initializer": {"module": "keras.initializers", "class_name": "Zeros", "config": {}, "registered_name": null}, "kernel_regularizer": null, "bias_regularizer": null, "activity_regularizer": null, "kernel_constraint": null, "bias_constraint": null}, "name": "block2a_expand_conv", "inbound_nodes": [[["block1c_add", 0, 0, {}]]]}, {"class_name": "BatchNormalization", "config": {"name": "block2a_expand_bn", "trainable": false, "dtype": "float32", "axis": [3], "momentum": 0.99, "epsilon": 0.001, "center": true, "scale": true, "beta_initializer": {"module": "keras.initializers", "class_name": "Zeros", "config": {}, "registered_name": null}, "gamma_initializer": {"module": "keras.initializers", "class_name": "Ones", "config": {}, "registered_name": null}, "moving_mean_initializer": {"module": "keras.initializers", "class_name": "Zeros", "config": {}, "registered_name": null}, "moving_variance_initializer": {"module": "keras.initializers", "class_name": "Ones", "config": {}, "registered_name": null}, "beta_regularizer": null, "gamma_regularizer": null, "beta_constraint": null, "gamma_constraint": null}, "name": "block2a_expand_bn", "inbound_nodes": [[["block2a_expand_conv", 0, 0, {}]]]}, {"class_name": "Activation", "config": {"name": "block2a_expand_activation", "trainable": false, "dtype": "float32", "activation": "swish"}, "name": "block2a_expand_activation", "inbound_nodes": [[["block2a_expand_bn", 0, 0, {}]]]}, {"class_name": "ZeroPadding2D", "config": {"name": "block2a_dwconv_pad", "trainable": false, "dtype": "float32", "padding": [[0, 1], [0, 1]], "data_format": "channels_last"}, "name": "block2a_dwconv_pad", "inbound_nodes": [[["block2a_expand_activation", 0, 0, {}]]]}, {"class_name": "DepthwiseConv2D", "config": {"name": "block2a_dwconv", "trainable": false, "dtype": "float32", "kernel_size": [3, 3], "strides": [2, 2], "padding": "valid", "data_format": "channels_last", "dilation_rate": [1, 1], "groups": 1, "activation": "linear", "use_bias": false, "bias_initializer": {"module": "keras.initializers", "class_name": "Zeros", "config": {}, "registered_name": null}, "bias_regularizer": null, "activity_regularizer": null, "bias_constraint": null, "depth_multiplier": 1, "depthwise_initializer": {"module": "keras.initializers", "class_name": "VarianceScaling", "config": {"scale": 2.0, "mode": "fan_out", "distribution": "truncated_normal", "seed": null}, "registered_name": null}, "depthwise_regularizer": null, "depthwise_constraint": null}, "name": "block2a_dwconv", "inbound_nodes": [[["block2a_dwconv_pad", 0, 0, {}]]]}, {"class_name": "BatchNormalization", "config": {"name": "block2a_bn", "trainable": false, "dtype": "float32", "axis": [3], "momentum": 0.99, "epsilon": 0.001, "center": true, "scale": true, "beta_initializer": {"module": "keras.initializers", "class_name": "Zeros", "config": {}, "registered_name": null}, "gamma_initializer": {"module": "keras.initializers", "class_name": "Ones", "config": {}, "registered_name": null}, "moving_mean_initializer": {"module": "keras.initializers", "class_name": "Zeros", "config": {}, "registered_name": null}, "moving_variance_initializer": {"module": "keras.initializers", "class_name": "Ones", "config": {}, "registered_name": null}, "beta_regularizer": null, "gamma_regularizer": null, "beta_constraint": null, "gamma_constraint": null}, "name": "block2a_bn", "inbound_nodes": [[["block2a_dwconv", 0, 0, {}]]]}, {"class_name": "Activation", "config": {"name": "block2a_activation", "trainable": false, "dtype": "float32", "activation": "swish"}, "name": "block2a_activation", "inbound_nodes": [[["block2a_bn", 0, 0, {}]]]}, {"class_name": "GlobalAveragePooling2D", "config": {"name": "block2a_se_squeeze", "trainable": false, "dtype": "float32", "data_format": "channels_last", "keepdims": false}, "name": "block2a_se_squeeze", "inbound_nodes": [[["block2a_activation", 0, 0, {}]]]}, {"class_name": "Reshape", "config": {"name": "block2a_se_reshape", "trainable": false, "dtype": "float32", "target_shape": [1, 1, 144]}, "name": "block2a_se_reshape", "inbound_nodes": [[["block2a_se_squeeze", 0, 0, {}]]]}, {"class_name": "Conv2D", "config": {"name": "block2a_se_reduce", "trainable": false, "dtype": "float32", "filters": 6, "kernel_size": [1, 1], "strides": [1, 1], "padding": "same", "data_format": "channels_last", "dilation_rate": [1, 1], "groups": 1, "activation": "swish", "use_bias": true, "kernel_initializer": {"module": "keras.initializers", "class_name": "VarianceScaling", "config": {"scale": 2.0, "mode": "fan_out", "distribution": "truncated_normal", "seed": null}, "registered_name": null}, "bias_initializer": {"module": "keras.initializers", "class_name": "Zeros", "config": {}, "registered_name": null}, "kernel_regularizer": null, "bias_regularizer": null, "activity_regularizer": null, "kernel_constraint": null, "bias_constraint": null}, "name": "block2a_se_reduce", "inbound_nodes": [[["block2a_se_reshape", 0, 0, {}]]]}, {"class_name": "Conv2D", "config": {"name": "block2a_se_expand", "trainable": false, "dtype": "float32", "filters": 144, "kernel_size": [1, 1], "strides": [1, 1], "padding": "same", "data_format": "channels_last", "dilation_rate": [1, 1], "groups": 1, "activation": "sigmoid", "use_bias": true, "kernel_initializer": {"module": "keras.initializers", "class_name": "VarianceScaling", "config": {"scale": 2.0, "mode": "fan_out", "distribution": "truncated_normal", "seed": null}, "registered_name": null}, "bias_initializer": {"module": "keras.initializers", "class_name": "Zeros", "config": {}, "registered_name": null}, "kernel_regularizer": null, "bias_regularizer": null, "activity_regularizer": null, "kernel_constraint": null, "bias_constraint": null}, "name": "block2a_se_expand", "inbound_nodes": [[["block2a_se_reduce", 0, 0, {}]]]}, {"class_name": "Multiply", "config": {"name": "block2a_se_excite", "trainable": false, "dtype": "float32"}, "name": "block2a_se_excite", "inbound_nodes": [[["block2a_activation", 0, 0, {}], ["block2a_se_expand", 0, 0, {}]]]}, {"class_name": "Conv2D", "config": {"name": "block2a_project_conv", "trainable": false, "dtype": "float32", "filters": 40, "kernel_size": [1, 1], "strides": [1, 1], "padding": "same", "data_format": "channels_last", "dilation_rate": [1, 1], "groups": 1, "activation": "linear", "use_bias": false, "kernel_initializer": {"module": "keras.initializers", "class_name": "VarianceScaling", "config": {"scale": 2.0, "mode": "fan_out", "distribution": "truncated_normal", "seed": null}, "registered_name": null}, "bias_initializer": {"module": "keras.initializers", "class_name": "Zeros", "config": {}, "registered_name": null}, "kernel_regularizer": null, "bias_regularizer": null, "activity_regularizer": null, "kernel_constraint": null, "bias_constraint": null}, "name": "block2a_project_conv", "inbound_nodes": [[["block2a_se_excite", 0, 0, {}]]]}, {"class_name": "BatchNormalization", "config": {"name": "block2a_project_bn", "trainable": false, "dtype": "float32", "axis": [3], "momentum": 0.99, "epsilon": 0.001, "center": true, "scale": true, "beta_initializer": {"module": "keras.initializers", "class_name": "Zeros", "config": {}, "registered_name": null}, "gamma_initializer": {"module": "keras.initializers", "class_name": "Ones", "config": {}, "registered_name": null}, "moving_mean_initializer": {"module": "keras.initializers", "class_name": "Zeros", "config": {}, "registered_name": null}, "moving_variance_initializer": {"module": "keras.initializers", "class_name": "Ones", "config": {}, "registered_name": null}, "beta_regularizer": null, "gamma_regularizer": null, "beta_constraint": null, "gamma_constraint": null}, "name": "block2a_project_bn", "inbound_nodes": [[["block2a_project_conv", 0, 0, {}]]]}, {"class_name": "Conv2D", "config": {"name": "block2b_expand_conv", "trainable": false, "dtype": "float32", "filters": 240, "kernel_size": [1, 1], "strides": [1, 1], "padding": "same", "data_format": "channels_last", "dilation_rate": [1, 1], "groups": 1, "activation": "linear", "use_bias": false, "kernel_initializer": {"module": "keras.initializers", "class_name": "VarianceScaling", "config": {"scale": 2.0, "mode": "fan_out", "distribution": "truncated_normal", "seed": null}, "registered_name": null}, "bias_initializer": {"module": "keras.initializers", "class_name": "Zeros", "config": {}, "registered_name": null}, "kernel_regularizer": null, "bias_regularizer": null, "activity_regularizer": null, "kernel_constraint": null, "bias_constraint": null}, "name": "block2b_expand_conv", "inbound_nodes": [[["block2a_project_bn", 0, 0, {}]]]}, {"class_name": "BatchNormalization", "config": {"name": "block2b_expand_bn", "trainable": false, "dtype": "float32", "axis": [3], "momentum": 0.99, "epsilon": 0.001, "center": true, "scale": true, "beta_initializer": {"module": "keras.initializers", "class_name": "Zeros", "config": {}, "registered_name": null}, "gamma_initializer": {"module": "keras.initializers", "class_name": "Ones", "config": {}, "registered_name": null}, "moving_mean_initializer": {"module": "keras.initializers", "class_name": "Zeros", "config": {}, "registered_name": null}, "moving_variance_initializer": {"module": "keras.initializers", "class_name": "Ones", "config": {}, "registered_name": null}, "beta_regularizer": null, "gamma_regularizer": null, "beta_constraint": null, "gamma_constraint": null}, "name": "block2b_expand_bn", "inbound_nodes": [[["block2b_expand_conv", 0, 0, {}]]]}, {"class_name": "Activation", "config": {"name": "block2b_expand_activation", "trainable": false, "dtype": "float32", "activation": "swish"}, "name": "block2b_expand_activation", "inbound_nodes": [[["block2b_expand_bn", 0, 0, {}]]]}, {"class_name": "DepthwiseConv2D", "config": {"name": "block2b_dwconv", "trainable": false, "dtype": "float32", "kernel_size": [3, 3], "strides": [1, 1], "padding": "same", "data_format": "channels_last", "dilation_rate": [1, 1], "groups": 1, "activation": "linear", "use_bias": false, "bias_initializer": {"module": "keras.initializers", "class_name": "Zeros", "config": {}, "registered_name": null}, "bias_regularizer": null, "activity_regularizer": null, "bias_constraint": null, "depth_multiplier": 1, "depthwise_initializer": {"module": "keras.initializers", "class_name": "VarianceScaling", "config": {"scale": 2.0, "mode": "fan_out", "distribution": "truncated_normal", "seed": null}, "registered_name": null}, "depthwise_regularizer": null, "depthwise_constraint": null}, "name": "block2b_dwconv", "inbound_nodes": [[["block2b_expand_activation", 0, 0, {}]]]}, {"class_name": "BatchNormalization", "config": {"name": "block2b_bn", "trainable": false, "dtype": "float32", "axis": [3], "momentum": 0.99, "epsilon": 0.001, "center": true, "scale": true, "beta_initializer": {"module": "keras.initializers", "class_name": "Zeros", "config": {}, "registered_name": null}, "gamma_initializer": {"module": "keras.initializers", "class_name": "Ones", "config": {}, "registered_name": null}, "moving_mean_initializer": {"module": "keras.initializers", "class_name": "Zeros", "config": {}, "registered_name": null}, "moving_variance_initializer": {"module": "keras.initializers", "class_name": "Ones", "config": {}, "registered_name": null}, "beta_regularizer": null, "gamma_regularizer": null, "beta_constraint": null, "gamma_constraint": null}, "name": "block2b_bn", "inbound_nodes": [[["block2b_dwconv", 0, 0, {}]]]}, {"class_name": "Activation", "config": {"name": "block2b_activation", "trainable": false, "dtype": "float32", "activation": "swish"}, "name": "block2b_activation", "inbound_nodes": [[["block2b_bn", 0, 0, {}]]]}, {"class_name": "GlobalAveragePooling2D", "config": {"name": "block2b_se_squeeze", "trainable": false, "dtype": "float32", "data_format": "channels_last", "keepdims": false}, "name": "block2b_se_squeeze", "inbound_nodes": [[["block2b_activation", 0, 0, {}]]]}, {"class_name": "Reshape", "config": {"name": "block2b_se_reshape", "trainable": false, "dtype": "float32", "target_shape": [1, 1, 240]}, "name": "block2b_se_reshape", "inbound_nodes": [[["block2b_se_squeeze", 0, 0, {}]]]}, {"class_name": "Conv2D", "config": {"name": "block2b_se_reduce", "trainable": false, "dtype": "float32", "filters": 10, "kernel_size": [1, 1], "strides": [1, 1], "padding": "same", "data_format": "channels_last", "dilation_rate": [1, 1], "groups": 1, "activation": "swish", "use_bias": true, "kernel_initializer": {"module": "keras.initializers", "class_name": "VarianceScaling", "config": {"scale": 2.0, "mode": "fan_out", "distribution": "truncated_normal", "seed": null}, "registered_name": null}, "bias_initializer": {"module": "keras.initializers", "class_name": "Zeros", "config": {}, "registered_name": null}, "kernel_regularizer": null, "bias_regularizer": null, "activity_regularizer": null, "kernel_constraint": null, "bias_constraint": null}, "name": "block2b_se_reduce", "inbound_nodes": [[["block2b_se_reshape", 0, 0, {}]]]}, {"class_name": "Conv2D", "config": {"name": "block2b_se_expand", "trainable": false, "dtype": "float32", "filters": 240, "kernel_size": [1, 1], "strides": [1, 1], "padding": "same", "data_format": "channels_last", "dilation_rate": [1, 1], "groups": 1, "activation": "sigmoid", "use_bias": true, "kernel_initializer": {"module": "keras.initializers", "class_name": "VarianceScaling", "config": {"scale": 2.0, "mode": "fan_out", "distribution": "truncated_normal", "seed": null}, "registered_name": null}, "bias_initializer": {"module": "keras.initializers", "class_name": "Zeros", "config": {}, "registered_name": null}, "kernel_regularizer": null, "bias_regularizer": null, "activity_regularizer": null, "kernel_constraint": null, "bias_constraint": null}, "name": "block2b_se_expand", "inbound_nodes": [[["block2b_se_reduce", 0, 0, {}]]]}, {"class_name": "Multiply", "config": {"name": "block2b_se_excite", "trainable": false, "dtype": "float32"}, "name": "block2b_se_excite", "inbound_nodes": [[["block2b_activation", 0, 0, {}], ["block2b_se_expand", 0, 0, {}]]]}, {"class_name": "Conv2D", "config": {"name": "block2b_project_conv", "trainable": false, "dtype": "float32", "filters": 40, "kernel_size": [1, 1], "strides": [1, 1], "padding": "same", "data_format": "channels_last", "dilation_rate": [1, 1], "groups": 1, "activation": "linear", "use_bias": false, "kernel_initializer": {"module": "keras.initializers", "class_name": "VarianceScaling", "config": {"scale": 2.0, "mode": "fan_out", "distribution": "truncated_normal", "seed": null}, "registered_name": null}, "bias_initializer": {"module": "keras.initializers", "class_name": "Zeros", "config": {}, "registered_name": null}, "kernel_regularizer": null, "bias_regularizer": null, "activity_regularizer": null, "kernel_constraint": null, "bias_constraint": null}, "name": "block2b_project_conv", "inbound_nodes": [[["block2b_se_excite", 0, 0, {}]]]}, {"class_name": "BatchNormalization", "config": {"name": "block2b_project_bn", "trainable": false, "dtype": "float32", "axis": [3], "momentum": 0.99, "epsilon": 0.001, "center": true, "scale": true, "beta_initializer": {"module": "keras.initializers", "class_name": "Zeros", "config": {}, "registered_name": null}, "gamma_initializer": {"module": "keras.initializers", "class_name": "Ones", "config": {}, "registered_name": null}, "moving_mean_initializer": {"module": "keras.initializers", "class_name": "Zeros", "config": {}, "registered_name": null}, "moving_variance_initializer": {"module": "keras.initializers", "class_name": "Ones", "config": {}, "registered_name": null}, "beta_regularizer": null, "gamma_regularizer": null, "beta_constraint": null, "gamma_constraint": null}, "name": "block2b_project_bn", "inbound_nodes": [[["block2b_project_conv", 0, 0, {}]]]}, {"class_name": "Dropout", "config": {"name": "block2b_drop", "trainable": false, "dtype": "float32", "rate": 0.020512820512820513, "noise_shape": [null, 1, 1, 1], "seed": null}, "name": "block2b_drop", "inbound_nodes": [[["block2b_project_bn", 0, 0, {}]]]}, {"class_name": "Add", "config": {"name": "block2b_add", "trainable": false, "dtype": "float32"}, "name": "block2b_add", "inbound_nodes": [[["block2b_drop", 0, 0, {}], ["block2a_project_bn", 0, 0, {}]]]}, {"class_name": "Conv2D", "config": {"name": "block2c_expand_conv", "trainable": false, "dtype": "float32", "filters": 240, "kernel_size": [1, 1], "strides": [1, 1], "padding": "same", "data_format": "channels_last", "dilation_rate": [1, 1], "groups": 1, "activation": "linear", "use_bias": false, "kernel_initializer": {"module": "keras.initializers", "class_name": "VarianceScaling", "config": {"scale": 2.0, "mode": "fan_out", "distribution": "truncated_normal", "seed": null}, "registered_name": null}, "bias_initializer": {"module": "keras.initializers", "class_name": "Zeros", "config": {}, "registered_name": null}, "kernel_regularizer": null, "bias_regularizer": null, "activity_regularizer": null, "kernel_constraint": null, "bias_constraint": null}, "name": "block2c_expand_conv", "inbound_nodes": [[["block2b_add", 0, 0, {}]]]}, {"class_name": "BatchNormalization", "config": {"name": "block2c_expand_bn", "trainable": false, "dtype": "float32", "axis": [3], "momentum": 0.99, "epsilon": 0.001, "center": true, "scale": true, "beta_initializer": {"module": "keras.initializers", "class_name": "Zeros", "config": {}, "registered_name": null}, "gamma_initializer": {"module": "keras.initializers", "class_name": "Ones", "config": {}, "registered_name": null}, "moving_mean_initializer": {"module": "keras.initializers", "class_name": "Zeros", "config": {}, "registered_name": null}, "moving_variance_initializer": {"module": "keras.initializers", "class_name": "Ones", "config": {}, "registered_name": null}, "beta_regularizer": null, "gamma_regularizer": null, "beta_constraint": null, "gamma_constraint": null}, "name": "block2c_expand_bn", "inbound_nodes": [[["block2c_expand_conv", 0, 0, {}]]]}, {"class_name": "Activation", "config": {"name": "block2c_expand_activation", "trainable": false, "dtype": "float32", "activation": "swish"}, "name": "block2c_expand_activation", "inbound_nodes": [[["block2c_expand_bn", 0, 0, {}]]]}, {"class_name": "DepthwiseConv2D", "config": {"name": "block2c_dwconv", "trainable": false, "dtype": "float32", "kernel_size": [3, 3], "strides": [1, 1], "padding": "same", "data_format": "channels_last", "dilation_rate": [1, 1], "groups": 1, "activation": "linear", "use_bias": false, "bias_initializer": {"module": "keras.initializers", "class_name": "Zeros", "config": {}, "registered_name": null}, "bias_regularizer": null, "activity_regularizer": null, "bias_constraint": null, "depth_multiplier": 1, "depthwise_initializer": {"module": "keras.initializers", "class_name": "VarianceScaling", "config": {"scale": 2.0, "mode": "fan_out", "distribution": "truncated_normal", "seed": null}, "registered_name": null}, "depthwise_regularizer": null, "depthwise_constraint": null}, "name": "block2c_dwconv", "inbound_nodes": [[["block2c_expand_activation", 0, 0, {}]]]}, {"class_name": "BatchNormalization", "config": {"name": "block2c_bn", "trainable": false, "dtype": "float32", "axis": [3], "momentum": 0.99, "epsilon": 0.001, "center": true, "scale": true, "beta_initializer": {"module": "keras.initializers", "class_name": "Zeros", "config": {}, "registered_name": null}, "gamma_initializer": {"module": "keras.initializers", "class_name": "Ones", "config": {}, "registered_name": null}, "moving_mean_initializer": {"module": "keras.initializers", "class_name": "Zeros", "config": {}, "registered_name": null}, "moving_variance_initializer": {"module": "keras.initializers", "class_name": "Ones", "config": {}, "registered_name": null}, "beta_regularizer": null, "gamma_regularizer": null, "beta_constraint": null, "gamma_constraint": null}, "name": "block2c_bn", "inbound_nodes": [[["block2c_dwconv", 0, 0, {}]]]}, {"class_name": "Activation", "config": {"name": "block2c_activation", "trainable": false, "dtype": "float32", "activation": "swish"}, "name": "block2c_activation", "inbound_nodes": [[["block2c_bn", 0, 0, {}]]]}, {"class_name": "GlobalAveragePooling2D", "config": {"name": "block2c_se_squeeze", "trainable": false, "dtype": "float32", "data_format": "channels_last", "keepdims": false}, "name": "block2c_se_squeeze", "inbound_nodes": [[["block2c_activation", 0, 0, {}]]]}, {"class_name": "Reshape", "config": {"name": "block2c_se_reshape", "trainable": false, "dtype": "float32", "target_shape": [1, 1, 240]}, "name": "block2c_se_reshape", "inbound_nodes": [[["block2c_se_squeeze", 0, 0, {}]]]}, {"class_name": "Conv2D", "config": {"name": "block2c_se_reduce", "trainable": false, "dtype": "float32", "filters": 10, "kernel_size": [1, 1], "strides": [1, 1], "padding": "same", "data_format": "channels_last", "dilation_rate": [1, 1], "groups": 1, "activation": "swish", "use_bias": true, "kernel_initializer": {"module": "keras.initializers", "class_name": "VarianceScaling", "config": {"scale": 2.0, "mode": "fan_out", "distribution": "truncated_normal", "seed": null}, "registered_name": null}, "bias_initializer": {"module": "keras.initializers", "class_name": "Zeros", "config": {}, "registered_name": null}, "kernel_regularizer": null, "bias_regularizer": null, "activity_regularizer": null, "kernel_constraint": null, "bias_constraint": null}, "name": "block2c_se_reduce", "inbound_nodes": [[["block2c_se_reshape", 0, 0, {}]]]}, {"class_name": "Conv2D", "config": {"name": "block2c_se_expand", "trainable": false, "dtype": "float32", "filters": 240, "kernel_size": [1, 1], "strides": [1, 1], "padding": "same", "data_format": "channels_last", "dilation_rate": [1, 1], "groups": 1, "activation": "sigmoid", "use_bias": true, "kernel_initializer": {"module": "keras.initializers", "class_name": "VarianceScaling", "config": {"scale": 2.0, "mode": "fan_out", "distribution": "truncated_normal", "seed": null}, "registered_name": null}, "bias_initializer": {"module": "keras.initializers", "class_name": "Zeros", "config": {}, "registered_name": null}, "kernel_regularizer": null, "bias_regularizer": null, "activity_regularizer": null, "kernel_constraint": null, "bias_constraint": null}, "name": "block2c_se_expand", "inbound_nodes": [[["block2c_se_reduce", 0, 0, {}]]]}, {"class_name": "Multiply", "config": {"name": "block2c_se_excite", "trainable": false, "dtype": "float32"}, "name": "block2c_se_excite", "inbound_nodes": [[["block2c_activation", 0, 0, {}], ["block2c_se_expand", 0, 0, {}]]]}, {"class_name": "Conv2D", "config": {"name": "block2c_project_conv", "trainable": false, "dtype": "float32", "filters": 40, "kernel_size": [1, 1], "strides": [1, 1], "padding": "same", "data_format": "channels_last", "dilation_rate": [1, 1], "groups": 1, "activation": "linear", "use_bias": false, "kernel_initializer": {"module": "keras.initializers", "class_name": "VarianceScaling", "config": {"scale": 2.0, "mode": "fan_out", "distribution": "truncated_normal", "seed": null}, "registered_name": null}, "bias_initializer": {"module": "keras.initializers", "class_name": "Zeros", "config": {}, "registered_name": null}, "kernel_regularizer": null, "bias_regularizer": null, "activity_regularizer": null, "kernel_constraint": null, "bias_constraint": null}, "name": "block2c_project_conv", "inbound_nodes": [[["block2c_se_excite", 0, 0, {}]]]}, {"class_name": "BatchNormalization", "config": {"name": "block2c_project_bn", "trainable": false, "dtype": "float32", "axis": [3], "momentum": 0.99, "epsilon": 0.001, "center": true, "scale": true, "beta_initializer": {"module": "keras.initializers", "class_name": "Zeros", "config": {}, "registered_name": null}, "gamma_initializer": {"module": "keras.initializers", "class_name": "Ones", "config": {}, "registered_name": null}, "moving_mean_initializer": {"module": "keras.initializers", "class_name": "Zeros", "config": {}, "registered_name": null}, "moving_variance_initializer": {"module": "keras.initializers", "class_name": "Ones", "config": {}, "registered_name": null}, "beta_regularizer": null, "gamma_regularizer": null, "beta_constraint": null, "gamma_constraint": null}, "name": "block2c_project_bn", "inbound_nodes": [[["block2c_project_conv", 0, 0, {}]]]}, {"class_name": "Dropout", "config": {"name": "block2c_drop", "trainable": false, "dtype": "float32", "rate": 0.02564102564102564, "noise_shape": [null, 1, 1, 1], "seed": null}, "name": "block2c_drop", "inbound_nodes": [[["block2c_project_bn", 0, 0, {}]]]}, {"class_name": "Add", "config": {"name": "block2c_add", "trainable": false, "dtype": "float32"}, "name": "block2c_add", "inbound_nodes": [[["block2c_drop", 0, 0, {}], ["block2b_add", 0, 0, {}]]]}, {"class_name": "Conv2D", "config": {"name": "block2d_expand_conv", "trainable": false, "dtype": "float32", "filters": 240, "kernel_size": [1, 1], "strides": [1, 1], "padding": "same", "data_format": "channels_last", "dilation_rate": [1, 1], "groups": 1, "activation": "linear", "use_bias": false, "kernel_initializer": {"module": "keras.initializers", "class_name": "VarianceScaling", "config": {"scale": 2.0, "mode": "fan_out", "distribution": "truncated_normal", "seed": null}, "registered_name": null}, "bias_initializer": {"module": "keras.initializers", "class_name": "Zeros", "config": {}, "registered_name": null}, "kernel_regularizer": null, "bias_regularizer": null, "activity_regularizer": null, "kernel_constraint": null, "bias_constraint": null}, "name": "block2d_expand_conv", "inbound_nodes": [[["block2c_add", 0, 0, {}]]]}, {"class_name": "BatchNormalization", "config": {"name": "block2d_expand_bn", "trainable": false, "dtype": "float32", "axis": [3], "momentum": 0.99, "epsilon": 0.001, "center": true, "scale": true, "beta_initializer": {"module": "keras.initializers", "class_name": "Zeros", "config": {}, "registered_name": null}, "gamma_initializer": {"module": "keras.initializers", "class_name": "Ones", "config": {}, "registered_name": null}, "moving_mean_initializer": {"module": "keras.initializers", "class_name": "Zeros", "config": {}, "registered_name": null}, "moving_variance_initializer": {"module": "keras.initializers", "class_name": "Ones", "config": {}, "registered_name": null}, "beta_regularizer": null, "gamma_regularizer": null, "beta_constraint": null, "gamma_constraint": null}, "name": "block2d_expand_bn", "inbound_nodes": [[["block2d_expand_conv", 0, 0, {}]]]}, {"class_name": "Activation", "config": {"name": "block2d_expand_activation", "trainable": false, "dtype": "float32", "activation": "swish"}, "name": "block2d_expand_activation", "inbound_nodes": [[["block2d_expand_bn", 0, 0, {}]]]}, {"class_name": "DepthwiseConv2D", "config": {"name": "block2d_dwconv", "trainable": false, "dtype": "float32", "kernel_size": [3, 3], "strides": [1, 1], "padding": "same", "data_format": "channels_last", "dilation_rate": [1, 1], "groups": 1, "activation": "linear", "use_bias": false, "bias_initializer": {"module": "keras.initializers", "class_name": "Zeros", "config": {}, "registered_name": null}, "bias_regularizer": null, "activity_regularizer": null, "bias_constraint": null, "depth_multiplier": 1, "depthwise_initializer": {"module": "keras.initializers", "class_name": "VarianceScaling", "config": {"scale": 2.0, "mode": "fan_out", "distribution": "truncated_normal", "seed": null}, "registered_name": null}, "depthwise_regularizer": null, "depthwise_constraint": null}, "name": "block2d_dwconv", "inbound_nodes": [[["block2d_expand_activation", 0, 0, {}]]]}, {"class_name": "BatchNormalization", "config": {"name": "block2d_bn", "trainable": false, "dtype": "float32", "axis": [3], "momentum": 0.99, "epsilon": 0.001, "center": true, "scale": true, "beta_initializer": {"module": "keras.initializers", "class_name": "Zeros", "config": {}, "registered_name": null}, "gamma_initializer": {"module": "keras.initializers", "class_name": "Ones", "config": {}, "registered_name": null}, "moving_mean_initializer": {"module": "keras.initializers", "class_name": "Zeros", "config": {}, "registered_name": null}, "moving_variance_initializer": {"module": "keras.initializers", "class_name": "Ones", "config": {}, "registered_name": null}, "beta_regularizer": null, "gamma_regularizer": null, "beta_constraint": null, "gamma_constraint": null}, "name": "block2d_bn", "inbound_nodes": [[["block2d_dwconv", 0, 0, {}]]]}, {"class_name": "Activation", "config": {"name": "block2d_activation", "trainable": false, "dtype": "float32", "activation": "swish"}, "name": "block2d_activation", "inbound_nodes": [[["block2d_bn", 0, 0, {}]]]}, {"class_name": "GlobalAveragePooling2D", "config": {"name": "block2d_se_squeeze", "trainable": false, "dtype": "float32", "data_format": "channels_last", "keepdims": false}, "name": "block2d_se_squeeze", "inbound_nodes": [[["block2d_activation", 0, 0, {}]]]}, {"class_name": "Reshape", "config": {"name": "block2d_se_reshape", "trainable": false, "dtype": "float32", "target_shape": [1, 1, 240]}, "name": "block2d_se_reshape", "inbound_nodes": [[["block2d_se_squeeze", 0, 0, {}]]]}, {"class_name": "Conv2D", "config": {"name": "block2d_se_reduce", "trainable": false, "dtype": "float32", "filters": 10, "kernel_size": [1, 1], "strides": [1, 1], "padding": "same", "data_format": "channels_last", "dilation_rate": [1, 1], "groups": 1, "activation": "swish", "use_bias": true, "kernel_initializer": {"module": "keras.initializers", "class_name": "VarianceScaling", "config": {"scale": 2.0, "mode": "fan_out", "distribution": "truncated_normal", "seed": null}, "registered_name": null}, "bias_initializer": {"module": "keras.initializers", "class_name": "Zeros", "config": {}, "registered_name": null}, "kernel_regularizer": null, "bias_regularizer": null, "activity_regularizer": null, "kernel_constraint": null, "bias_constraint": null}, "name": "block2d_se_reduce", "inbound_nodes": [[["block2d_se_reshape", 0, 0, {}]]]}, {"class_name": "Conv2D", "config": {"name": "block2d_se_expand", "trainable": false, "dtype": "float32", "filters": 240, "kernel_size": [1, 1], "strides": [1, 1], "padding": "same", "data_format": "channels_last", "dilation_rate": [1, 1], "groups": 1, "activation": "sigmoid", "use_bias": true, "kernel_initializer": {"module": "keras.initializers", "class_name": "VarianceScaling", "config": {"scale": 2.0, "mode": "fan_out", "distribution": "truncated_normal", "seed": null}, "registered_name": null}, "bias_initializer": {"module": "keras.initializers", "class_name": "Zeros", "config": {}, "registered_name": null}, "kernel_regularizer": null, "bias_regularizer": null, "activity_regularizer": null, "kernel_constraint": null, "bias_constraint": null}, "name": "block2d_se_expand", "inbound_nodes": [[["block2d_se_reduce", 0, 0, {}]]]}, {"class_name": "Multiply", "config": {"name": "block2d_se_excite", "trainable": false, "dtype": "float32"}, "name": "block2d_se_excite", "inbound_nodes": [[["block2d_activation", 0, 0, {}], ["block2d_se_expand", 0, 0, {}]]]}, {"class_name": "Conv2D", "config": {"name": "block2d_project_conv", "trainable": false, "dtype": "float32", "filters": 40, "kernel_size": [1, 1], "strides": [1, 1], "padding": "same", "data_format": "channels_last", "dilation_rate": [1, 1], "groups": 1, "activation": "linear", "use_bias": false, "kernel_initializer": {"module": "keras.initializers", "class_name": "VarianceScaling", "config": {"scale": 2.0, "mode": "fan_out", "distribution": "truncated_normal", "seed": null}, "registered_name": null}, "bias_initializer": {"module": "keras.initializers", "class_name": "Zeros", "config": {}, "registered_name": null}, "kernel_regularizer": null, "bias_regularizer": null, "activity_regularizer": null, "kernel_constraint": null, "bias_constraint": null}, "name": "block2d_project_conv", "inbound_nodes": [[["block2d_se_excite", 0, 0, {}]]]}, {"class_name": "BatchNormalization", "config": {"name": "block2d_project_bn", "trainable": false, "dtype": "float32", "axis": [3], "momentum": 0.99, "epsilon": 0.001, "center": true, "scale": true, "beta_initializer": {"module": "keras.initializers", "class_name": "Zeros", "config": {}, "registered_name": null}, "gamma_initializer": {"module": "keras.initializers", "class_name": "Ones", "config": {}, "registered_name": null}, "moving_mean_initializer": {"module": "keras.initializers", "class_name": "Zeros", "config": {}, "registered_name": null}, "moving_variance_initializer": {"module": "keras.initializers", "class_name": "Ones", "config": {}, "registered_name": null}, "beta_regularizer": null, "gamma_regularizer": null, "beta_constraint": null, "gamma_constraint": null}, "name": "block2d_project_bn", "inbound_nodes": [[["block2d_project_conv", 0, 0, {}]]]}, {"class_name": "Dropout", "config": {"name": "block2d_drop", "trainable": false, "dtype": "float32", "rate": 0.030769230769230774, "noise_shape": [null, 1, 1, 1], "seed": null}, "name": "block2d_drop", "inbound_nodes": [[["block2d_project_bn", 0, 0, {}]]]}, {"class_name": "Add", "config": {"name": "block2d_add", "trainable": false, "dtype": "float32"}, "name": "block2d_add", "inbound_nodes": [[["block2d_drop", 0, 0, {}], ["block2c_add", 0, 0, {}]]]}, {"class_name": "Conv2D", "config": {"name": "block2e_expand_conv", "trainable": false, "dtype": "float32", "filters": 240, "kernel_size": [1, 1], "strides": [1, 1], "padding": "same", "data_format": "channels_last", "dilation_rate": [1, 1], "groups": 1, "activation": "linear", "use_bias": false, "kernel_initializer": {"module": "keras.initializers", "class_name": "VarianceScaling", "config": {"scale": 2.0, "mode": "fan_out", "distribution": "truncated_normal", "seed": null}, "registered_name": null}, "bias_initializer": {"module": "keras.initializers", "class_name": "Zeros", "config": {}, "registered_name": null}, "kernel_regularizer": null, "bias_regularizer": null, "activity_regularizer": null, "kernel_constraint": null, "bias_constraint": null}, "name": "block2e_expand_conv", "inbound_nodes": [[["block2d_add", 0, 0, {}]]]}, {"class_name": "BatchNormalization", "config": {"name": "block2e_expand_bn", "trainable": false, "dtype": "float32", "axis": [3], "momentum": 0.99, "epsilon": 0.001, "center": true, "scale": true, "beta_initializer": {"module": "keras.initializers", "class_name": "Zeros", "config": {}, "registered_name": null}, "gamma_initializer": {"module": "keras.initializers", "class_name": "Ones", "config": {}, "registered_name": null}, "moving_mean_initializer": {"module": "keras.initializers", "class_name": "Zeros", "config": {}, "registered_name": null}, "moving_variance_initializer": {"module": "keras.initializers", "class_name": "Ones", "config": {}, "registered_name": null}, "beta_regularizer": null, "gamma_regularizer": null, "beta_constraint": null, "gamma_constraint": null}, "name": "block2e_expand_bn", "inbound_nodes": [[["block2e_expand_conv", 0, 0, {}]]]}, {"class_name": "Activation", "config": {"name": "block2e_expand_activation", "trainable": false, "dtype": "float32", "activation": "swish"}, "name": "block2e_expand_activation", "inbound_nodes": [[["block2e_expand_bn", 0, 0, {}]]]}, {"class_name": "DepthwiseConv2D", "config": {"name": "block2e_dwconv", "trainable": false, "dtype": "float32", "kernel_size": [3, 3], "strides": [1, 1], "padding": "same", "data_format": "channels_last", "dilation_rate": [1, 1], "groups": 1, "activation": "linear", "use_bias": false, "bias_initializer": {"module": "keras.initializers", "class_name": "Zeros", "config": {}, "registered_name": null}, "bias_regularizer": null, "activity_regularizer": null, "bias_constraint": null, "depth_multiplier": 1, "depthwise_initializer": {"module": "keras.initializers", "class_name": "VarianceScaling", "config": {"scale": 2.0, "mode": "fan_out", "distribution": "truncated_normal", "seed": null}, "registered_name": null}, "depthwise_regularizer": null, "depthwise_constraint": null}, "name": "block2e_dwconv", "inbound_nodes": [[["block2e_expand_activation", 0, 0, {}]]]}, {"class_name": "BatchNormalization", "config": {"name": "block2e_bn", "trainable": false, "dtype": "float32", "axis": [3], "momentum": 0.99, "epsilon": 0.001, "center": true, "scale": true, "beta_initializer": {"module": "keras.initializers", "class_name": "Zeros", "config": {}, "registered_name": null}, "gamma_initializer": {"module": "keras.initializers", "class_name": "Ones", "config": {}, "registered_name": null}, "moving_mean_initializer": {"module": "keras.initializers", "class_name": "Zeros", "config": {}, "registered_name": null}, "moving_variance_initializer": {"module": "keras.initializers", "class_name": "Ones", "config": {}, "registered_name": null}, "beta_regularizer": null, "gamma_regularizer": null, "beta_constraint": null, "gamma_constraint": null}, "name": "block2e_bn", "inbound_nodes": [[["block2e_dwconv", 0, 0, {}]]]}, {"class_name": "Activation", "config": {"name": "block2e_activation", "trainable": false, "dtype": "float32", "activation": "swish"}, "name": "block2e_activation", "inbound_nodes": [[["block2e_bn", 0, 0, {}]]]}, {"class_name": "GlobalAveragePooling2D", "config": {"name": "block2e_se_squeeze", "trainable": false, "dtype": "float32", "data_format": "channels_last", "keepdims": false}, "name": "block2e_se_squeeze", "inbound_nodes": [[["block2e_activation", 0, 0, {}]]]}, {"class_name": "Reshape", "config": {"name": "block2e_se_reshape", "trainable": false, "dtype": "float32", "target_shape": [1, 1, 240]}, "name": "block2e_se_reshape", "inbound_nodes": [[["block2e_se_squeeze", 0, 0, {}]]]}, {"class_name": "Conv2D", "config": {"name": "block2e_se_reduce", "trainable": false, "dtype": "float32", "filters": 10, "kernel_size": [1, 1], "strides": [1, 1], "padding": "same", "data_format": "channels_last", "dilation_rate": [1, 1], "groups": 1, "activation": "swish", "use_bias": true, "kernel_initializer": {"module": "keras.initializers", "class_name": "VarianceScaling", "config": {"scale": 2.0, "mode": "fan_out", "distribution": "truncated_normal", "seed": null}, "registered_name": null}, "bias_initializer": {"module": "keras.initializers", "class_name": "Zeros", "config": {}, "registered_name": null}, "kernel_regularizer": null, "bias_regularizer": null, "activity_regularizer": null, "kernel_constraint": null, "bias_constraint": null}, "name": "block2e_se_reduce", "inbound_nodes": [[["block2e_se_reshape", 0, 0, {}]]]}, {"class_name": "Conv2D", "config": {"name": "block2e_se_expand", "trainable": false, "dtype": "float32", "filters": 240, "kernel_size": [1, 1], "strides": [1, 1], "padding": "same", "data_format": "channels_last", "dilation_rate": [1, 1], "groups": 1, "activation": "sigmoid", "use_bias": true, "kernel_initializer": {"module": "keras.initializers", "class_name": "VarianceScaling", "config": {"scale": 2.0, "mode": "fan_out", "distribution": "truncated_normal", "seed": null}, "registered_name": null}, "bias_initializer": {"module": "keras.initializers", "class_name": "Zeros", "config": {}, "registered_name": null}, "kernel_regularizer": null, "bias_regularizer": null, "activity_regularizer": null, "kernel_constraint": null, "bias_constraint": null}, "name": "block2e_se_expand", "inbound_nodes": [[["block2e_se_reduce", 0, 0, {}]]]}, {"class_name": "Multiply", "config": {"name": "block2e_se_excite", "trainable": false, "dtype": "float32"}, "name": "block2e_se_excite", "inbound_nodes": [[["block2e_activation", 0, 0, {}], ["block2e_se_expand", 0, 0, {}]]]}, {"class_name": "Conv2D", "config": {"name": "block2e_project_conv", "trainable": false, "dtype": "float32", "filters": 40, "kernel_size": [1, 1], "strides": [1, 1], "padding": "same", "data_format": "channels_last", "dilation_rate": [1, 1], "groups": 1, "activation": "linear", "use_bias": false, "kernel_initializer": {"module": "keras.initializers", "class_name": "VarianceScaling", "config": {"scale": 2.0, "mode": "fan_out", "distribution": "truncated_normal", "seed": null}, "registered_name": null}, "bias_initializer": {"module": "keras.initializers", "class_name": "Zeros", "config": {}, "registered_name": null}, "kernel_regularizer": null, "bias_regularizer": null, "activity_regularizer": null, "kernel_constraint": null, "bias_constraint": null}, "name": "block2e_project_conv", "inbound_nodes": [[["block2e_se_excite", 0, 0, {}]]]}, {"class_name": "BatchNormalization", "config": {"name": "block2e_project_bn", "trainable": false, "dtype": "float32", "axis": [3], "momentum": 0.99, "epsilon": 0.001, "center": true, "scale": true, "beta_initializer": {"module": "keras.initializers", "class_name": "Zeros", "config": {}, "registered_name": null}, "gamma_initializer": {"module": "keras.initializers", "class_name": "Ones", "config": {}, "registered_name": null}, "moving_mean_initializer": {"module": "keras.initializers", "class_name": "Zeros", "config": {}, "registered_name": null}, "moving_variance_initializer": {"module": "keras.initializers", "class_name": "Ones", "config": {}, "registered_name": null}, "beta_regularizer": null, "gamma_regularizer": null, "beta_constraint": null, "gamma_constraint": null}, "name": "block2e_project_bn", "inbound_nodes": [[["block2e_project_conv", 0, 0, {}]]]}, {"class_name": "Dropout", "config": {"name": "block2e_drop", "trainable": false, "dtype": "float32", "rate": 0.0358974358974359, "noise_shape": [null, 1, 1, 1], "seed": null}, "name": "block2e_drop", "inbound_nodes": [[["block2e_project_bn", 0, 0, {}]]]}, {"class_name": "Add", "config": {"name": "block2e_add", "trainable": false, "dtype": "float32"}, "name": "block2e_add", "inbound_nodes": [[["block2e_drop", 0, 0, {}], ["block2d_add", 0, 0, {}]]]}, {"class_name": "Conv2D", "config": {"name": "block3a_expand_conv", "trainable": false, "dtype": "float32", "filters": 240, "kernel_size": [1, 1], "strides": [1, 1], "padding": "same", "data_format": "channels_last", "dilation_rate": [1, 1], "groups": 1, "activation": "linear", "use_bias": false, "kernel_initializer": {"module": "keras.initializers", "class_name": "VarianceScaling", "config": {"scale": 2.0, "mode": "fan_out", "distribution": "truncated_normal", "seed": null}, "registered_name": null}, "bias_initializer": {"module": "keras.initializers", "class_name": "Zeros", "config": {}, "registered_name": null}, "kernel_regularizer": null, "bias_regularizer": null, "activity_regularizer": null, "kernel_constraint": null, "bias_constraint": null}, "name": "block3a_expand_conv", "inbound_nodes": [[["block2e_add", 0, 0, {}]]]}, {"class_name": "BatchNormalization", "config": {"name": "block3a_expand_bn", "trainable": false, "dtype": "float32", "axis": [3], "momentum": 0.99, "epsilon": 0.001, "center": true, "scale": true, "beta_initializer": {"module": "keras.initializers", "class_name": "Zeros", "config": {}, "registered_name": null}, "gamma_initializer": {"module": "keras.initializers", "class_name": "Ones", "config": {}, "registered_name": null}, "moving_mean_initializer": {"module": "keras.initializers", "class_name": "Zeros", "config": {}, "registered_name": null}, "moving_variance_initializer": {"module": "keras.initializers", "class_name": "Ones", "config": {}, "registered_name": null}, "beta_regularizer": null, "gamma_regularizer": null, "beta_constraint": null, "gamma_constraint": null}, "name": "block3a_expand_bn", "inbound_nodes": [[["block3a_expand_conv", 0, 0, {}]]]}, {"class_name": "Activation", "config": {"name": "block3a_expand_activation", "trainable": false, "dtype": "float32", "activation": "swish"}, "name": "block3a_expand_activation", "inbound_nodes": [[["block3a_expand_bn", 0, 0, {}]]]}, {"class_name": "ZeroPadding2D", "config": {"name": "block3a_dwconv_pad", "trainable": false, "dtype": "float32", "padding": [[1, 2], [1, 2]], "data_format": "channels_last"}, "name": "block3a_dwconv_pad", "inbound_nodes": [[["block3a_expand_activation", 0, 0, {}]]]}, {"class_name": "DepthwiseConv2D", "config": {"name": "block3a_dwconv", "trainable": false, "dtype": "float32", "kernel_size": [5, 5], "strides": [2, 2], "padding": "valid", "data_format": "channels_last", "dilation_rate": [1, 1], "groups": 1, "activation": "linear", "use_bias": false, "bias_initializer": {"module": "keras.initializers", "class_name": "Zeros", "config": {}, "registered_name": null}, "bias_regularizer": null, "activity_regularizer": null, "bias_constraint": null, "depth_multiplier": 1, "depthwise_initializer": {"module": "keras.initializers", "class_name": "VarianceScaling", "config": {"scale": 2.0, "mode": "fan_out", "distribution": "truncated_normal", "seed": null}, "registered_name": null}, "depthwise_regularizer": null, "depthwise_constraint": null}, "name": "block3a_dwconv", "inbound_nodes": [[["block3a_dwconv_pad", 0, 0, {}]]]}, {"class_name": "BatchNormalization", "config": {"name": "block3a_bn", "trainable": false, "dtype": "float32", "axis": [3], "momentum": 0.99, "epsilon": 0.001, "center": true, "scale": true, "beta_initializer": {"module": "keras.initializers", "class_name": "Zeros", "config": {}, "registered_name": null}, "gamma_initializer": {"module": "keras.initializers", "class_name": "Ones", "config": {}, "registered_name": null}, "moving_mean_initializer": {"module": "keras.initializers", "class_name": "Zeros", "config": {}, "registered_name": null}, "moving_variance_initializer": {"module": "keras.initializers", "class_name": "Ones", "config": {}, "registered_name": null}, "beta_regularizer": null, "gamma_regularizer": null, "beta_constraint": null, "gamma_constraint": null}, "name": "block3a_bn", "inbound_nodes": [[["block3a_dwconv", 0, 0, {}]]]}, {"class_name": "Activation", "config": {"name": "block3a_activation", "trainable": false, "dtype": "float32", "activation": "swish"}, "name": "block3a_activation", "inbound_nodes": [[["block3a_bn", 0, 0, {}]]]}, {"class_name": "GlobalAveragePooling2D", "config": {"name": "block3a_se_squeeze", "trainable": false, "dtype": "float32", "data_format": "channels_last", "keepdims": false}, "name": "block3a_se_squeeze", "inbound_nodes": [[["block3a_activation", 0, 0, {}]]]}, {"class_name": "Reshape", "config": {"name": "block3a_se_reshape", "trainable": false, "dtype": "float32", "target_shape": [1, 1, 240]}, "name": "block3a_se_reshape", "inbound_nodes": [[["block3a_se_squeeze", 0, 0, {}]]]}, {"class_name": "Conv2D", "config": {"name": "block3a_se_reduce", "trainable": false, "dtype": "float32", "filters": 10, "kernel_size": [1, 1], "strides": [1, 1], "padding": "same", "data_format": "channels_last", "dilation_rate": [1, 1], "groups": 1, "activation": "swish", "use_bias": true, "kernel_initializer": {"module": "keras.initializers", "class_name": "VarianceScaling", "config": {"scale": 2.0, "mode": "fan_out", "distribution": "truncated_normal", "seed": null}, "registered_name": null}, "bias_initializer": {"module": "keras.initializers", "class_name": "Zeros", "config": {}, "registered_name": null}, "kernel_regularizer": null, "bias_regularizer": null, "activity_regularizer": null, "kernel_constraint": null, "bias_constraint": null}, "name": "block3a_se_reduce", "inbound_nodes": [[["block3a_se_reshape", 0, 0, {}]]]}, {"class_name": "Conv2D", "config": {"name": "block3a_se_expand", "trainable": false, "dtype": "float32", "filters": 240, "kernel_size": [1, 1], "strides": [1, 1], "padding": "same", "data_format": "channels_last", "dilation_rate": [1, 1], "groups": 1, "activation": "sigmoid", "use_bias": true, "kernel_initializer": {"module": "keras.initializers", "class_name": "VarianceScaling", "config": {"scale": 2.0, "mode": "fan_out", "distribution": "truncated_normal", "seed": null}, "registered_name": null}, "bias_initializer": {"module": "keras.initializers", "class_name": "Zeros", "config": {}, "registered_name": null}, "kernel_regularizer": null, "bias_regularizer": null, "activity_regularizer": null, "kernel_constraint": null, "bias_constraint": null}, "name": "block3a_se_expand", "inbound_nodes": [[["block3a_se_reduce", 0, 0, {}]]]}, {"class_name": "Multiply", "config": {"name": "block3a_se_excite", "trainable": false, "dtype": "float32"}, "name": "block3a_se_excite", "inbound_nodes": [[["block3a_activation", 0, 0, {}], ["block3a_se_expand", 0, 0, {}]]]}, {"class_name": "Conv2D", "config": {"name": "block3a_project_conv", "trainable": false, "dtype": "float32", "filters": 64, "kernel_size": [1, 1], "strides": [1, 1], "padding": "same", "data_format": "channels_last", "dilation_rate": [1, 1], "groups": 1, "activation": "linear", "use_bias": false, "kernel_initializer": {"module": "keras.initializers", "class_name": "VarianceScaling", "config": {"scale": 2.0, "mode": "fan_out", "distribution": "truncated_normal", "seed": null}, "registered_name": null}, "bias_initializer": {"module": "keras.initializers", "class_name": "Zeros", "config": {}, "registered_name": null}, "kernel_regularizer": null, "bias_regularizer": null, "activity_regularizer": null, "kernel_constraint": null, "bias_constraint": null}, "name": "block3a_project_conv", "inbound_nodes": [[["block3a_se_excite", 0, 0, {}]]]}, {"class_name": "BatchNormalization", "config": {"name": "block3a_project_bn", "trainable": false, "dtype": "float32", "axis": [3], "momentum": 0.99, "epsilon": 0.001, "center": true, "scale": true, "beta_initializer": {"module": "keras.initializers", "class_name": "Zeros", "config": {}, "registered_name": null}, "gamma_initializer": {"module": "keras.initializers", "class_name": "Ones", "config": {}, "registered_name": null}, "moving_mean_initializer": {"module": "keras.initializers", "class_name": "Zeros", "config": {}, "registered_name": null}, "moving_variance_initializer": {"module": "keras.initializers", "class_name": "Ones", "config": {}, "registered_name": null}, "beta_regularizer": null, "gamma_regularizer": null, "beta_constraint": null, "gamma_constraint": null}, "name": "block3a_project_bn", "inbound_nodes": [[["block3a_project_conv", 0, 0, {}]]]}, {"class_name": "Conv2D", "config": {"name": "block3b_expand_conv", "trainable": false, "dtype": "float32", "filters": 384, "kernel_size": [1, 1], "strides": [1, 1], "padding": "same", "data_format": "channels_last", "dilation_rate": [1, 1], "groups": 1, "activation": "linear", "use_bias": false, "kernel_initializer": {"module": "keras.initializers", "class_name": "VarianceScaling", "config": {"scale": 2.0, "mode": "fan_out", "distribution": "truncated_normal", "seed": null}, "registered_name": null}, "bias_initializer": {"module": "keras.initializers", "class_name": "Zeros", "config": {}, "registered_name": null}, "kernel_regularizer": null, "bias_regularizer": null, "activity_regularizer": null, "kernel_constraint": null, "bias_constraint": null}, "name": "block3b_expand_conv", "inbound_nodes": [[["block3a_project_bn", 0, 0, {}]]]}, {"class_name": "BatchNormalization", "config": {"name": "block3b_expand_bn", "trainable": false, "dtype": "float32", "axis": [3], "momentum": 0.99, "epsilon": 0.001, "center": true, "scale": true, "beta_initializer": {"module": "keras.initializers", "class_name": "Zeros", "config": {}, "registered_name": null}, "gamma_initializer": {"module": "keras.initializers", "class_name": "Ones", "config": {}, "registered_name": null}, "moving_mean_initializer": {"module": "keras.initializers", "class_name": "Zeros", "config": {}, "registered_name": null}, "moving_variance_initializer": {"module": "keras.initializers", "class_name": "Ones", "config": {}, "registered_name": null}, "beta_regularizer": null, "gamma_regularizer": null, "beta_constraint": null, "gamma_constraint": null}, "name": "block3b_expand_bn", "inbound_nodes": [[["block3b_expand_conv", 0, 0, {}]]]}, {"class_name": "Activation", "config": {"name": "block3b_expand_activation", "trainable": false, "dtype": "float32", "activation": "swish"}, "name": "block3b_expand_activation", "inbound_nodes": [[["block3b_expand_bn", 0, 0, {}]]]}, {"class_name": "DepthwiseConv2D", "config": {"name": "block3b_dwconv", "trainable": false, "dtype": "float32", "kernel_size": [5, 5], "strides": [1, 1], "padding": "same", "data_format": "channels_last", "dilation_rate": [1, 1], "groups": 1, "activation": "linear", "use_bias": false, "bias_initializer": {"module": "keras.initializers", "class_name": "Zeros", "config": {}, "registered_name": null}, "bias_regularizer": null, "activity_regularizer": null, "bias_constraint": null, "depth_multiplier": 1, "depthwise_initializer": {"module": "keras.initializers", "class_name": "VarianceScaling", "config": {"scale": 2.0, "mode": "fan_out", "distribution": "truncated_normal", "seed": null}, "registered_name": null}, "depthwise_regularizer": null, "depthwise_constraint": null}, "name": "block3b_dwconv", "inbound_nodes": [[["block3b_expand_activation", 0, 0, {}]]]}, {"class_name": "BatchNormalization", "config": {"name": "block3b_bn", "trainable": false, "dtype": "float32", "axis": [3], "momentum": 0.99, "epsilon": 0.001, "center": true, "scale": true, "beta_initializer": {"module": "keras.initializers", "class_name": "Zeros", "config": {}, "registered_name": null}, "gamma_initializer": {"module": "keras.initializers", "class_name": "Ones", "config": {}, "registered_name": null}, "moving_mean_initializer": {"module": "keras.initializers", "class_name": "Zeros", "config": {}, "registered_name": null}, "moving_variance_initializer": {"module": "keras.initializers", "class_name": "Ones", "config": {}, "registered_name": null}, "beta_regularizer": null, "gamma_regularizer": null, "beta_constraint": null, "gamma_constraint": null}, "name": "block3b_bn", "inbound_nodes": [[["block3b_dwconv", 0, 0, {}]]]}, {"class_name": "Activation", "config": {"name": "block3b_activation", "trainable": false, "dtype": "float32", "activation": "swish"}, "name": "block3b_activation", "inbound_nodes": [[["block3b_bn", 0, 0, {}]]]}, {"class_name": "GlobalAveragePooling2D", "config": {"name": "block3b_se_squeeze", "trainable": false, "dtype": "float32", "data_format": "channels_last", "keepdims": false}, "name": "block3b_se_squeeze", "inbound_nodes": [[["block3b_activation", 0, 0, {}]]]}, {"class_name": "Reshape", "config": {"name": "block3b_se_reshape", "trainable": false, "dtype": "float32", "target_shape": [1, 1, 384]}, "name": "block3b_se_reshape", "inbound_nodes": [[["block3b_se_squeeze", 0, 0, {}]]]}, {"class_name": "Conv2D", "config": {"name": "block3b_se_reduce", "trainable": false, "dtype": "float32", "filters": 16, "kernel_size": [1, 1], "strides": [1, 1], "padding": "same", "data_format": "channels_last", "dilation_rate": [1, 1], "groups": 1, "activation": "swish", "use_bias": true, "kernel_initializer": {"module": "keras.initializers", "class_name": "VarianceScaling", "config": {"scale": 2.0, "mode": "fan_out", "distribution": "truncated_normal", "seed": null}, "registered_name": null}, "bias_initializer": {"module": "keras.initializers", "class_name": "Zeros", "config": {}, "registered_name": null}, "kernel_regularizer": null, "bias_regularizer": null, "activity_regularizer": null, "kernel_constraint": null, "bias_constraint": null}, "name": "block3b_se_reduce", "inbound_nodes": [[["block3b_se_reshape", 0, 0, {}]]]}, {"class_name": "Conv2D", "config": {"name": "block3b_se_expand", "trainable": false, "dtype": "float32", "filters": 384, "kernel_size": [1, 1], "strides": [1, 1], "padding": "same", "data_format": "channels_last", "dilation_rate": [1, 1], "groups": 1, "activation": "sigmoid", "use_bias": true, "kernel_initializer": {"module": "keras.initializers", "class_name": "VarianceScaling", "config": {"scale": 2.0, "mode": "fan_out", "distribution": "truncated_normal", "seed": null}, "registered_name": null}, "bias_initializer": {"module": "keras.initializers", "class_name": "Zeros", "config": {}, "registered_name": null}, "kernel_regularizer": null, "bias_regularizer": null, "activity_regularizer": null, "kernel_constraint": null, "bias_constraint": null}, "name": "block3b_se_expand", "inbound_nodes": [[["block3b_se_reduce", 0, 0, {}]]]}, {"class_name": "Multiply", "config": {"name": "block3b_se_excite", "trainable": false, "dtype": "float32"}, "name": "block3b_se_excite", "inbound_nodes": [[["block3b_activation", 0, 0, {}], ["block3b_se_expand", 0, 0, {}]]]}, {"class_name": "Conv2D", "config": {"name": "block3b_project_conv", "trainable": false, "dtype": "float32", "filters": 64, "kernel_size": [1, 1], "strides": [1, 1], "padding": "same", "data_format": "channels_last", "dilation_rate": [1, 1], "groups": 1, "activation": "linear", "use_bias": false, "kernel_initializer": {"module": "keras.initializers", "class_name": "VarianceScaling", "config": {"scale": 2.0, "mode": "fan_out", "distribution": "truncated_normal", "seed": null}, "registered_name": null}, "bias_initializer": {"module": "keras.initializers", "class_name": "Zeros", "config": {}, "registered_name": null}, "kernel_regularizer": null, "bias_regularizer": null, "activity_regularizer": null, "kernel_constraint": null, "bias_constraint": null}, "name": "block3b_project_conv", "inbound_nodes": [[["block3b_se_excite", 0, 0, {}]]]}, {"class_name": "BatchNormalization", "config": {"name": "block3b_project_bn", "trainable": false, "dtype": "float32", "axis": [3], "momentum": 0.99, "epsilon": 0.001, "center": true, "scale": true, "beta_initializer": {"module": "keras.initializers", "class_name": "Zeros", "config": {}, "registered_name": null}, "gamma_initializer": {"module": "keras.initializers", "class_name": "Ones", "config": {}, "registered_name": null}, "moving_mean_initializer": {"module": "keras.initializers", "class_name": "Zeros", "config": {}, "registered_name": null}, "moving_variance_initializer": {"module": "keras.initializers", "class_name": "Ones", "config": {}, "registered_name": null}, "beta_regularizer": null, "gamma_regularizer": null, "beta_constraint": null, "gamma_constraint": null}, "name": "block3b_project_bn", "inbound_nodes": [[["block3b_project_conv", 0, 0, {}]]]}, {"class_name": "Dropout", "config": {"name": "block3b_drop", "trainable": false, "dtype": "float32", "rate": 0.046153846153846156, "noise_shape": [null, 1, 1, 1], "seed": null}, "name": "block3b_drop", "inbound_nodes": [[["block3b_project_bn", 0, 0, {}]]]}, {"class_name": "Add", "config": {"name": "block3b_add", "trainable": false, "dtype": "float32"}, "name": "block3b_add", "inbound_nodes": [[["block3b_drop", 0, 0, {}], ["block3a_project_bn", 0, 0, {}]]]}, {"class_name": "Conv2D", "config": {"name": "block3c_expand_conv", "trainable": false, "dtype": "float32", "filters": 384, "kernel_size": [1, 1], "strides": [1, 1], "padding": "same", "data_format": "channels_last", "dilation_rate": [1, 1], "groups": 1, "activation": "linear", "use_bias": false, "kernel_initializer": {"module": "keras.initializers", "class_name": "VarianceScaling", "config": {"scale": 2.0, "mode": "fan_out", "distribution": "truncated_normal", "seed": null}, "registered_name": null}, "bias_initializer": {"module": "keras.initializers", "class_name": "Zeros", "config": {}, "registered_name": null}, "kernel_regularizer": null, "bias_regularizer": null, "activity_regularizer": null, "kernel_constraint": null, "bias_constraint": null}, "name": "block3c_expand_conv", "inbound_nodes": [[["block3b_add", 0, 0, {}]]]}, {"class_name": "BatchNormalization", "config": {"name": "block3c_expand_bn", "trainable": false, "dtype": "float32", "axis": [3], "momentum": 0.99, "epsilon": 0.001, "center": true, "scale": true, "beta_initializer": {"module": "keras.initializers", "class_name": "Zeros", "config": {}, "registered_name": null}, "gamma_initializer": {"module": "keras.initializers", "class_name": "Ones", "config": {}, "registered_name": null}, "moving_mean_initializer": {"module": "keras.initializers", "class_name": "Zeros", "config": {}, "registered_name": null}, "moving_variance_initializer": {"module": "keras.initializers", "class_name": "Ones", "config": {}, "registered_name": null}, "beta_regularizer": null, "gamma_regularizer": null, "beta_constraint": null, "gamma_constraint": null}, "name": "block3c_expand_bn", "inbound_nodes": [[["block3c_expand_conv", 0, 0, {}]]]}, {"class_name": "Activation", "config": {"name": "block3c_expand_activation", "trainable": false, "dtype": "float32", "activation": "swish"}, "name": "block3c_expand_activation", "inbound_nodes": [[["block3c_expand_bn", 0, 0, {}]]]}, {"class_name": "DepthwiseConv2D", "config": {"name": "block3c_dwconv", "trainable": false, "dtype": "float32", "kernel_size": [5, 5], "strides": [1, 1], "padding": "same", "data_format": "channels_last", "dilation_rate": [1, 1], "groups": 1, "activation": "linear", "use_bias": false, "bias_initializer": {"module": "keras.initializers", "class_name": "Zeros", "config": {}, "registered_name": null}, "bias_regularizer": null, "activity_regularizer": null, "bias_constraint": null, "depth_multiplier": 1, "depthwise_initializer": {"module": "keras.initializers", "class_name": "VarianceScaling", "config": {"scale": 2.0, "mode": "fan_out", "distribution": "truncated_normal", "seed": null}, "registered_name": null}, "depthwise_regularizer": null, "depthwise_constraint": null}, "name": "block3c_dwconv", "inbound_nodes": [[["block3c_expand_activation", 0, 0, {}]]]}, {"class_name": "BatchNormalization", "config": {"name": "block3c_bn", "trainable": false, "dtype": "float32", "axis": [3], "momentum": 0.99, "epsilon": 0.001, "center": true, "scale": true, "beta_initializer": {"module": "keras.initializers", "class_name": "Zeros", "config": {}, "registered_name": null}, "gamma_initializer": {"module": "keras.initializers", "class_name": "Ones", "config": {}, "registered_name": null}, "moving_mean_initializer": {"module": "keras.initializers", "class_name": "Zeros", "config": {}, "registered_name": null}, "moving_variance_initializer": {"module": "keras.initializers", "class_name": "Ones", "config": {}, "registered_name": null}, "beta_regularizer": null, "gamma_regularizer": null, "beta_constraint": null, "gamma_constraint": null}, "name": "block3c_bn", "inbound_nodes": [[["block3c_dwconv", 0, 0, {}]]]}, {"class_name": "Activation", "config": {"name": "block3c_activation", "trainable": false, "dtype": "float32", "activation": "swish"}, "name": "block3c_activation", "inbound_nodes": [[["block3c_bn", 0, 0, {}]]]}, {"class_name": "GlobalAveragePooling2D", "config": {"name": "block3c_se_squeeze", "trainable": false, "dtype": "float32", "data_format": "channels_last", "keepdims": false}, "name": "block3c_se_squeeze", "inbound_nodes": [[["block3c_activation", 0, 0, {}]]]}, {"class_name": "Reshape", "config": {"name": "block3c_se_reshape", "trainable": false, "dtype": "float32", "target_shape": [1, 1, 384]}, "name": "block3c_se_reshape", "inbound_nodes": [[["block3c_se_squeeze", 0, 0, {}]]]}, {"class_name": "Conv2D", "config": {"name": "block3c_se_reduce", "trainable": false, "dtype": "float32", "filters": 16, "kernel_size": [1, 1], "strides": [1, 1], "padding": "same", "data_format": "channels_last", "dilation_rate": [1, 1], "groups": 1, "activation": "swish", "use_bias": true, "kernel_initializer": {"module": "keras.initializers", "class_name": "VarianceScaling", "config": {"scale": 2.0, "mode": "fan_out", "distribution": "truncated_normal", "seed": null}, "registered_name": null}, "bias_initializer": {"module": "keras.initializers", "class_name": "Zeros", "config": {}, "registered_name": null}, "kernel_regularizer": null, "bias_regularizer": null, "activity_regularizer": null, "kernel_constraint": null, "bias_constraint": null}, "name": "block3c_se_reduce", "inbound_nodes": [[["block3c_se_reshape", 0, 0, {}]]]}, {"class_name": "Conv2D", "config": {"name": "block3c_se_expand", "trainable": false, "dtype": "float32", "filters": 384, "kernel_size": [1, 1], "strides": [1, 1], "padding": "same", "data_format": "channels_last", "dilation_rate": [1, 1], "groups": 1, "activation": "sigmoid", "use_bias": true, "kernel_initializer": {"module": "keras.initializers", "class_name": "VarianceScaling", "config": {"scale": 2.0, "mode": "fan_out", "distribution": "truncated_normal", "seed": null}, "registered_name": null}, "bias_initializer": {"module": "keras.initializers", "class_name": "Zeros", "config": {}, "registered_name": null}, "kernel_regularizer": null, "bias_regularizer": null, "activity_regularizer": null, "kernel_constraint": null, "bias_constraint": null}, "name": "block3c_se_expand", "inbound_nodes": [[["block3c_se_reduce", 0, 0, {}]]]}, {"class_name": "Multiply", "config": {"name": "block3c_se_excite", "trainable": false, "dtype": "float32"}, "name": "block3c_se_excite", "inbound_nodes": [[["block3c_activation", 0, 0, {}], ["block3c_se_expand", 0, 0, {}]]]}, {"class_name": "Conv2D", "config": {"name": "block3c_project_conv", "trainable": false, "dtype": "float32", "filters": 64, "kernel_size": [1, 1], "strides": [1, 1], "padding": "same", "data_format": "channels_last", "dilation_rate": [1, 1], "groups": 1, "activation": "linear", "use_bias": false, "kernel_initializer": {"module": "keras.initializers", "class_name": "VarianceScaling", "config": {"scale": 2.0, "mode": "fan_out", "distribution": "truncated_normal", "seed": null}, "registered_name": null}, "bias_initializer": {"module": "keras.initializers", "class_name": "Zeros", "config": {}, "registered_name": null}, "kernel_regularizer": null, "bias_regularizer": null, "activity_regularizer": null, "kernel_constraint": null, "bias_constraint": null}, "name": "block3c_project_conv", "inbound_nodes": [[["block3c_se_excite", 0, 0, {}]]]}, {"class_name": "BatchNormalization", "config": {"name": "block3c_project_bn", "trainable": false, "dtype": "float32", "axis": [3], "momentum": 0.99, "epsilon": 0.001, "center": true, "scale": true, "beta_initializer": {"module": "keras.initializers", "class_name": "Zeros", "config": {}, "registered_name": null}, "gamma_initializer": {"module": "keras.initializers", "class_name": "Ones", "config": {}, "registered_name": null}, "moving_mean_initializer": {"module": "keras.initializers", "class_name": "Zeros", "config": {}, "registered_name": null}, "moving_variance_initializer": {"module": "keras.initializers", "class_name": "Ones", "config": {}, "registered_name": null}, "beta_regularizer": null, "gamma_regularizer": null, "beta_constraint": null, "gamma_constraint": null}, "name": "block3c_project_bn", "inbound_nodes": [[["block3c_project_conv", 0, 0, {}]]]}, {"class_name": "Dropout", "config": {"name": "block3c_drop", "trainable": false, "dtype": "float32", "rate": 0.05128205128205128, "noise_shape": [null, 1, 1, 1], "seed": null}, "name": "block3c_drop", "inbound_nodes": [[["block3c_project_bn", 0, 0, {}]]]}, {"class_name": "Add", "config": {"name": "block3c_add", "trainable": false, "dtype": "float32"}, "name": "block3c_add", "inbound_nodes": [[["block3c_drop", 0, 0, {}], ["block3b_add", 0, 0, {}]]]}, {"class_name": "Conv2D", "config": {"name": "block3d_expand_conv", "trainable": false, "dtype": "float32", "filters": 384, "kernel_size": [1, 1], "strides": [1, 1], "padding": "same", "data_format": "channels_last", "dilation_rate": [1, 1], "groups": 1, "activation": "linear", "use_bias": false, "kernel_initializer": {"module": "keras.initializers", "class_name": "VarianceScaling", "config": {"scale": 2.0, "mode": "fan_out", "distribution": "truncated_normal", "seed": null}, "registered_name": null}, "bias_initializer": {"module": "keras.initializers", "class_name": "Zeros", "config": {}, "registered_name": null}, "kernel_regularizer": null, "bias_regularizer": null, "activity_regularizer": null, "kernel_constraint": null, "bias_constraint": null}, "name": "block3d_expand_conv", "inbound_nodes": [[["block3c_add", 0, 0, {}]]]}, {"class_name": "BatchNormalization", "config": {"name": "block3d_expand_bn", "trainable": false, "dtype": "float32", "axis": [3], "momentum": 0.99, "epsilon": 0.001, "center": true, "scale": true, "beta_initializer": {"module": "keras.initializers", "class_name": "Zeros", "config": {}, "registered_name": null}, "gamma_initializer": {"module": "keras.initializers", "class_name": "Ones", "config": {}, "registered_name": null}, "moving_mean_initializer": {"module": "keras.initializers", "class_name": "Zeros", "config": {}, "registered_name": null}, "moving_variance_initializer": {"module": "keras.initializers", "class_name": "Ones", "config": {}, "registered_name": null}, "beta_regularizer": null, "gamma_regularizer": null, "beta_constraint": null, "gamma_constraint": null}, "name": "block3d_expand_bn", "inbound_nodes": [[["block3d_expand_conv", 0, 0, {}]]]}, {"class_name": "Activation", "config": {"name": "block3d_expand_activation", "trainable": false, "dtype": "float32", "activation": "swish"}, "name": "block3d_expand_activation", "inbound_nodes": [[["block3d_expand_bn", 0, 0, {}]]]}, {"class_name": "DepthwiseConv2D", "config": {"name": "block3d_dwconv", "trainable": false, "dtype": "float32", "kernel_size": [5, 5], "strides": [1, 1], "padding": "same", "data_format": "channels_last", "dilation_rate": [1, 1], "groups": 1, "activation": "linear", "use_bias": false, "bias_initializer": {"module": "keras.initializers", "class_name": "Zeros", "config": {}, "registered_name": null}, "bias_regularizer": null, "activity_regularizer": null, "bias_constraint": null, "depth_multiplier": 1, "depthwise_initializer": {"module": "keras.initializers", "class_name": "VarianceScaling", "config": {"scale": 2.0, "mode": "fan_out", "distribution": "truncated_normal", "seed": null}, "registered_name": null}, "depthwise_regularizer": null, "depthwise_constraint": null}, "name": "block3d_dwconv", "inbound_nodes": [[["block3d_expand_activation", 0, 0, {}]]]}, {"class_name": "BatchNormalization", "config": {"name": "block3d_bn", "trainable": false, "dtype": "float32", "axis": [3], "momentum": 0.99, "epsilon": 0.001, "center": true, "scale": true, "beta_initializer": {"module": "keras.initializers", "class_name": "Zeros", "config": {}, "registered_name": null}, "gamma_initializer": {"module": "keras.initializers", "class_name": "Ones", "config": {}, "registered_name": null}, "moving_mean_initializer": {"module": "keras.initializers", "class_name": "Zeros", "config": {}, "registered_name": null}, "moving_variance_initializer": {"module": "keras.initializers", "class_name": "Ones", "config": {}, "registered_name": null}, "beta_regularizer": null, "gamma_regularizer": null, "beta_constraint": null, "gamma_constraint": null}, "name": "block3d_bn", "inbound_nodes": [[["block3d_dwconv", 0, 0, {}]]]}, {"class_name": "Activation", "config": {"name": "block3d_activation", "trainable": false, "dtype": "float32", "activation": "swish"}, "name": "block3d_activation", "inbound_nodes": [[["block3d_bn", 0, 0, {}]]]}, {"class_name": "GlobalAveragePooling2D", "config": {"name": "block3d_se_squeeze", "trainable": false, "dtype": "float32", "data_format": "channels_last", "keepdims": false}, "name": "block3d_se_squeeze", "inbound_nodes": [[["block3d_activation", 0, 0, {}]]]}, {"class_name": "Reshape", "config": {"name": "block3d_se_reshape", "trainable": false, "dtype": "float32", "target_shape": [1, 1, 384]}, "name": "block3d_se_reshape", "inbound_nodes": [[["block3d_se_squeeze", 0, 0, {}]]]}, {"class_name": "Conv2D", "config": {"name": "block3d_se_reduce", "trainable": false, "dtype": "float32", "filters": 16, "kernel_size": [1, 1], "strides": [1, 1], "padding": "same", "data_format": "channels_last", "dilation_rate": [1, 1], "groups": 1, "activation": "swish", "use_bias": true, "kernel_initializer": {"module": "keras.initializers", "class_name": "VarianceScaling", "config": {"scale": 2.0, "mode": "fan_out", "distribution": "truncated_normal", "seed": null}, "registered_name": null}, "bias_initializer": {"module": "keras.initializers", "class_name": "Zeros", "config": {}, "registered_name": null}, "kernel_regularizer": null, "bias_regularizer": null, "activity_regularizer": null, "kernel_constraint": null, "bias_constraint": null}, "name": "block3d_se_reduce", "inbound_nodes": [[["block3d_se_reshape", 0, 0, {}]]]}, {"class_name": "Conv2D", "config": {"name": "block3d_se_expand", "trainable": false, "dtype": "float32", "filters": 384, "kernel_size": [1, 1], "strides": [1, 1], "padding": "same", "data_format": "channels_last", "dilation_rate": [1, 1], "groups": 1, "activation": "sigmoid", "use_bias": true, "kernel_initializer": {"module": "keras.initializers", "class_name": "VarianceScaling", "config": {"scale": 2.0, "mode": "fan_out", "distribution": "truncated_normal", "seed": null}, "registered_name": null}, "bias_initializer": {"module": "keras.initializers", "class_name": "Zeros", "config": {}, "registered_name": null}, "kernel_regularizer": null, "bias_regularizer": null, "activity_regularizer": null, "kernel_constraint": null, "bias_constraint": null}, "name": "block3d_se_expand", "inbound_nodes": [[["block3d_se_reduce", 0, 0, {}]]]}, {"class_name": "Multiply", "config": {"name": "block3d_se_excite", "trainable": false, "dtype": "float32"}, "name": "block3d_se_excite", "inbound_nodes": [[["block3d_activation", 0, 0, {}], ["block3d_se_expand", 0, 0, {}]]]}, {"class_name": "Conv2D", "config": {"name": "block3d_project_conv", "trainable": false, "dtype": "float32", "filters": 64, "kernel_size": [1, 1], "strides": [1, 1], "padding": "same", "data_format": "channels_last", "dilation_rate": [1, 1], "groups": 1, "activation": "linear", "use_bias": false, "kernel_initializer": {"module": "keras.initializers", "class_name": "VarianceScaling", "config": {"scale": 2.0, "mode": "fan_out", "distribution": "truncated_normal", "seed": null}, "registered_name": null}, "bias_initializer": {"module": "keras.initializers", "class_name": "Zeros", "config": {}, "registered_name": null}, "kernel_regularizer": null, "bias_regularizer": null, "activity_regularizer": null, "kernel_constraint": null, "bias_constraint": null}, "name": "block3d_project_conv", "inbound_nodes": [[["block3d_se_excite", 0, 0, {}]]]}, {"class_name": "BatchNormalization", "config": {"name": "block3d_project_bn", "trainable": false, "dtype": "float32", "axis": [3], "momentum": 0.99, "epsilon": 0.001, "center": true, "scale": true, "beta_initializer": {"module": "keras.initializers", "class_name": "Zeros", "config": {}, "registered_name": null}, "gamma_initializer": {"module": "keras.initializers", "class_name": "Ones", "config": {}, "registered_name": null}, "moving_mean_initializer": {"module": "keras.initializers", "class_name": "Zeros", "config": {}, "registered_name": null}, "moving_variance_initializer": {"module": "keras.initializers", "class_name": "Ones", "config": {}, "registered_name": null}, "beta_regularizer": null, "gamma_regularizer": null, "beta_constraint": null, "gamma_constraint": null}, "name": "block3d_project_bn", "inbound_nodes": [[["block3d_project_conv", 0, 0, {}]]]}, {"class_name": "Dropout", "config": {"name": "block3d_drop", "trainable": false, "dtype": "float32", "rate": 0.05641025641025642, "noise_shape": [null, 1, 1, 1], "seed": null}, "name": "block3d_drop", "inbound_nodes": [[["block3d_project_bn", 0, 0, {}]]]}, {"class_name": "Add", "config": {"name": "block3d_add", "trainable": false, "dtype": "float32"}, "name": "block3d_add", "inbound_nodes": [[["block3d_drop", 0, 0, {}], ["block3c_add", 0, 0, {}]]]}, {"class_name": "Conv2D", "config": {"name": "block3e_expand_conv", "trainable": false, "dtype": "float32", "filters": 384, "kernel_size": [1, 1], "strides": [1, 1], "padding": "same", "data_format": "channels_last", "dilation_rate": [1, 1], "groups": 1, "activation": "linear", "use_bias": false, "kernel_initializer": {"module": "keras.initializers", "class_name": "VarianceScaling", "config": {"scale": 2.0, "mode": "fan_out", "distribution": "truncated_normal", "seed": null}, "registered_name": null}, "bias_initializer": {"module": "keras.initializers", "class_name": "Zeros", "config": {}, "registered_name": null}, "kernel_regularizer": null, "bias_regularizer": null, "activity_regularizer": null, "kernel_constraint": null, "bias_constraint": null}, "name": "block3e_expand_conv", "inbound_nodes": [[["block3d_add", 0, 0, {}]]]}, {"class_name": "BatchNormalization", "config": {"name": "block3e_expand_bn", "trainable": false, "dtype": "float32", "axis": [3], "momentum": 0.99, "epsilon": 0.001, "center": true, "scale": true, "beta_initializer": {"module": "keras.initializers", "class_name": "Zeros", "config": {}, "registered_name": null}, "gamma_initializer": {"module": "keras.initializers", "class_name": "Ones", "config": {}, "registered_name": null}, "moving_mean_initializer": {"module": "keras.initializers", "class_name": "Zeros", "config": {}, "registered_name": null}, "moving_variance_initializer": {"module": "keras.initializers", "class_name": "Ones", "config": {}, "registered_name": null}, "beta_regularizer": null, "gamma_regularizer": null, "beta_constraint": null, "gamma_constraint": null}, "name": "block3e_expand_bn", "inbound_nodes": [[["block3e_expand_conv", 0, 0, {}]]]}, {"class_name": "Activation", "config": {"name": "block3e_expand_activation", "trainable": false, "dtype": "float32", "activation": "swish"}, "name": "block3e_expand_activation", "inbound_nodes": [[["block3e_expand_bn", 0, 0, {}]]]}, {"class_name": "DepthwiseConv2D", "config": {"name": "block3e_dwconv", "trainable": false, "dtype": "float32", "kernel_size": [5, 5], "strides": [1, 1], "padding": "same", "data_format": "channels_last", "dilation_rate": [1, 1], "groups": 1, "activation": "linear", "use_bias": false, "bias_initializer": {"module": "keras.initializers", "class_name": "Zeros", "config": {}, "registered_name": null}, "bias_regularizer": null, "activity_regularizer": null, "bias_constraint": null, "depth_multiplier": 1, "depthwise_initializer": {"module": "keras.initializers", "class_name": "VarianceScaling", "config": {"scale": 2.0, "mode": "fan_out", "distribution": "truncated_normal", "seed": null}, "registered_name": null}, "depthwise_regularizer": null, "depthwise_constraint": null}, "name": "block3e_dwconv", "inbound_nodes": [[["block3e_expand_activation", 0, 0, {}]]]}, {"class_name": "BatchNormalization", "config": {"name": "block3e_bn", "trainable": false, "dtype": "float32", "axis": [3], "momentum": 0.99, "epsilon": 0.001, "center": true, "scale": true, "beta_initializer": {"module": "keras.initializers", "class_name": "Zeros", "config": {}, "registered_name": null}, "gamma_initializer": {"module": "keras.initializers", "class_name": "Ones", "config": {}, "registered_name": null}, "moving_mean_initializer": {"module": "keras.initializers", "class_name": "Zeros", "config": {}, "registered_name": null}, "moving_variance_initializer": {"module": "keras.initializers", "class_name": "Ones", "config": {}, "registered_name": null}, "beta_regularizer": null, "gamma_regularizer": null, "beta_constraint": null, "gamma_constraint": null}, "name": "block3e_bn", "inbound_nodes": [[["block3e_dwconv", 0, 0, {}]]]}, {"class_name": "Activation", "config": {"name": "block3e_activation", "trainable": false, "dtype": "float32", "activation": "swish"}, "name": "block3e_activation", "inbound_nodes": [[["block3e_bn", 0, 0, {}]]]}, {"class_name": "GlobalAveragePooling2D", "config": {"name": "block3e_se_squeeze", "trainable": false, "dtype": "float32", "data_format": "channels_last", "keepdims": false}, "name": "block3e_se_squeeze", "inbound_nodes": [[["block3e_activation", 0, 0, {}]]]}, {"class_name": "Reshape", "config": {"name": "block3e_se_reshape", "trainable": false, "dtype": "float32", "target_shape": [1, 1, 384]}, "name": "block3e_se_reshape", "inbound_nodes": [[["block3e_se_squeeze", 0, 0, {}]]]}, {"class_name": "Conv2D", "config": {"name": "block3e_se_reduce", "trainable": false, "dtype": "float32", "filters": 16, "kernel_size": [1, 1], "strides": [1, 1], "padding": "same", "data_format": "channels_last", "dilation_rate": [1, 1], "groups": 1, "activation": "swish", "use_bias": true, "kernel_initializer": {"module": "keras.initializers", "class_name": "VarianceScaling", "config": {"scale": 2.0, "mode": "fan_out", "distribution": "truncated_normal", "seed": null}, "registered_name": null}, "bias_initializer": {"module": "keras.initializers", "class_name": "Zeros", "config": {}, "registered_name": null}, "kernel_regularizer": null, "bias_regularizer": null, "activity_regularizer": null, "kernel_constraint": null, "bias_constraint": null}, "name": "block3e_se_reduce", "inbound_nodes": [[["block3e_se_reshape", 0, 0, {}]]]}, {"class_name": "Conv2D", "config": {"name": "block3e_se_expand", "trainable": false, "dtype": "float32", "filters": 384, "kernel_size": [1, 1], "strides": [1, 1], "padding": "same", "data_format": "channels_last", "dilation_rate": [1, 1], "groups": 1, "activation": "sigmoid", "use_bias": true, "kernel_initializer": {"module": "keras.initializers", "class_name": "VarianceScaling", "config": {"scale": 2.0, "mode": "fan_out", "distribution": "truncated_normal", "seed": null}, "registered_name": null}, "bias_initializer": {"module": "keras.initializers", "class_name": "Zeros", "config": {}, "registered_name": null}, "kernel_regularizer": null, "bias_regularizer": null, "activity_regularizer": null, "kernel_constraint": null, "bias_constraint": null}, "name": "block3e_se_expand", "inbound_nodes": [[["block3e_se_reduce", 0, 0, {}]]]}, {"class_name": "Multiply", "config": {"name": "block3e_se_excite", "trainable": false, "dtype": "float32"}, "name": "block3e_se_excite", "inbound_nodes": [[["block3e_activation", 0, 0, {}], ["block3e_se_expand", 0, 0, {}]]]}, {"class_name": "Conv2D", "config": {"name": "block3e_project_conv", "trainable": false, "dtype": "float32", "filters": 64, "kernel_size": [1, 1], "strides": [1, 1], "padding": "same", "data_format": "channels_last", "dilation_rate": [1, 1], "groups": 1, "activation": "linear", "use_bias": false, "kernel_initializer": {"module": "keras.initializers", "class_name": "VarianceScaling", "config": {"scale": 2.0, "mode": "fan_out", "distribution": "truncated_normal", "seed": null}, "registered_name": null}, "bias_initializer": {"module": "keras.initializers", "class_name": "Zeros", "config": {}, "registered_name": null}, "kernel_regularizer": null, "bias_regularizer": null, "activity_regularizer": null, "kernel_constraint": null, "bias_constraint": null}, "name": "block3e_project_conv", "inbound_nodes": [[["block3e_se_excite", 0, 0, {}]]]}, {"class_name": "BatchNormalization", "config": {"name": "block3e_project_bn", "trainable": false, "dtype": "float32", "axis": [3], "momentum": 0.99, "epsilon": 0.001, "center": true, "scale": true, "beta_initializer": {"module": "keras.initializers", "class_name": "Zeros", "config": {}, "registered_name": null}, "gamma_initializer": {"module": "keras.initializers", "class_name": "Ones", "config": {}, "registered_name": null}, "moving_mean_initializer": {"module": "keras.initializers", "class_name": "Zeros", "config": {}, "registered_name": null}, "moving_variance_initializer": {"module": "keras.initializers", "class_name": "Ones", "config": {}, "registered_name": null}, "beta_regularizer": null, "gamma_regularizer": null, "beta_constraint": null, "gamma_constraint": null}, "name": "block3e_project_bn", "inbound_nodes": [[["block3e_project_conv", 0, 0, {}]]]}, {"class_name": "Dropout", "config": {"name": "block3e_drop", "trainable": false, "dtype": "float32", "rate": 0.06153846153846155, "noise_shape": [null, 1, 1, 1], "seed": null}, "name": "block3e_drop", "inbound_nodes": [[["block3e_project_bn", 0, 0, {}]]]}, {"class_name": "Add", "config": {"name": "block3e_add", "trainable": false, "dtype": "float32"}, "name": "block3e_add", "inbound_nodes": [[["block3e_drop", 0, 0, {}], ["block3d_add", 0, 0, {}]]]}, {"class_name": "Conv2D", "config": {"name": "block4a_expand_conv", "trainable": false, "dtype": "float32", "filters": 384, "kernel_size": [1, 1], "strides": [1, 1], "padding": "same", "data_format": "channels_last", "dilation_rate": [1, 1], "groups": 1, "activation": "linear", "use_bias": false, "kernel_initializer": {"module": "keras.initializers", "class_name": "VarianceScaling", "config": {"scale": 2.0, "mode": "fan_out", "distribution": "truncated_normal", "seed": null}, "registered_name": null}, "bias_initializer": {"module": "keras.initializers", "class_name": "Zeros", "config": {}, "registered_name": null}, "kernel_regularizer": null, "bias_regularizer": null, "activity_regularizer": null, "kernel_constraint": null, "bias_constraint": null}, "name": "block4a_expand_conv", "inbound_nodes": [[["block3e_add", 0, 0, {}]]]}, {"class_name": "BatchNormalization", "config": {"name": "block4a_expand_bn", "trainable": false, "dtype": "float32", "axis": [3], "momentum": 0.99, "epsilon": 0.001, "center": true, "scale": true, "beta_initializer": {"module": "keras.initializers", "class_name": "Zeros", "config": {}, "registered_name": null}, "gamma_initializer": {"module": "keras.initializers", "class_name": "Ones", "config": {}, "registered_name": null}, "moving_mean_initializer": {"module": "keras.initializers", "class_name": "Zeros", "config": {}, "registered_name": null}, "moving_variance_initializer": {"module": "keras.initializers", "class_name": "Ones", "config": {}, "registered_name": null}, "beta_regularizer": null, "gamma_regularizer": null, "beta_constraint": null, "gamma_constraint": null}, "name": "block4a_expand_bn", "inbound_nodes": [[["block4a_expand_conv", 0, 0, {}]]]}, {"class_name": "Activation", "config": {"name": "block4a_expand_activation", "trainable": false, "dtype": "float32", "activation": "swish"}, "name": "block4a_expand_activation", "inbound_nodes": [[["block4a_expand_bn", 0, 0, {}]]]}, {"class_name": "ZeroPadding2D", "config": {"name": "block4a_dwconv_pad", "trainable": false, "dtype": "float32", "padding": [[1, 1], [1, 1]], "data_format": "channels_last"}, "name": "block4a_dwconv_pad", "inbound_nodes": [[["block4a_expand_activation", 0, 0, {}]]]}, {"class_name": "DepthwiseConv2D", "config": {"name": "block4a_dwconv", "trainable": false, "dtype": "float32", "kernel_size": [3, 3], "strides": [2, 2], "padding": "valid", "data_format": "channels_last", "dilation_rate": [1, 1], "groups": 1, "activation": "linear", "use_bias": false, "bias_initializer": {"module": "keras.initializers", "class_name": "Zeros", "config": {}, "registered_name": null}, "bias_regularizer": null, "activity_regularizer": null, "bias_constraint": null, "depth_multiplier": 1, "depthwise_initializer": {"module": "keras.initializers", "class_name": "VarianceScaling", "config": {"scale": 2.0, "mode": "fan_out", "distribution": "truncated_normal", "seed": null}, "registered_name": null}, "depthwise_regularizer": null, "depthwise_constraint": null}, "name": "block4a_dwconv", "inbound_nodes": [[["block4a_dwconv_pad", 0, 0, {}]]]}, {"class_name": "BatchNormalization", "config": {"name": "block4a_bn", "trainable": false, "dtype": "float32", "axis": [3], "momentum": 0.99, "epsilon": 0.001, "center": true, "scale": true, "beta_initializer": {"module": "keras.initializers", "class_name": "Zeros", "config": {}, "registered_name": null}, "gamma_initializer": {"module": "keras.initializers", "class_name": "Ones", "config": {}, "registered_name": null}, "moving_mean_initializer": {"module": "keras.initializers", "class_name": "Zeros", "config": {}, "registered_name": null}, "moving_variance_initializer": {"module": "keras.initializers", "class_name": "Ones", "config": {}, "registered_name": null}, "beta_regularizer": null, "gamma_regularizer": null, "beta_constraint": null, "gamma_constraint": null}, "name": "block4a_bn", "inbound_nodes": [[["block4a_dwconv", 0, 0, {}]]]}, {"class_name": "Activation", "config": {"name": "block4a_activation", "trainable": false, "dtype": "float32", "activation": "swish"}, "name": "block4a_activation", "inbound_nodes": [[["block4a_bn", 0, 0, {}]]]}, {"class_name": "GlobalAveragePooling2D", "config": {"name": "block4a_se_squeeze", "trainable": false, "dtype": "float32", "data_format": "channels_last", "keepdims": false}, "name": "block4a_se_squeeze", "inbound_nodes": [[["block4a_activation", 0, 0, {}]]]}, {"class_name": "Reshape", "config": {"name": "block4a_se_reshape", "trainable": false, "dtype": "float32", "target_shape": [1, 1, 384]}, "name": "block4a_se_reshape", "inbound_nodes": [[["block4a_se_squeeze", 0, 0, {}]]]}, {"class_name": "Conv2D", "config": {"name": "block4a_se_reduce", "trainable": false, "dtype": "float32", "filters": 16, "kernel_size": [1, 1], "strides": [1, 1], "padding": "same", "data_format": "channels_last", "dilation_rate": [1, 1], "groups": 1, "activation": "swish", "use_bias": true, "kernel_initializer": {"module": "keras.initializers", "class_name": "VarianceScaling", "config": {"scale": 2.0, "mode": "fan_out", "distribution": "truncated_normal", "seed": null}, "registered_name": null}, "bias_initializer": {"module": "keras.initializers", "class_name": "Zeros", "config": {}, "registered_name": null}, "kernel_regularizer": null, "bias_regularizer": null, "activity_regularizer": null, "kernel_constraint": null, "bias_constraint": null}, "name": "block4a_se_reduce", "inbound_nodes": [[["block4a_se_reshape", 0, 0, {}]]]}, {"class_name": "Conv2D", "config": {"name": "block4a_se_expand", "trainable": false, "dtype": "float32", "filters": 384, "kernel_size": [1, 1], "strides": [1, 1], "padding": "same", "data_format": "channels_last", "dilation_rate": [1, 1], "groups": 1, "activation": "sigmoid", "use_bias": true, "kernel_initializer": {"module": "keras.initializers", "class_name": "VarianceScaling", "config": {"scale": 2.0, "mode": "fan_out", "distribution": "truncated_normal", "seed": null}, "registered_name": null}, "bias_initializer": {"module": "keras.initializers", "class_name": "Zeros", "config": {}, "registered_name": null}, "kernel_regularizer": null, "bias_regularizer": null, "activity_regularizer": null, "kernel_constraint": null, "bias_constraint": null}, "name": "block4a_se_expand", "inbound_nodes": [[["block4a_se_reduce", 0, 0, {}]]]}, {"class_name": "Multiply", "config": {"name": "block4a_se_excite", "trainable": false, "dtype": "float32"}, "name": "block4a_se_excite", "inbound_nodes": [[["block4a_activation", 0, 0, {}], ["block4a_se_expand", 0, 0, {}]]]}, {"class_name": "Conv2D", "config": {"name": "block4a_project_conv", "trainable": false, "dtype": "float32", "filters": 128, "kernel_size": [1, 1], "strides": [1, 1], "padding": "same", "data_format": "channels_last", "dilation_rate": [1, 1], "groups": 1, "activation": "linear", "use_bias": false, "kernel_initializer": {"module": "keras.initializers", "class_name": "VarianceScaling", "config": {"scale": 2.0, "mode": "fan_out", "distribution": "truncated_normal", "seed": null}, "registered_name": null}, "bias_initializer": {"module": "keras.initializers", "class_name": "Zeros", "config": {}, "registered_name": null}, "kernel_regularizer": null, "bias_regularizer": null, "activity_regularizer": null, "kernel_constraint": null, "bias_constraint": null}, "name": "block4a_project_conv", "inbound_nodes": [[["block4a_se_excite", 0, 0, {}]]]}, {"class_name": "BatchNormalization", "config": {"name": "block4a_project_bn", "trainable": false, "dtype": "float32", "axis": [3], "momentum": 0.99, "epsilon": 0.001, "center": true, "scale": true, "beta_initializer": {"module": "keras.initializers", "class_name": "Zeros", "config": {}, "registered_name": null}, "gamma_initializer": {"module": "keras.initializers", "class_name": "Ones", "config": {}, "registered_name": null}, "moving_mean_initializer": {"module": "keras.initializers", "class_name": "Zeros", "config": {}, "registered_name": null}, "moving_variance_initializer": {"module": "keras.initializers", "class_name": "Ones", "config": {}, "registered_name": null}, "beta_regularizer": null, "gamma_regularizer": null, "beta_constraint": null, "gamma_constraint": null}, "name": "block4a_project_bn", "inbound_nodes": [[["block4a_project_conv", 0, 0, {}]]]}, {"class_name": "Conv2D", "config": {"name": "block4b_expand_conv", "trainable": false, "dtype": "float32", "filters": 768, "kernel_size": [1, 1], "strides": [1, 1], "padding": "same", "data_format": "channels_last", "dilation_rate": [1, 1], "groups": 1, "activation": "linear", "use_bias": false, "kernel_initializer": {"module": "keras.initializers", "class_name": "VarianceScaling", "config": {"scale": 2.0, "mode": "fan_out", "distribution": "truncated_normal", "seed": null}, "registered_name": null}, "bias_initializer": {"module": "keras.initializers", "class_name": "Zeros", "config": {}, "registered_name": null}, "kernel_regularizer": null, "bias_regularizer": null, "activity_regularizer": null, "kernel_constraint": null, "bias_constraint": null}, "name": "block4b_expand_conv", "inbound_nodes": [[["block4a_project_bn", 0, 0, {}]]]}, {"class_name": "BatchNormalization", "config": {"name": "block4b_expand_bn", "trainable": false, "dtype": "float32", "axis": [3], "momentum": 0.99, "epsilon": 0.001, "center": true, "scale": true, "beta_initializer": {"module": "keras.initializers", "class_name": "Zeros", "config": {}, "registered_name": null}, "gamma_initializer": {"module": "keras.initializers", "class_name": "Ones", "config": {}, "registered_name": null}, "moving_mean_initializer": {"module": "keras.initializers", "class_name": "Zeros", "config": {}, "registered_name": null}, "moving_variance_initializer": {"module": "keras.initializers", "class_name": "Ones", "config": {}, "registered_name": null}, "beta_regularizer": null, "gamma_regularizer": null, "beta_constraint": null, "gamma_constraint": null}, "name": "block4b_expand_bn", "inbound_nodes": [[["block4b_expand_conv", 0, 0, {}]]]}, {"class_name": "Activation", "config": {"name": "block4b_expand_activation", "trainable": false, "dtype": "float32", "activation": "swish"}, "name": "block4b_expand_activation", "inbound_nodes": [[["block4b_expand_bn", 0, 0, {}]]]}, {"class_name": "DepthwiseConv2D", "config": {"name": "block4b_dwconv", "trainable": false, "dtype": "float32", "kernel_size": [3, 3], "strides": [1, 1], "padding": "same", "data_format": "channels_last", "dilation_rate": [1, 1], "groups": 1, "activation": "linear", "use_bias": false, "bias_initializer": {"module": "keras.initializers", "class_name": "Zeros", "config": {}, "registered_name": null}, "bias_regularizer": null, "activity_regularizer": null, "bias_constraint": null, "depth_multiplier": 1, "depthwise_initializer": {"module": "keras.initializers", "class_name": "VarianceScaling", "config": {"scale": 2.0, "mode": "fan_out", "distribution": "truncated_normal", "seed": null}, "registered_name": null}, "depthwise_regularizer": null, "depthwise_constraint": null}, "name": "block4b_dwconv", "inbound_nodes": [[["block4b_expand_activation", 0, 0, {}]]]}, {"class_name": "BatchNormalization", "config": {"name": "block4b_bn", "trainable": false, "dtype": "float32", "axis": [3], "momentum": 0.99, "epsilon": 0.001, "center": true, "scale": true, "beta_initializer": {"module": "keras.initializers", "class_name": "Zeros", "config": {}, "registered_name": null}, "gamma_initializer": {"module": "keras.initializers", "class_name": "Ones", "config": {}, "registered_name": null}, "moving_mean_initializer": {"module": "keras.initializers", "class_name": "Zeros", "config": {}, "registered_name": null}, "moving_variance_initializer": {"module": "keras.initializers", "class_name": "Ones", "config": {}, "registered_name": null}, "beta_regularizer": null, "gamma_regularizer": null, "beta_constraint": null, "gamma_constraint": null}, "name": "block4b_bn", "inbound_nodes": [[["block4b_dwconv", 0, 0, {}]]]}, {"class_name": "Activation", "config": {"name": "block4b_activation", "trainable": false, "dtype": "float32", "activation": "swish"}, "name": "block4b_activation", "inbound_nodes": [[["block4b_bn", 0, 0, {}]]]}, {"class_name": "GlobalAveragePooling2D", "config": {"name": "block4b_se_squeeze", "trainable": false, "dtype": "float32", "data_format": "channels_last", "keepdims": false}, "name": "block4b_se_squeeze", "inbound_nodes": [[["block4b_activation", 0, 0, {}]]]}, {"class_name": "Reshape", "config": {"name": "block4b_se_reshape", "trainable": false, "dtype": "float32", "target_shape": [1, 1, 768]}, "name": "block4b_se_reshape", "inbound_nodes": [[["block4b_se_squeeze", 0, 0, {}]]]}, {"class_name": "Conv2D", "config": {"name": "block4b_se_reduce", "trainable": false, "dtype": "float32", "filters": 32, "kernel_size": [1, 1], "strides": [1, 1], "padding": "same", "data_format": "channels_last", "dilation_rate": [1, 1], "groups": 1, "activation": "swish", "use_bias": true, "kernel_initializer": {"module": "keras.initializers", "class_name": "VarianceScaling", "config": {"scale": 2.0, "mode": "fan_out", "distribution": "truncated_normal", "seed": null}, "registered_name": null}, "bias_initializer": {"module": "keras.initializers", "class_name": "Zeros", "config": {}, "registered_name": null}, "kernel_regularizer": null, "bias_regularizer": null, "activity_regularizer": null, "kernel_constraint": null, "bias_constraint": null}, "name": "block4b_se_reduce", "inbound_nodes": [[["block4b_se_reshape", 0, 0, {}]]]}, {"class_name": "Conv2D", "config": {"name": "block4b_se_expand", "trainable": false, "dtype": "float32", "filters": 768, "kernel_size": [1, 1], "strides": [1, 1], "padding": "same", "data_format": "channels_last", "dilation_rate": [1, 1], "groups": 1, "activation": "sigmoid", "use_bias": true, "kernel_initializer": {"module": "keras.initializers", "class_name": "VarianceScaling", "config": {"scale": 2.0, "mode": "fan_out", "distribution": "truncated_normal", "seed": null}, "registered_name": null}, "bias_initializer": {"module": "keras.initializers", "class_name": "Zeros", "config": {}, "registered_name": null}, "kernel_regularizer": null, "bias_regularizer": null, "activity_regularizer": null, "kernel_constraint": null, "bias_constraint": null}, "name": "block4b_se_expand", "inbound_nodes": [[["block4b_se_reduce", 0, 0, {}]]]}, {"class_name": "Multiply", "config": {"name": "block4b_se_excite", "trainable": false, "dtype": "float32"}, "name": "block4b_se_excite", "inbound_nodes": [[["block4b_activation", 0, 0, {}], ["block4b_se_expand", 0, 0, {}]]]}, {"class_name": "Conv2D", "config": {"name": "block4b_project_conv", "trainable": false, "dtype": "float32", "filters": 128, "kernel_size": [1, 1], "strides": [1, 1], "padding": "same", "data_format": "channels_last", "dilation_rate": [1, 1], "groups": 1, "activation": "linear", "use_bias": false, "kernel_initializer": {"module": "keras.initializers", "class_name": "VarianceScaling", "config": {"scale": 2.0, "mode": "fan_out", "distribution": "truncated_normal", "seed": null}, "registered_name": null}, "bias_initializer": {"module": "keras.initializers", "class_name": "Zeros", "config": {}, "registered_name": null}, "kernel_regularizer": null, "bias_regularizer": null, "activity_regularizer": null, "kernel_constraint": null, "bias_constraint": null}, "name": "block4b_project_conv", "inbound_nodes": [[["block4b_se_excite", 0, 0, {}]]]}, {"class_name": "BatchNormalization", "config": {"name": "block4b_project_bn", "trainable": false, "dtype": "float32", "axis": [3], "momentum": 0.99, "epsilon": 0.001, "center": true, "scale": true, "beta_initializer": {"module": "keras.initializers", "class_name": "Zeros", "config": {}, "registered_name": null}, "gamma_initializer": {"module": "keras.initializers", "class_name": "Ones", "config": {}, "registered_name": null}, "moving_mean_initializer": {"module": "keras.initializers", "class_name": "Zeros", "config": {}, "registered_name": null}, "moving_variance_initializer": {"module": "keras.initializers", "class_name": "Ones", "config": {}, "registered_name": null}, "beta_regularizer": null, "gamma_regularizer": null, "beta_constraint": null, "gamma_constraint": null}, "name": "block4b_project_bn", "inbound_nodes": [[["block4b_project_conv", 0, 0, {}]]]}, {"class_name": "Dropout", "config": {"name": "block4b_drop", "trainable": false, "dtype": "float32", "rate": 0.0717948717948718, "noise_shape": [null, 1, 1, 1], "seed": null}, "name": "block4b_drop", "inbound_nodes": [[["block4b_project_bn", 0, 0, {}]]]}, {"class_name": "Add", "config": {"name": "block4b_add", "trainable": false, "dtype": "float32"}, "name": "block4b_add", "inbound_nodes": [[["block4b_drop", 0, 0, {}], ["block4a_project_bn", 0, 0, {}]]]}, {"class_name": "Conv2D", "config": {"name": "block4c_expand_conv", "trainable": false, "dtype": "float32", "filters": 768, "kernel_size": [1, 1], "strides": [1, 1], "padding": "same", "data_format": "channels_last", "dilation_rate": [1, 1], "groups": 1, "activation": "linear", "use_bias": false, "kernel_initializer": {"module": "keras.initializers", "class_name": "VarianceScaling", "config": {"scale": 2.0, "mode": "fan_out", "distribution": "truncated_normal", "seed": null}, "registered_name": null}, "bias_initializer": {"module": "keras.initializers", "class_name": "Zeros", "config": {}, "registered_name": null}, "kernel_regularizer": null, "bias_regularizer": null, "activity_regularizer": null, "kernel_constraint": null, "bias_constraint": null}, "name": "block4c_expand_conv", "inbound_nodes": [[["block4b_add", 0, 0, {}]]]}, {"class_name": "BatchNormalization", "config": {"name": "block4c_expand_bn", "trainable": false, "dtype": "float32", "axis": [3], "momentum": 0.99, "epsilon": 0.001, "center": true, "scale": true, "beta_initializer": {"module": "keras.initializers", "class_name": "Zeros", "config": {}, "registered_name": null}, "gamma_initializer": {"module": "keras.initializers", "class_name": "Ones", "config": {}, "registered_name": null}, "moving_mean_initializer": {"module": "keras.initializers", "class_name": "Zeros", "config": {}, "registered_name": null}, "moving_variance_initializer": {"module": "keras.initializers", "class_name": "Ones", "config": {}, "registered_name": null}, "beta_regularizer": null, "gamma_regularizer": null, "beta_constraint": null, "gamma_constraint": null}, "name": "block4c_expand_bn", "inbound_nodes": [[["block4c_expand_conv", 0, 0, {}]]]}, {"class_name": "Activation", "config": {"name": "block4c_expand_activation", "trainable": false, "dtype": "float32", "activation": "swish"}, "name": "block4c_expand_activation", "inbound_nodes": [[["block4c_expand_bn", 0, 0, {}]]]}, {"class_name": "DepthwiseConv2D", "config": {"name": "block4c_dwconv", "trainable": false, "dtype": "float32", "kernel_size": [3, 3], "strides": [1, 1], "padding": "same", "data_format": "channels_last", "dilation_rate": [1, 1], "groups": 1, "activation": "linear", "use_bias": false, "bias_initializer": {"module": "keras.initializers", "class_name": "Zeros", "config": {}, "registered_name": null}, "bias_regularizer": null, "activity_regularizer": null, "bias_constraint": null, "depth_multiplier": 1, "depthwise_initializer": {"module": "keras.initializers", "class_name": "VarianceScaling", "config": {"scale": 2.0, "mode": "fan_out", "distribution": "truncated_normal", "seed": null}, "registered_name": null}, "depthwise_regularizer": null, "depthwise_constraint": null}, "name": "block4c_dwconv", "inbound_nodes": [[["block4c_expand_activation", 0, 0, {}]]]}, {"class_name": "BatchNormalization", "config": {"name": "block4c_bn", "trainable": false, "dtype": "float32", "axis": [3], "momentum": 0.99, "epsilon": 0.001, "center": true, "scale": true, "beta_initializer": {"module": "keras.initializers", "class_name": "Zeros", "config": {}, "registered_name": null}, "gamma_initializer": {"module": "keras.initializers", "class_name": "Ones", "config": {}, "registered_name": null}, "moving_mean_initializer": {"module": "keras.initializers", "class_name": "Zeros", "config": {}, "registered_name": null}, "moving_variance_initializer": {"module": "keras.initializers", "class_name": "Ones", "config": {}, "registered_name": null}, "beta_regularizer": null, "gamma_regularizer": null, "beta_constraint": null, "gamma_constraint": null}, "name": "block4c_bn", "inbound_nodes": [[["block4c_dwconv", 0, 0, {}]]]}, {"class_name": "Activation", "config": {"name": "block4c_activation", "trainable": false, "dtype": "float32", "activation": "swish"}, "name": "block4c_activation", "inbound_nodes": [[["block4c_bn", 0, 0, {}]]]}, {"class_name": "GlobalAveragePooling2D", "config": {"name": "block4c_se_squeeze", "trainable": false, "dtype": "float32", "data_format": "channels_last", "keepdims": false}, "name": "block4c_se_squeeze", "inbound_nodes": [[["block4c_activation", 0, 0, {}]]]}, {"class_name": "Reshape", "config": {"name": "block4c_se_reshape", "trainable": false, "dtype": "float32", "target_shape": [1, 1, 768]}, "name": "block4c_se_reshape", "inbound_nodes": [[["block4c_se_squeeze", 0, 0, {}]]]}, {"class_name": "Conv2D", "config": {"name": "block4c_se_reduce", "trainable": false, "dtype": "float32", "filters": 32, "kernel_size": [1, 1], "strides": [1, 1], "padding": "same", "data_format": "channels_last", "dilation_rate": [1, 1], "groups": 1, "activation": "swish", "use_bias": true, "kernel_initializer": {"module": "keras.initializers", "class_name": "VarianceScaling", "config": {"scale": 2.0, "mode": "fan_out", "distribution": "truncated_normal", "seed": null}, "registered_name": null}, "bias_initializer": {"module": "keras.initializers", "class_name": "Zeros", "config": {}, "registered_name": null}, "kernel_regularizer": null, "bias_regularizer": null, "activity_regularizer": null, "kernel_constraint": null, "bias_constraint": null}, "name": "block4c_se_reduce", "inbound_nodes": [[["block4c_se_reshape", 0, 0, {}]]]}, {"class_name": "Conv2D", "config": {"name": "block4c_se_expand", "trainable": false, "dtype": "float32", "filters": 768, "kernel_size": [1, 1], "strides": [1, 1], "padding": "same", "data_format": "channels_last", "dilation_rate": [1, 1], "groups": 1, "activation": "sigmoid", "use_bias": true, "kernel_initializer": {"module": "keras.initializers", "class_name": "VarianceScaling", "config": {"scale": 2.0, "mode": "fan_out", "distribution": "truncated_normal", "seed": null}, "registered_name": null}, "bias_initializer": {"module": "keras.initializers", "class_name": "Zeros", "config": {}, "registered_name": null}, "kernel_regularizer": null, "bias_regularizer": null, "activity_regularizer": null, "kernel_constraint": null, "bias_constraint": null}, "name": "block4c_se_expand", "inbound_nodes": [[["block4c_se_reduce", 0, 0, {}]]]}, {"class_name": "Multiply", "config": {"name": "block4c_se_excite", "trainable": false, "dtype": "float32"}, "name": "block4c_se_excite", "inbound_nodes": [[["block4c_activation", 0, 0, {}], ["block4c_se_expand", 0, 0, {}]]]}, {"class_name": "Conv2D", "config": {"name": "block4c_project_conv", "trainable": false, "dtype": "float32", "filters": 128, "kernel_size": [1, 1], "strides": [1, 1], "padding": "same", "data_format": "channels_last", "dilation_rate": [1, 1], "groups": 1, "activation": "linear", "use_bias": false, "kernel_initializer": {"module": "keras.initializers", "class_name": "VarianceScaling", "config": {"scale": 2.0, "mode": "fan_out", "distribution": "truncated_normal", "seed": null}, "registered_name": null}, "bias_initializer": {"module": "keras.initializers", "class_name": "Zeros", "config": {}, "registered_name": null}, "kernel_regularizer": null, "bias_regularizer": null, "activity_regularizer": null, "kernel_constraint": null, "bias_constraint": null}, "name": "block4c_project_conv", "inbound_nodes": [[["block4c_se_excite", 0, 0, {}]]]}, {"class_name": "BatchNormalization", "config": {"name": "block4c_project_bn", "trainable": false, "dtype": "float32", "axis": [3], "momentum": 0.99, "epsilon": 0.001, "center": true, "scale": true, "beta_initializer": {"module": "keras.initializers", "class_name": "Zeros", "config": {}, "registered_name": null}, "gamma_initializer": {"module": "keras.initializers", "class_name": "Ones", "config": {}, "registered_name": null}, "moving_mean_initializer": {"module": "keras.initializers", "class_name": "Zeros", "config": {}, "registered_name": null}, "moving_variance_initializer": {"module": "keras.initializers", "class_name": "Ones", "config": {}, "registered_name": null}, "beta_regularizer": null, "gamma_regularizer": null, "beta_constraint": null, "gamma_constraint": null}, "name": "block4c_project_bn", "inbound_nodes": [[["block4c_project_conv", 0, 0, {}]]]}, {"class_name": "Dropout", "config": {"name": "block4c_drop", "trainable": false, "dtype": "float32", "rate": 0.07692307692307693, "noise_shape": [null, 1, 1, 1], "seed": null}, "name": "block4c_drop", "inbound_nodes": [[["block4c_project_bn", 0, 0, {}]]]}, {"class_name": "Add", "config": {"name": "block4c_add", "trainable": false, "dtype": "float32"}, "name": "block4c_add", "inbound_nodes": [[["block4c_drop", 0, 0, {}], ["block4b_add", 0, 0, {}]]]}, {"class_name": "Conv2D", "config": {"name": "block4d_expand_conv", "trainable": false, "dtype": "float32", "filters": 768, "kernel_size": [1, 1], "strides": [1, 1], "padding": "same", "data_format": "channels_last", "dilation_rate": [1, 1], "groups": 1, "activation": "linear", "use_bias": false, "kernel_initializer": {"module": "keras.initializers", "class_name": "VarianceScaling", "config": {"scale": 2.0, "mode": "fan_out", "distribution": "truncated_normal", "seed": null}, "registered_name": null}, "bias_initializer": {"module": "keras.initializers", "class_name": "Zeros", "config": {}, "registered_name": null}, "kernel_regularizer": null, "bias_regularizer": null, "activity_regularizer": null, "kernel_constraint": null, "bias_constraint": null}, "name": "block4d_expand_conv", "inbound_nodes": [[["block4c_add", 0, 0, {}]]]}, {"class_name": "BatchNormalization", "config": {"name": "block4d_expand_bn", "trainable": false, "dtype": "float32", "axis": [3], "momentum": 0.99, "epsilon": 0.001, "center": true, "scale": true, "beta_initializer": {"module": "keras.initializers", "class_name": "Zeros", "config": {}, "registered_name": null}, "gamma_initializer": {"module": "keras.initializers", "class_name": "Ones", "config": {}, "registered_name": null}, "moving_mean_initializer": {"module": "keras.initializers", "class_name": "Zeros", "config": {}, "registered_name": null}, "moving_variance_initializer": {"module": "keras.initializers", "class_name": "Ones", "config": {}, "registered_name": null}, "beta_regularizer": null, "gamma_regularizer": null, "beta_constraint": null, "gamma_constraint": null}, "name": "block4d_expand_bn", "inbound_nodes": [[["block4d_expand_conv", 0, 0, {}]]]}, {"class_name": "Activation", "config": {"name": "block4d_expand_activation", "trainable": false, "dtype": "float32", "activation": "swish"}, "name": "block4d_expand_activation", "inbound_nodes": [[["block4d_expand_bn", 0, 0, {}]]]}, {"class_name": "DepthwiseConv2D", "config": {"name": "block4d_dwconv", "trainable": false, "dtype": "float32", "kernel_size": [3, 3], "strides": [1, 1], "padding": "same", "data_format": "channels_last", "dilation_rate": [1, 1], "groups": 1, "activation": "linear", "use_bias": false, "bias_initializer": {"module": "keras.initializers", "class_name": "Zeros", "config": {}, "registered_name": null}, "bias_regularizer": null, "activity_regularizer": null, "bias_constraint": null, "depth_multiplier": 1, "depthwise_initializer": {"module": "keras.initializers", "class_name": "VarianceScaling", "config": {"scale": 2.0, "mode": "fan_out", "distribution": "truncated_normal", "seed": null}, "registered_name": null}, "depthwise_regularizer": null, "depthwise_constraint": null}, "name": "block4d_dwconv", "inbound_nodes": [[["block4d_expand_activation", 0, 0, {}]]]}, {"class_name": "BatchNormalization", "config": {"name": "block4d_bn", "trainable": false, "dtype": "float32", "axis": [3], "momentum": 0.99, "epsilon": 0.001, "center": true, "scale": true, "beta_initializer": {"module": "keras.initializers", "class_name": "Zeros", "config": {}, "registered_name": null}, "gamma_initializer": {"module": "keras.initializers", "class_name": "Ones", "config": {}, "registered_name": null}, "moving_mean_initializer": {"module": "keras.initializers", "class_name": "Zeros", "config": {}, "registered_name": null}, "moving_variance_initializer": {"module": "keras.initializers", "class_name": "Ones", "config": {}, "registered_name": null}, "beta_regularizer": null, "gamma_regularizer": null, "beta_constraint": null, "gamma_constraint": null}, "name": "block4d_bn", "inbound_nodes": [[["block4d_dwconv", 0, 0, {}]]]}, {"class_name": "Activation", "config": {"name": "block4d_activation", "trainable": false, "dtype": "float32", "activation": "swish"}, "name": "block4d_activation", "inbound_nodes": [[["block4d_bn", 0, 0, {}]]]}, {"class_name": "GlobalAveragePooling2D", "config": {"name": "block4d_se_squeeze", "trainable": false, "dtype": "float32", "data_format": "channels_last", "keepdims": false}, "name": "block4d_se_squeeze", "inbound_nodes": [[["block4d_activation", 0, 0, {}]]]}, {"class_name": "Reshape", "config": {"name": "block4d_se_reshape", "trainable": false, "dtype": "float32", "target_shape": [1, 1, 768]}, "name": "block4d_se_reshape", "inbound_nodes": [[["block4d_se_squeeze", 0, 0, {}]]]}, {"class_name": "Conv2D", "config": {"name": "block4d_se_reduce", "trainable": false, "dtype": "float32", "filters": 32, "kernel_size": [1, 1], "strides": [1, 1], "padding": "same", "data_format": "channels_last", "dilation_rate": [1, 1], "groups": 1, "activation": "swish", "use_bias": true, "kernel_initializer": {"module": "keras.initializers", "class_name": "VarianceScaling", "config": {"scale": 2.0, "mode": "fan_out", "distribution": "truncated_normal", "seed": null}, "registered_name": null}, "bias_initializer": {"module": "keras.initializers", "class_name": "Zeros", "config": {}, "registered_name": null}, "kernel_regularizer": null, "bias_regularizer": null, "activity_regularizer": null, "kernel_constraint": null, "bias_constraint": null}, "name": "block4d_se_reduce", "inbound_nodes": [[["block4d_se_reshape", 0, 0, {}]]]}, {"class_name": "Conv2D", "config": {"name": "block4d_se_expand", "trainable": false, "dtype": "float32", "filters": 768, "kernel_size": [1, 1], "strides": [1, 1], "padding": "same", "data_format": "channels_last", "dilation_rate": [1, 1], "groups": 1, "activation": "sigmoid", "use_bias": true, "kernel_initializer": {"module": "keras.initializers", "class_name": "VarianceScaling", "config": {"scale": 2.0, "mode": "fan_out", "distribution": "truncated_normal", "seed": null}, "registered_name": null}, "bias_initializer": {"module": "keras.initializers", "class_name": "Zeros", "config": {}, "registered_name": null}, "kernel_regularizer": null, "bias_regularizer": null, "activity_regularizer": null, "kernel_constraint": null, "bias_constraint": null}, "name": "block4d_se_expand", "inbound_nodes": [[["block4d_se_reduce", 0, 0, {}]]]}, {"class_name": "Multiply", "config": {"name": "block4d_se_excite", "trainable": false, "dtype": "float32"}, "name": "block4d_se_excite", "inbound_nodes": [[["block4d_activation", 0, 0, {}], ["block4d_se_expand", 0, 0, {}]]]}, {"class_name": "Conv2D", "config": {"name": "block4d_project_conv", "trainable": false, "dtype": "float32", "filters": 128, "kernel_size": [1, 1], "strides": [1, 1], "padding": "same", "data_format": "channels_last", "dilation_rate": [1, 1], "groups": 1, "activation": "linear", "use_bias": false, "kernel_initializer": {"module": "keras.initializers", "class_name": "VarianceScaling", "config": {"scale": 2.0, "mode": "fan_out", "distribution": "truncated_normal", "seed": null}, "registered_name": null}, "bias_initializer": {"module": "keras.initializers", "class_name": "Zeros", "config": {}, "registered_name": null}, "kernel_regularizer": null, "bias_regularizer": null, "activity_regularizer": null, "kernel_constraint": null, "bias_constraint": null}, "name": "block4d_project_conv", "inbound_nodes": [[["block4d_se_excite", 0, 0, {}]]]}, {"class_name": "BatchNormalization", "config": {"name": "block4d_project_bn", "trainable": false, "dtype": "float32", "axis": [3], "momentum": 0.99, "epsilon": 0.001, "center": true, "scale": true, "beta_initializer": {"module": "keras.initializers", "class_name": "Zeros", "config": {}, "registered_name": null}, "gamma_initializer": {"module": "keras.initializers", "class_name": "Ones", "config": {}, "registered_name": null}, "moving_mean_initializer": {"module": "keras.initializers", "class_name": "Zeros", "config": {}, "registered_name": null}, "moving_variance_initializer": {"module": "keras.initializers", "class_name": "Ones", "config": {}, "registered_name": null}, "beta_regularizer": null, "gamma_regularizer": null, "beta_constraint": null, "gamma_constraint": null}, "name": "block4d_project_bn", "inbound_nodes": [[["block4d_project_conv", 0, 0, {}]]]}, {"class_name": "Dropout", "config": {"name": "block4d_drop", "trainable": false, "dtype": "float32", "rate": 0.08205128205128205, "noise_shape": [null, 1, 1, 1], "seed": null}, "name": "block4d_drop", "inbound_nodes": [[["block4d_project_bn", 0, 0, {}]]]}, {"class_name": "Add", "config": {"name": "block4d_add", "trainable": false, "dtype": "float32"}, "name": "block4d_add", "inbound_nodes": [[["block4d_drop", 0, 0, {}], ["block4c_add", 0, 0, {}]]]}, {"class_name": "Conv2D", "config": {"name": "block4e_expand_conv", "trainable": false, "dtype": "float32", "filters": 768, "kernel_size": [1, 1], "strides": [1, 1], "padding": "same", "data_format": "channels_last", "dilation_rate": [1, 1], "groups": 1, "activation": "linear", "use_bias": false, "kernel_initializer": {"module": "keras.initializers", "class_name": "VarianceScaling", "config": {"scale": 2.0, "mode": "fan_out", "distribution": "truncated_normal", "seed": null}, "registered_name": null}, "bias_initializer": {"module": "keras.initializers", "class_name": "Zeros", "config": {}, "registered_name": null}, "kernel_regularizer": null, "bias_regularizer": null, "activity_regularizer": null, "kernel_constraint": null, "bias_constraint": null}, "name": "block4e_expand_conv", "inbound_nodes": [[["block4d_add", 0, 0, {}]]]}, {"class_name": "BatchNormalization", "config": {"name": "block4e_expand_bn", "trainable": false, "dtype": "float32", "axis": [3], "momentum": 0.99, "epsilon": 0.001, "center": true, "scale": true, "beta_initializer": {"module": "keras.initializers", "class_name": "Zeros", "config": {}, "registered_name": null}, "gamma_initializer": {"module": "keras.initializers", "class_name": "Ones", "config": {}, "registered_name": null}, "moving_mean_initializer": {"module": "keras.initializers", "class_name": "Zeros", "config": {}, "registered_name": null}, "moving_variance_initializer": {"module": "keras.initializers", "class_name": "Ones", "config": {}, "registered_name": null}, "beta_regularizer": null, "gamma_regularizer": null, "beta_constraint": null, "gamma_constraint": null}, "name": "block4e_expand_bn", "inbound_nodes": [[["block4e_expand_conv", 0, 0, {}]]]}, {"class_name": "Activation", "config": {"name": "block4e_expand_activation", "trainable": false, "dtype": "float32", "activation": "swish"}, "name": "block4e_expand_activation", "inbound_nodes": [[["block4e_expand_bn", 0, 0, {}]]]}, {"class_name": "DepthwiseConv2D", "config": {"name": "block4e_dwconv", "trainable": false, "dtype": "float32", "kernel_size": [3, 3], "strides": [1, 1], "padding": "same", "data_format": "channels_last", "dilation_rate": [1, 1], "groups": 1, "activation": "linear", "use_bias": false, "bias_initializer": {"module": "keras.initializers", "class_name": "Zeros", "config": {}, "registered_name": null}, "bias_regularizer": null, "activity_regularizer": null, "bias_constraint": null, "depth_multiplier": 1, "depthwise_initializer": {"module": "keras.initializers", "class_name": "VarianceScaling", "config": {"scale": 2.0, "mode": "fan_out", "distribution": "truncated_normal", "seed": null}, "registered_name": null}, "depthwise_regularizer": null, "depthwise_constraint": null}, "name": "block4e_dwconv", "inbound_nodes": [[["block4e_expand_activation", 0, 0, {}]]]}, {"class_name": "BatchNormalization", "config": {"name": "block4e_bn", "trainable": false, "dtype": "float32", "axis": [3], "momentum": 0.99, "epsilon": 0.001, "center": true, "scale": true, "beta_initializer": {"module": "keras.initializers", "class_name": "Zeros", "config": {}, "registered_name": null}, "gamma_initializer": {"module": "keras.initializers", "class_name": "Ones", "config": {}, "registered_name": null}, "moving_mean_initializer": {"module": "keras.initializers", "class_name": "Zeros", "config": {}, "registered_name": null}, "moving_variance_initializer": {"module": "keras.initializers", "class_name": "Ones", "config": {}, "registered_name": null}, "beta_regularizer": null, "gamma_regularizer": null, "beta_constraint": null, "gamma_constraint": null}, "name": "block4e_bn", "inbound_nodes": [[["block4e_dwconv", 0, 0, {}]]]}, {"class_name": "Activation", "config": {"name": "block4e_activation", "trainable": false, "dtype": "float32", "activation": "swish"}, "name": "block4e_activation", "inbound_nodes": [[["block4e_bn", 0, 0, {}]]]}, {"class_name": "GlobalAveragePooling2D", "config": {"name": "block4e_se_squeeze", "trainable": false, "dtype": "float32", "data_format": "channels_last", "keepdims": false}, "name": "block4e_se_squeeze", "inbound_nodes": [[["block4e_activation", 0, 0, {}]]]}, {"class_name": "Reshape", "config": {"name": "block4e_se_reshape", "trainable": false, "dtype": "float32", "target_shape": [1, 1, 768]}, "name": "block4e_se_reshape", "inbound_nodes": [[["block4e_se_squeeze", 0, 0, {}]]]}, {"class_name": "Conv2D", "config": {"name": "block4e_se_reduce", "trainable": false, "dtype": "float32", "filters": 32, "kernel_size": [1, 1], "strides": [1, 1], "padding": "same", "data_format": "channels_last", "dilation_rate": [1, 1], "groups": 1, "activation": "swish", "use_bias": true, "kernel_initializer": {"module": "keras.initializers", "class_name": "VarianceScaling", "config": {"scale": 2.0, "mode": "fan_out", "distribution": "truncated_normal", "seed": null}, "registered_name": null}, "bias_initializer": {"module": "keras.initializers", "class_name": "Zeros", "config": {}, "registered_name": null}, "kernel_regularizer": null, "bias_regularizer": null, "activity_regularizer": null, "kernel_constraint": null, "bias_constraint": null}, "name": "block4e_se_reduce", "inbound_nodes": [[["block4e_se_reshape", 0, 0, {}]]]}, {"class_name": "Conv2D", "config": {"name": "block4e_se_expand", "trainable": false, "dtype": "float32", "filters": 768, "kernel_size": [1, 1], "strides": [1, 1], "padding": "same", "data_format": "channels_last", "dilation_rate": [1, 1], "groups": 1, "activation": "sigmoid", "use_bias": true, "kernel_initializer": {"module": "keras.initializers", "class_name": "VarianceScaling", "config": {"scale": 2.0, "mode": "fan_out", "distribution": "truncated_normal", "seed": null}, "registered_name": null}, "bias_initializer": {"module": "keras.initializers", "class_name": "Zeros", "config": {}, "registered_name": null}, "kernel_regularizer": null, "bias_regularizer": null, "activity_regularizer": null, "kernel_constraint": null, "bias_constraint": null}, "name": "block4e_se_expand", "inbound_nodes": [[["block4e_se_reduce", 0, 0, {}]]]}, {"class_name": "Multiply", "config": {"name": "block4e_se_excite", "trainable": false, "dtype": "float32"}, "name": "block4e_se_excite", "inbound_nodes": [[["block4e_activation", 0, 0, {}], ["block4e_se_expand", 0, 0, {}]]]}, {"class_name": "Conv2D", "config": {"name": "block4e_project_conv", "trainable": false, "dtype": "float32", "filters": 128, "kernel_size": [1, 1], "strides": [1, 1], "padding": "same", "data_format": "channels_last", "dilation_rate": [1, 1], "groups": 1, "activation": "linear", "use_bias": false, "kernel_initializer": {"module": "keras.initializers", "class_name": "VarianceScaling", "config": {"scale": 2.0, "mode": "fan_out", "distribution": "truncated_normal", "seed": null}, "registered_name": null}, "bias_initializer": {"module": "keras.initializers", "class_name": "Zeros", "config": {}, "registered_name": null}, "kernel_regularizer": null, "bias_regularizer": null, "activity_regularizer": null, "kernel_constraint": null, "bias_constraint": null}, "name": "block4e_project_conv", "inbound_nodes": [[["block4e_se_excite", 0, 0, {}]]]}, {"class_name": "BatchNormalization", "config": {"name": "block4e_project_bn", "trainable": false, "dtype": "float32", "axis": [3], "momentum": 0.99, "epsilon": 0.001, "center": true, "scale": true, "beta_initializer": {"module": "keras.initializers", "class_name": "Zeros", "config": {}, "registered_name": null}, "gamma_initializer": {"module": "keras.initializers", "class_name": "Ones", "config": {}, "registered_name": null}, "moving_mean_initializer": {"module": "keras.initializers", "class_name": "Zeros", "config": {}, "registered_name": null}, "moving_variance_initializer": {"module": "keras.initializers", "class_name": "Ones", "config": {}, "registered_name": null}, "beta_regularizer": null, "gamma_regularizer": null, "beta_constraint": null, "gamma_constraint": null}, "name": "block4e_project_bn", "inbound_nodes": [[["block4e_project_conv", 0, 0, {}]]]}, {"class_name": "Dropout", "config": {"name": "block4e_drop", "trainable": false, "dtype": "float32", "rate": 0.08717948717948719, "noise_shape": [null, 1, 1, 1], "seed": null}, "name": "block4e_drop", "inbound_nodes": [[["block4e_project_bn", 0, 0, {}]]]}, {"class_name": "Add", "config": {"name": "block4e_add", "trainable": false, "dtype": "float32"}, "name": "block4e_add", "inbound_nodes": [[["block4e_drop", 0, 0, {}], ["block4d_add", 0, 0, {}]]]}, {"class_name": "Conv2D", "config": {"name": "block4f_expand_conv", "trainable": false, "dtype": "float32", "filters": 768, "kernel_size": [1, 1], "strides": [1, 1], "padding": "same", "data_format": "channels_last", "dilation_rate": [1, 1], "groups": 1, "activation": "linear", "use_bias": false, "kernel_initializer": {"module": "keras.initializers", "class_name": "VarianceScaling", "config": {"scale": 2.0, "mode": "fan_out", "distribution": "truncated_normal", "seed": null}, "registered_name": null}, "bias_initializer": {"module": "keras.initializers", "class_name": "Zeros", "config": {}, "registered_name": null}, "kernel_regularizer": null, "bias_regularizer": null, "activity_regularizer": null, "kernel_constraint": null, "bias_constraint": null}, "name": "block4f_expand_conv", "inbound_nodes": [[["block4e_add", 0, 0, {}]]]}, {"class_name": "BatchNormalization", "config": {"name": "block4f_expand_bn", "trainable": false, "dtype": "float32", "axis": [3], "momentum": 0.99, "epsilon": 0.001, "center": true, "scale": true, "beta_initializer": {"module": "keras.initializers", "class_name": "Zeros", "config": {}, "registered_name": null}, "gamma_initializer": {"module": "keras.initializers", "class_name": "Ones", "config": {}, "registered_name": null}, "moving_mean_initializer": {"module": "keras.initializers", "class_name": "Zeros", "config": {}, "registered_name": null}, "moving_variance_initializer": {"module": "kera…
e": [240], "dtype": "float32"}, {"name": "block2c_expand_bn/moving_mean", "shape": [240], "dtype": "float32"}, {"name": "block2c_expand_bn/moving_variance", "shape": [240], "dtype": "float32"}, {"name": "block2c_dwconv/depthwise_kernel", "shape": [3, 3, 240, 1], "dtype": "float32"}, {"name": "block2c_bn/gamma", "shape": [240], "dtype": "float32"}, {"name": "block2c_bn/beta", "shape": [240], "dtype": "float32"}, {"name": "block2c_bn/moving_mean", "shape": [240], "dtype": "float32"}, {"name": "block2c_bn/moving_variance", "shape": [240], "dtype": "float32"}, {"name": "block2c_se_reduce/kernel", "shape": [1, 1, 240, 10], "dtype": "float32"}, {"name": "block2c_se_reduce/bias", "shape": [10], "dtype": "float32"}, {"name": "block2c_se_expand/kernel", "shape": [1, 1, 10, 240], "dtype": "float32"}, {"name": "block2c_se_expand/bias", "shape": [240], "dtype": "float32"}, {"name": "block2c_project_conv/kernel", "shape": [1, 1, 240, 40], "dtype": "float32"}, {"name": "block2c_project_bn/gamma", "shape": [40], "dtype": "float32"}, {"name": "block2c_project_bn/beta", "shape": [40], "dtype": "float32"}, {"name": "block2c_project_bn/moving_mean", "shape": [40], "dtype": "float32"}, {"name": "block2c_project_bn/moving_variance", "shape": [40], "dtype": "float32"}, {"name": "block2d_expand_conv/kernel", "shape": [1, 1, 40, 240], "dtype": "float32"}, {"name": "block2d_expand_bn/gamma", "shape": [240], "dtype": "float32"}, {"name": "block2d_expand_bn/beta", "shape": [240], "dtype": "float32"}, {"name": "block2d_expand_bn/moving_mean", "shape": [240], "dtype": "float32"}, {"name": "block2d_expand_bn/moving_variance", "shape": [240], "dtype": "float32"}, {"name": "block2d_dwconv/depthwise_kernel", "shape": [3, 3, 240, 1], "dtype": "float32"}, {"name": "block2d_bn/gamma", "shape": [240], "dtype": "float32"}, {"name": "block2d_bn/beta", "shape": [240], "dtype": "float32"}, {"name": "block2d_bn/moving_mean", "shape": [240], "dtype": "float32"}, {"name": "block2d_bn/moving_variance", "shape": [240], "dtype": "float32"}, {"name": "block2d_se_reduce/kernel", "shape": [1, 1, 240, 10], "dtype": "float32"}, {"name": "block2d_se_reduce/bias", "shape": [10], "dtype": "float32"}, {"name": "block2d_se_expand/kernel", "shape": [1, 1, 10, 240], "dtype": "float32"}, {"name": "block2d_se_expand/bias", "shape": [240], "dtype": "float32"}, {"name": "block2d_project_conv/kernel", "shape": [1, 1, 240, 40], "dtype": "float32"}, {"name": "block2d_project_bn/gamma", "shape": [40], "dtype": "float32"}, {"name": "block2d_project_bn/beta", "shape": [40], "dtype": "float32"}, {"name": "block2d_project_bn/moving_mean", "shape": [40], "dtype": "float32"}, {"name": "block2d_project_bn/moving_variance", "shape": [40], "dtype": "float32"}, {"name": "block2e_expand_conv/kernel", "shape": [1, 1, 40, 240], "dtype": "float32"}, {"name": "block2e_expand_bn/gamma", "shape": [240], "dtype": "float32"}, {"name": "block2e_expand_bn/beta", "shape": [240], "dtype": "float32"}, {"name": "block2e_expand_bn/moving_mean", "shape": [240], "dtype": "float32"}, {"name": "block2e_expand_bn/moving_variance", "shape": [240], "dtype": "float32"}, {"name": "block2e_dwconv/depthwise_kernel", "shape": [3, 3, 240, 1], "dtype": "float32"}, {"name": "block2e_bn/gamma", "shape": [240], "dtype": "float32"}, {"name": "block2e_bn/beta", "shape": [240], "dtype": "float32"}, {"name": "block2e_bn/moving_mean", "shape": [240], "dtype": "float32"}, {"name": "block2e_bn/moving_variance", "shape": [240], "dtype": "float32"}, {"name": "block2e_se_reduce/kernel", "shape": [1, 1, 240, 10], "dtype": "float32"}, {"name": "block2e_se_reduce/bias", "shape": [10], "dtype": "float32"}, {"name": "block2e_se_expand/kernel", "shape": [1, 1, 10, 240], "dtype": "float32"}, {"name": "block2e_se_expand/bias", "shape": [240], "dtype": "float32"}, {"name": "block2e_project_conv/kernel", "shape": [1, 1, 240, 40], "dtype": "float32"}, {"name": "block2e_project_bn/gamma", "shape": [40], "dtype": "float32"}, {"name": "block2e_project_bn/beta", "shape": [40], "dtype": "float32"}, {"name": "block2e_project_bn/moving_mean", "shape": [40], "dtype": "float32"}, {"name": "block2e_project_bn/moving_variance", "shape": [40], "dtype": "float32"}, {"name": "block3a_expand_conv/kernel", "shape": [1, 1, 40, 240], "dtype": "float32"}, {"name": "block3a_expand_bn/gamma", "shape": [240], "dtype": "float32"}, {"name": "block3a_expand_bn/beta", "shape": [240], "dtype": "float32"}, {"name": "block3a_expand_bn/moving_mean", "shape": [240], "dtype": "float32"}, {"name": "block3a_expand_bn/moving_variance", "shape": [240], "dtype": "float32"}, {"name": "block3a_dwconv/depthwise_kernel", "shape": [5, 5, 240, 1], "dtype": "float32"}, {"name": "block3a_bn/gamma", "shape": [240], "dtype": "float32"}, {"name": "block3a_bn/beta", "shape": [240], "dtype": "float32"}, {"name": "block3a_bn/moving_mean", "shape": [240], "dtype": "float32"}, {"name": "block3a_bn/moving_variance", "shape": [240], "dtype": "float32"}, {"name": "block3a_se_reduce/kernel", "shape": [1, 1, 240, 10], "dtype": "float32"}, {"name": "block3a_se_reduce/bias", "shape": [10], "dtype": "float32"}, {"name": "block3a_se_expand/kernel", "shape": [1, 1, 10, 240], "dtype": "float32"}, {"name": "block3a_se_expand/bias", "shape": [240], "dtype": "float32"}, {"name": "block3a_project_conv/kernel", "shape": [1, 1, 240, 64], "dtype": "float32"}, {"name": "block3a_project_bn/gamma", "shape": [64], "dtype": "float32"}, {"name": "block3a_project_bn/beta", "shape": [64], "dtype": "float32"}, {"name": "block3a_project_bn/moving_mean", "shape": [64], "dtype": "float32"}, {"name": "block3a_project_bn/moving_variance", "shape": [64], "dtype": "float32"}, {"name": "block3b_expand_conv/kernel", "shape": [1, 1, 64, 384], "dtype": "float32"}, {"name": "block3b_expand_bn/gamma", "shape": [384], "dtype": "float32"}, {"name": "block3b_expand_bn/beta", "shape": [384], "dtype": "float32"}, {"name": "block3b_expand_bn/moving_mean", "shape": [384], "dtype": "float32"}, {"name": "block3b_expand_bn/moving_variance", "shape": [384], "dtype": "float32"}, {"name": "block3b_dwconv/depthwise_kernel", "shape": [5, 5, 384, 1], "dtype": "float32"}, {"name": "block3b_bn/gamma", "shape": [384], "dtype": "float32"}, {"name": "block3b_bn/beta", "shape": [384], "dtype": "float32"}, {"name": "block3b_bn/moving_mean", "shape": [384], "dtype": "float32"}, {"name": "block3b_bn/moving_variance", "shape": [384], "dtype": "float32"}, {"name": "block3b_se_reduce/kernel", "shape": [1, 1, 384, 16], "dtype": "float32"}, {"name": "block3b_se_reduce/bias", "shape": [16], "dtype": "float32"}, {"name": "block3b_se_expand/kernel", "shape": [1, 1, 16, 384], "dtype": "float32"}, {"name": "block3b_se_expand/bias", "shape": [384], "dtype": "float32"}, {"name": "block3b_project_conv/kernel", "shape": [1, 1, 384, 64], "dtype": "float32"}, {"name": "block3b_project_bn/gamma", "shape": [64], "dtype": "float32"}, {"name": "block3b_project_bn/beta", "shape": [64], "dtype": "float32"}, {"name": "block3b_project_bn/moving_mean", "shape": [64], "dtype": "float32"}, {"name": "block3b_project_bn/moving_variance", "shape": [64], "dtype": "float32"}, {"name": "block3c_expand_conv/kernel", "shape": [1, 1, 64, 384], "dtype": "float32"}, {"name": "block3c_expand_bn/gamma", "shape": [384], "dtype": "float32"}, {"name": "block3c_expand_bn/beta", "shape": [384], "dtype": "float32"}, {"name": "block3c_expand_bn/moving_mean", "shape": [384], "dtype": "float32"}, {"name": "block3c_expand_bn/moving_variance", "shape": [384], "dtype": "float32"}, {"name": "block3c_dwconv/depthwise_kernel", "shape": [5, 5, 384, 1], "dtype": "float32"}, {"name": "block3c_bn/gamma", "shape": [384], "dtype": "float32"}, {"name": "block3c_bn/beta", "shape": [384], "dtype": "float32"}, {"name": "block3c_bn/moving_mean", "shape": [384], "dtype": "float32"}, {"name": "block3c_bn/moving_variance", "shape": [384], "dtype": "float32"}, {"name": "block3c_se_reduce/kernel", "shape": [1, 1, 384, 16], "dtype": "float32"}, {"name": "block3c_se_reduce/bias", "shape": [16], "dtype": "float32"}, {"name": "block3c_se_expand/kernel", "shape": [1, 1, 16, 384], "dtype": "float32"}, {"name": "block3c_se_expand/bias", "shape": [384], "dtype": "float32"}, {"name": "block3c_project_conv/kernel", "shape": [1, 1, 384, 64], "dtype": "float32"}, {"name": "block3c_project_bn/gamma", "shape": [64], "dtype": "float32"}, {"name": "block3c_project_bn/beta", "shape": [64], "dtype": "float32"}, {"name": "block3c_project_bn/moving_mean", "shape": [64], "dtype": "float32"}, {"name": "block3c_project_bn/moving_variance", "shape": [64], "dtype": "float32"}, {"name": "block3d_expand_conv/kernel", "shape": [1, 1, 64, 384], "dtype": "float32"}, {"name": "block3d_expand_bn/gamma", "shape": [384], "dtype": "float32"}, {"name": "block3d_expand_bn/beta", "shape": [384], "dtype": "float32"}, {"name": "block3d_expand_bn/moving_mean", "shape": [384], "dtype": "float32"}, {"name": "block3d_expand_bn/moving_variance", "shape": [384], "dtype": "float32"}, {"name": "block3d_dwconv/depthwise_kernel", "shape": [5, 5, 384, 1], "dtype": "float32"}, {"name": "block3d_bn/gamma", "shape": [384], "dtype": "float32"}, {"name": "block3d_bn/beta", "shape": [384], "dtype": "float32"}, {"name": "block3d_bn/moving_mean", "shape": [384], "dtype": "float32"}, {"name": "block3d_bn/moving_variance", "shape": [384], "dtype": "float32"}, {"name": "block3d_se_reduce/kernel", "shape": [1, 1, 384, 16], "dtype": "float32"}, {"name": "block3d_se_reduce/bias", "shape": [16], "dtype": "float32"}, {"name": "block3d_se_expand/kernel", "shape": [1, 1, 16, 384], "dtype": "float32"}, {"name": "block3d_se_expand/bias", "shape": [384], "dtype": "float32"}, {"name": "block3d_project_conv/kernel", "shape": [1, 1, 384, 64], "dtype": "float32"}, {"name": "block3d_project_bn/gamma", "shape": [64], "dtype": "float32"}, {"name": "block3d_project_bn/beta", "shape": [64], "dtype": "float32"}, {"name": "block3d_project_bn/moving_mean", "shape": [64], "dtype": "float32"}, {"name": "block3d_project_bn/moving_variance", "shape": [64], "dtype": "float32"}, {"name": "block3e_expand_conv/kernel", "shape": [1, 1, 64, 384], "dtype": "float32"}, {"name": "block3e_expand_bn/gamma", "shape": [384], "dtype": "float32"}, {"name": "block3e_expand_bn/beta", "shape": [384], "dtype": "float32"}, {"name": "block3e_expand_bn/moving_mean", "shape": [384], "dtype": "float32"}, {"name": "block3e_expand_bn/moving_variance", "shape": [384], "dtype": "float32"}, {"name": "block3e_dwconv/depthwise_kernel", "shape": [5, 5, 384, 1], "dtype": "float32"}, {"name": "block3e_bn/gamma", "shape": [384], "dtype": "float32"}, {"name": "block3e_bn/beta", "shape": [384], "dtype": "float32"}, {"name": "block3e_bn/moving_mean", "shape": [384], "dtype": "float32"}, {"name": "block3e_bn/moving_variance", "shape": [384], "dtype": "float32"}, {"name": "block3e_se_reduce/kernel", "shape": [1, 1, 384, 16], "dtype": "float32"}, {"name": "block3e_se_reduce/bias", "shape": [16], "dtype": "float32"}, {"name": "block3e_se_expand/kernel", "shape": [1, 1, 16, 384], "dtype": "float32"}, {"name": "block3e_se_expand/bias", "shape": [384], "dtype": "float32"}, {"name": "block3e_project_conv/kernel", "shape": [1, 1, 384, 64], "dtype": "float32"}, {"name": "block3e_project_bn/gamma", "shape": [64], "dtype": "float32"}, {"name": "block3e_project_bn/beta", "shape": [64], "dtype": "float32"}, {"name": "block3e_project_bn/moving_mean", "shape": [64], "dtype": "float32"}, {"name": "block3e_project_bn/moving_variance", "shape": [64], "dtype": "float32"}, {"name": "block4a_expand_conv/kernel", "shape": [1, 1, 64, 384], "dtype": "float32"}, {"name": "block4a_expand_bn/gamma", "shape": [384], "dtype": "float32"}, {"name": "block4a_expand_bn/beta", "shape": [384], "dtype": "float32"}, {"name": "block4a_expand_bn/moving_mean", "shape": [384], "dtype": "float32"}, {"name": "block4a_expand_bn/moving_variance", "shape": [384], "dtype": "float32"}, {"name": "block4a_dwconv/depthwise_kernel", "shape": [3, 3, 384, 1], "dtype": "float32"}, {"name": "block4a_bn/gamma", "shape": [384], "dtype": "float32"}, {"name": "block4a_bn/beta", "shape": [384], "dtype": "float32"}, {"name": "block4a_bn/moving_mean", "shape": [384], "dtype": "float32"}, {"name": "block4a_bn/moving_variance", "shape": [384], "dtype": "float32"}, {"name": "block4a_se_reduce/kernel", "shape": [1, 1, 384, 16], "dtype": "float32"}, {"name": "block4a_se_reduce/bias", "shape": [16], "dtype": "float32"}, {"name": "block4a_se_expand/kernel", "shape": [1, 1, 16, 384], "dtype": "float32"}, {"name": "block4a_se_expand/bias", "shape": [384], "dtype": "float32"}, {"name": "block4a_project_conv/kernel", "shape": [1, 1, 384, 128], "dtype": "float32"}, {"name": "block4a_project_bn/gamma", "shape": [128], "dtype": "float32"}, {"name": "block4a_project_bn/beta", "shape": [128], "dtype": "float32"}, {"name": "block4a_project_bn/moving_mean", "shape": [128], "dtype": "float32"}, {"name": "block4a_project_bn/moving_variance", "shape": [128], "dtype": "float32"}, {"name": "block4b_expand_conv/kernel", "shape": [1, 1, 128, 768], "dtype": "float32"}, {"name": "block4b_expand_bn/gamma", "shape": [768], "dtype": "float32"}, {"name": "block4b_expand_bn/beta", "shape": [768], "dtype": "float32"}, {"name": "block4b_expand_bn/moving_mean", "shape": [768], "dtype": "float32"}, {"name": "block4b_expand_bn/moving_variance", "shape": [768], "dtype": "float32"}, {"name": "block4b_dwconv/depthwise_kernel", "shape": [3, 3, 768, 1], "dtype": "float32"}, {"name": "block4b_bn/gamma", "shape": [768], "dtype": "float32"}, {"name": "block4b_bn/beta", "shape": [768], "dtype": "float32"}, {"name": "block4b_bn/moving_mean", "shape": [768], "dtype": "float32"}, {"name": "block4b_bn/moving_variance", "shape": [768], "dtype": "float32"}, {"name": "block4b_se_reduce/kernel", "shape": [1, 1, 768, 32], "dtype": "float32"}, {"name": "block4b_se_reduce/bias", "shape": [32], "dtype": "float32"}, {"name": "block4b_se_expand/kernel", "shape": [1, 1, 32, 768], "dtype": "float32"}, {"name": "block4b_se_expand/bias", "shape": [768], "dtype": "float32"}, {"name": "block4b_project_conv/kernel", "shape": [1, 1, 768, 128], "dtype": "float32"}, {"name": "block4b_project_bn/gamma", "shape": [128], "dtype": "float32"}, {"name": "block4b_project_bn/beta", "shape": [128], "dtype": "float32"}, {"name": "block4b_project_bn/moving_mean", "shape": [128], "dtype": "float32"}, {"name": "block4b_project_bn/moving_variance", "shape": [128], "dtype": "float32"}, {"name": "block4c_expand_conv/kernel", "shape": [1, 1, 128, 768], "dtype": "float32"}, {"name": "block4c_expand_bn/gamma", "shape": [768], "dtype": "float32"}, {"name": "block4c_expand_bn/beta", "shape": [768], "dtype": "float32"}, {"name": "block4c_expand_bn/moving_mean", "shape": [768], "dtype": "float32"}, {"name": "block4c_expand_bn/moving_variance", "shape": [768], "dtype": "float32"}, {"name": "block4c_dwconv/depthwise_kernel", "shape": [3, 3, 768, 1], "dtype": "float32"}, {"name": "block4c_bn/gamma", "shape": [768], "dtype": "float32"}, {"name": "block4c_bn/beta", "shape": [768], "dtype": "float32"}, {"name": "block4c_bn/moving_mean", "shape": [768], "dtype": "float32"}, {"name": "block4c_bn/moving_variance", "shape": [768], "dtype": "float32"}, {"name": "block4c_se_reduce/kernel", "shape": [1, 1, 768, 32], "dtype": "float32"}, {"name": "block4c_se_reduce/bias", "shape": [32], "dtype": "float32"}, {"name": "block4c_se_expand/kernel", "shape": [1, 1, 32, 768], "dtype": "float32"}, {"name": "block4c_se_expand/bias", "shape": [768], "dtype": "float32"}, {"name": "block4c_project_conv/kernel", "shape": [1, 1, 768, 128], "dtype": "float32"}, {"name": "block4c_project_bn/gamma", "shape": [128], "dtype": "float32"}, {"name": "block4c_project_bn/beta", "shape": [128], "dtype": "float32"}, {"name": "block4c_project_bn/moving_mean", "shape": [128], "dtype": "float32"}, {"name": "block4c_project_bn/moving_variance", "shape": [128], "dtype": "float32"}, {"name": "block4d_expand_conv/kernel", "shape": [1, 1, 128, 768], "dtype": "float32"}, {"name": "block4d_expand_bn/gamma", "shape": [768], "dtype": "float32"}, {"name": "block4d_expand_bn/beta", "shape": [768], "dtype": "float32"}, {"name": "block4d_expand_bn/moving_mean", "shape": [768], "dtype": "float32"}, {"name": "block4d_expand_bn/moving_variance", "shape": [768], "dtype": "float32"}, {"name": "block4d_dwconv/depthwise_kernel", "shape": [3, 3, 768, 1], "dtype": "float32"}, {"name": "block4d_bn/gamma", "shape": [768], "dtype": "float32"}, {"name": "block4d_bn/beta", "shape": [768], "dtype": "float32"}, {"name": "block4d_bn/moving_mean", "shape": [768], "dtype": "float32"}, {"name": "block4d_bn/moving_variance", "shape": [768], "dtype": "float32"}, {"name": "block4d_se_reduce/kernel", "shape": [1, 1, 768, 32], "dtype": "float32"}, {"name": "block4d_se_reduce/bias", "shape": [32], "dtype": "float32"}, {"name": "block4d_se_expand/kernel", "shape": [1, 1, 32, 768], "dtype": "float32"}, {"name": "block4d_se_expand/bias", "shape": [768], "dtype": "float32"}, {"name": "block4d_project_conv/kernel", "shape": [1, 1, 768, 128], "dtype": "float32"}, {"name": "block4d_project_bn/gamma", "shape": [128], "dtype": "float32"}, {"name": "block4d_project_bn/beta", "shape": [128], "dtype": "float32"}, {"name": "block4d_project_bn/moving_mean", "shape": [128], "dtype": "float32"}, {"name": "block4d_project_bn/moving_variance", "shape": [128], "dtype": "float32"}, {"name": "block4e_expand_conv/kernel", "shape": [1, 1, 128, 768], "dtype": "float32"}, {"name": "block4e_expand_bn/gamma", "shape": [768], "dtype": "float32"}, {"name": "block4e_expand_bn/beta", "shape": [768], "dtype": "float32"}, {"name": "block4e_expand_bn/moving_mean", "shape": [768], "dtype": "float32"}, {"name": "block4e_expand_bn/moving_variance", "shape": [768], "dtype": "float32"}, {"name": "block4e_dwconv/depthwise_kernel", "shape": [3, 3, 768, 1], "dtype": "float32"}, {"name": "block4e_bn/gamma", "shape": [768], "dtype": "float32"}, {"name": "block4e_bn/beta", "shape": [768], "dtype": "float32"}, {"name": "block4e_bn/moving_mean", "shape": [768], "dtype": "float32"}, {"name": "block4e_bn/moving_variance", "shape": [768], "dtype": "float32"}, {"name": "block4e_se_reduce/kernel", "shape": [1, 1, 768, 32], "dtype": "float32"}, {"name": "block4e_se_reduce/bias", "shape": [32], "dtype": "float32"}, {"name": "block4e_se_expand/kernel", "shape": [1, 1, 32, 768], "dtype": "float32"}, {"name": "block4e_se_expand/bias", "shape": [768], "dtype": "float32"}, {"name": "block4e_project_conv/kernel", "shape": [1, 1, 768, 128], "dtype": "float32"}, {"name": "block4e_project_bn/gamma", "shape": [128], "dtype": "float32"}, {"name": "block4e_project_bn/beta", "shape": [128], "dtype": "float32"}, {"name": "block4e_project_bn/moving_mean", "shape": [128], "dtype": "float32"}, {"name": "block4e_project_bn/moving_variance", "shape": [128], "dtype": "float32"}, {"name": "block4f_expand_conv/kernel", "shape": [1, 1, 128, 768], "dtype": "float32"}, {"name": "block4f_expand_bn/gamma", "shape": [768], "dtype": "float32"}, {"name": "block4f_expand_bn/beta", "shape": [768], "dtype": "float32"}, {"name": "block4f_expand_bn/moving_mean", "shape": [768], "dtype": "float32"}, {"name": "block4f_expand_bn/moving_variance", "shape": [768], "dtype": "float32"}, {"name": "block4f_dwconv/depthwise_kernel", "shape": [3, 3, 768, 1], "dtype": "float32"}, {"name": "block4f_bn/gamma", "shape": [768], "dtype": "float32"}, {"name": "block4f_bn/beta", "shape": [768], "dtype": "float32"}, {"name": "block4f_bn/moving_mean", "shape": [768], "dtype": "float32"}, {"name": "block4f_bn/moving_variance", "shape": [768], "dtype": "float32"}, {"name": "block4f_se_reduce/kernel", "shape": [1, 1, 768, 32], "dtype": "float32"}, {"name": "block4f_se_reduce/bias", "shape": [32], "dtype": "float32"}, {"name": "block4f_se_expand/kernel", "shape": [1, 1, 32, 768], "dtype": "float32"}, {"name": "block4f_se_expand/bias", "shape": [768], "dtype": "float32"}, {"name": "block4f_project_conv/kernel", "shape": [1, 1, 768, 128], "dtype": "float32"}, {"name": "block4f_project_bn/gamma", "shape": [128], "dtype": "float32"}, {"name": "block4f_project_bn/beta", "shape": [128], "dtype": "float32"}, {"name": "block4f_project_bn/moving_mean", "shape": [128], "dtype": "float32"}, {"name": "block4f_project_bn/moving_variance", "shape": [128], "dtype": "float32"}, {"name": "block4g_expand_conv/kernel", "shape": [1, 1, 128, 768], "dtype": "float32"}, {"name": "block4g_expand_bn/gamma", "shape": [768], "dtype": "float32"}, {"name": "block4g_expand_bn/beta", "shape": [768], "dtype": "float32"}, {"name": "block4g_expand_bn/moving_mean", "shape": [768], "dtype": "float32"}, {"name": "block4g_expand_bn/moving_variance", "shape": [768], "dtype": "float32"}, {"name": "block4g_dwconv/depthwise_kernel", "shape": [3, 3, 768, 1], "dtype": "float32"}, {"name": "block4g_bn/gamma", "shape": [768], "dtype": "float32"}, {"name": "block4g_bn/beta", "shape": [768], "dtype": "float32"}, {"name": "block4g_bn/moving_mean", "shape": [768], "dtype": "float32"}, {"name": "block4g_bn/moving_variance", "shape": [768], "dtype": "float32"}, {"name": "block4g_se_reduce/kernel", "shape": [1, 1, 768, 32], "dtype": "float32"}, {"name": "block4g_se_reduce/bias", "shape": [32], "dtype": "float32"}, {"name": "block4g_se_expand/kernel", "shape": [1, 1, 32, 768], "dtype": "float32"}, {"name": "block4g_se_expand/bias", "shape": [768], "dtype": "float32"}, {"name": "block4g_project_conv/kernel", "shape": [1, 1, 768, 128], "dtype": "float32"}, {"name": "block4g_project_bn/gamma", "shape": [128], "dtype": "float32"}, {"name": "block4g_project_bn/beta", "shape": [128], "dtype": "float32"}, {"name": "block4g_project_bn/moving_mean", "shape": [128], "dtype": "float32"}, {"name": "block4g_project_bn/moving_variance", "shape": [128], "dtype": "float32"}, {"name": "block5a_expand_conv/kernel", "shape": [1, 1, 128, 768], "dtype": "float32"}, {"name": "block5a_expand_bn/gamma", "shape": [768], "dtype": "float32"}, {"name": "block5a_expand_bn/beta", "shape": [768], "dtype": "float32"}, {"name": "block5a_expand_bn/moving_mean", "shape": [768], "dtype": "float32"}, {"name": "block5a_expand_bn/moving_variance", "shape": [768], "dtype": "float32"}, {"name": "block5a_dwconv/depthwise_kernel", "shape": [5, 5, 768, 1], "dtype": "float32"}, {"name": "block5a_bn/gamma", "shape": [768], "dtype": "float32"}, {"name": "block5a_bn/beta", "shape": [768], "dtype": "float32"}, {"name": "block5a_bn/moving_mean", "shape": [768], "dtype": "float32"}, {"name": "block5a_bn/moving_variance", "shape": [768], "dtype": "float32"}, {"name": "block5a_se_reduce/kernel", "shape": [1, 1, 768, 32], "dtype": "float32"}, {"name": "block5a_se_reduce/bias", "shape": [32], "dtype": "float32"}, {"name": "block5a_se_expand/kernel", "shape": [1, 1, 32, 768], "dtype": "float32"}, {"name": "block5a_se_expand/bias", "shape": [768], "dtype": "float32"}, {"name": "block5a_project_conv/kernel", "shape": [1, 1, 768, 176], "dtype": "float32"}, {"name": "block5a_project_bn/gamma", "shape": [176], "dtype": "float32"}, {"name": "block5a_project_bn/beta", "shape": [176], "dtype": "float32"}, {"name": "block5a_project_bn/moving_mean", "shape": [176], "dtype": "float32"}, {"name": "block5a_project_bn/moving_variance", "shape": [176], "dtype": "float32"}, {"name": "block5b_expand_conv/kernel", "shape": [1, 1, 176, 1056], "dtype": "float32"}, {"name": "block5b_expand_bn/gamma", "shape": [1056], "dtype": "float32"}, {"name": "block5b_expand_bn/beta", "shape": [1056], "dtype": "float32"}, {"name": "block5b_expand_bn/moving_mean", "shape": [1056], "dtype": "float32"}, {"name": "block5b_expand_bn/moving_variance", "shape": [1056], "dtype": "float32"}, {"name": "block5b_dwconv/depthwise_kernel", "shape": [5, 5, 1056, 1], "dtype": "float32"}, {"name": "block5b_bn/gamma", "shape": [1056], "dtype": "float32"}, {"name": "block5b_bn/beta", "shape": [1056], "dtype": "float32"}, {"name": "block5b_bn/moving_mean", "shape": [1056], "dtype": "float32"}, {"name": "block5b_bn/moving_variance", "shape": [1056], "dtype": "float32"}, {"name": "block5b_se_reduce/kernel", "shape": [1, 1, 1056, 44], "dtype": "float32"}, {"name": "block5b_se_reduce/bias", "shape": [44], "dtype": "float32"}, {"name": "block5b_se_expand/kernel", "shape": [1, 1, 44, 1056], "dtype": "float32"}, {"name": "block5b_se_expand/bias", "shape": [1056], "dtype": "float32"}, {"name": "block5b_project_conv/kernel", "shape": [1, 1, 1056, 176], "dtype": "float32"}, {"name": "block5b_project_bn/gamma", "shape": [176], "dtype": "float32"}, {"name": "block5b_project_bn/beta", "shape": [176], "dtype": "float32"}, {"name": "block5b_project_bn/moving_mean", "shape": [176], "dtype": "float32"}, {"name": "block5b_project_bn/moving_variance", "shape": [176], "dtype": "float32"}, {"name": "block5c_expand_conv/kernel", "shape": [1, 1, 176, 1056], "dtype": "float32"}, {"name": "block5c_expand_bn/gamma", "shape": [1056], "dtype": "float32"}, {"name": "block5c_expand_bn/beta", "shape": [1056], "dtype": "float32"}, {"name": "block5c_expand_bn/moving_mean", "shape": [1056], "dtype": "float32"}, {"name": "block5c_expand_bn/moving_variance", "shape": [1056], "dtype": "float32"}, {"name": "block5c_dwconv/depthwise_kernel", "shape": [5, 5, 1056, 1], "dtype": "float32"}, {"name": "block5c_bn/gamma", "shape": [1056], "dtype": "float32"}, {"name": "block5c_bn/beta", "shape": [1056], "dtype": "float32"}, {"name": "block5c_bn/moving_mean", "shape": [1056], "dtype": "float32"}, {"name": "block5c_bn/moving_variance", "shape": [1056], "dtype": "float32"}, {"name": "block5c_se_reduce/kernel", "shape": [1, 1, 1056, 44], "dtype": "float32"}, {"name": "block5c_se_reduce/bias", "shape": [44], "dtype": "float32"}, {"name": "block5c_se_expand/kernel", "shape": [1, 1, 44, 1056], "dtype": "float32"}, {"name": "block5c_se_expand/bias", "shape": [1056], "dtype": "float32"}, {"name": "block5c_project_conv/kernel", "shape": [1, 1, 1056, 176], "dtype": "float32"}, {"name": "block5c_project_bn/gamma", "shape": [176], "dtype": "float32"}, {"name": "block5c_project_bn/beta", "shape": [176], "dtype": "float32"}, {"name": "block5c_project_bn/moving_mean", "shape": [176], "dtype": "float32"}, {"name": "block5c_project_bn/moving_variance", "shape": [176], "dtype": "float32"}, {"name": "block5d_expand_conv/kernel", "shape": [1, 1, 176, 1056], "dtype": "float32"}, {"name": "block5d_expand_bn/gamma", "shape": [1056], "dtype": "float32"}, {"name": "block5d_expand_bn/beta", "shape": [1056], "dtype": "float32"}, {"name": "block5d_expand_bn/moving_mean", "shape": [1056], "dtype": "float32"}, {"name": "block5d_expand_bn/moving_variance", "shape": [1056], "dtype": "float32"}, {"name": "block5d_dwconv/depthwise_kernel", "shape": [5, 5, 1056, 1], "dtype": "float32"}, {"name": "block5d_bn/gamma", "shape": [1056], "dtype": "float32"}, {"name": "block5d_bn/beta", "shape": [1056], "dtype": "float32"}, {"name": "block5d_bn/moving_mean", "shape": [1056], "dtype": "float32"}, {"name": "block5d_bn/moving_variance", "shape": [1056], "dtype": "float32"}, {"name": "block5d_se_reduce/kernel", "shape": [1, 1, 1056, 44], "dtype": "float32"}, {"name": "block5d_se_reduce/bias", "shape": [44], "dtype": "float32"}, {"name": "block5d_se_expand/kernel", "shape": [1, 1, 44, 1056], "dtype": "float32"}, {"name": "block5d_se_expand/bias", "shape": [1056], "dtype": "float32"}, {"name": "block5d_project_conv/kernel", "shape": [1, 1, 1056, 176], "dtype": "float32"}, {"name": "block5d_project_bn/gamma", "shape": [176], "dtype": "float32"}, {"name": "block5d_project_bn/beta", "shape": [176], "dtype": "float32"}, {"name": "block5d_project_bn/moving_mean", "shape": [176], "dtype": "float32"}, {"name": "block5d_project_bn/moving_variance", "shape": [176], "dtype": "float32"}, {"name": "block5e_expand_conv/kernel", "shape": [1, 1, 176, 1056], "dtype": "float32"}, {"name": "block5e_expand_bn/gamma", "shape": [1056], "dtype": "float32"}, {"name": "block5e_expand_bn/beta", "shape": [1056], "dtype": "float32"}, {"name": "block5e_expand_bn/moving_mean", "shape": [1056], "dtype": "float32"}, {"name": "block5e_expand_bn/moving_variance", "shape": [1056], "dtype": "float32"}, {"name": "block5e_dwconv/depthwise_kernel", "shape": [5, 5, 1056, 1], "dtype": "float32"}, {"name": "block5e_bn/gamma", "shape": [1056], "dtype": "float32"}, {"name": "block5e_bn/beta", "shape": [1056], "dtype": "float32"}, {"name": "block5e_bn/moving_mean", "shape": [1056], "dtype": "float32"}, {"name": "block5e_bn/moving_variance", "shape": [1056], "dtype": "float32"}, {"name": "block5e_se_reduce/kernel", "shape": [1, 1, 1056, 44], "dtype": "float32"}, {"name": "block5e_se_reduce/bias", "shape": [44], "dtype": "float32"}, {"name": "block5e_se_expand/kernel", "shape": [1, 1, 44, 1056], "dtype": "float32"}, {"name": "block5e_se_expand/bias", "shape": [1056], "dtype": "float32"}, {"name": "block5e_project_conv/kernel", "shape": [1, 1, 1056, 176], "dtype": "float32"}, {"name": "block5e_project_bn/gamma", "shape": [176], "dtype": "float32"}, {"name": "block5e_project_bn/beta", "shape": [176], "dtype": "float32"}, {"name": "block5e_project_bn/moving_mean", "shape": [176], "dtype": "float32"}, {"name": "block5e_project_bn/moving_variance", "shape": [176], "dtype": "float32"}, {"name": "block5f_expand_conv/kernel", "shape": [1, 1, 176, 1056], "dtype": "float32"}, {"name": "block5f_expand_bn/gamma", "shape": [1056], "dtype": "float32"}, {"name": "block5f_expand_bn/beta", "shape": [1056], "dtype": "float32"}, {"name": "block5f_expand_bn/moving_mean", "shape": [1056], "dtype": "float32"}, {"name": "block5f_expand_bn/moving_variance", "shape": [1056], "dtype": "float32"}, {"name": "block5f_dwconv/depthwise_kernel", "shape": [5, 5, 1056, 1], "dtype": "float32"}, {"name": "block5f_bn/gamma", "shape": [1056], "dtype": "float32"}, {"name": "block5f_bn/beta", "shape": [1056], "dtype": "float32"}, {"name": "block5f_bn/moving_mean", "shape": [1056], "dtype": "float32"}, {"name": "block5f_bn/moving_variance", "shape": [1056], "dtype": "float32"}, {"name": "block5f_se_reduce/kernel", "shape": [1, 1, 1056, 44], "dtype": "float32"}, {"name": "block5f_se_reduce/bias", "shape": [44], "dtype": "float32"}, {"name": "block5f_se_expand/kernel", "shape": [1, 1, 44, 1056], "dtype": "float32"}, {"name": "block5f_se_expand/bias", "shape": [1056], "dtype": "float32"}, {"name": "block5f_project_conv/kernel", "shape": [1, 1, 1056, 176], "dtype": "float32"}, {"name": "block5f_project_bn/gamma", "shape": [176], "dtype": "float32"}, {"name": "block5f_project_bn/beta", "shape": [176], "dtype": "float32"}, {"name": "block5f_project_bn/moving_mean", "shape": [176], "dtype": "float32"}, {"name": "block5f_project_bn/moving_variance", "shape": [176], "dtype": "float32"}, {"name": "block5g_expand_conv/kernel", "shape": [1, 1, 176, 1056], "dtype": "float32"}, {"name": "block5g_expand_bn/gamma", "shape": [1056], "dtype": "float32"}, {"name": "block5g_expand_bn/beta", "shape": [1056], "dtype": "float32"}, {"name": "block5g_expand_bn/moving_mean", "shape": [1056], "dtype": "float32"}, {"name": "block5g_expand_bn/moving_variance", "shape": [1056], "dtype": "float32"}, {"name": "block5g_dwconv/depthwise_kernel", "shape": [5, 5, 1056, 1], "dtype": "float32"}, {"name": "block5g_bn/gamma", "shape": [1056], "dtype": "float32"}, {"name": "block5g_bn/beta", "shape": [1056], "dtype": "float32"}, {"name": "block5g_bn/moving_mean", "shape": [1056], "dtype": "float32"}, {"name": "block5g_bn/moving_variance", "shape": [1056], "dtype": "float32"}, {"name": "block5g_se_reduce/kernel", "shape": [1, 1, 1056, 44], "dtype": "float32"}, {"name": "block5g_se_reduce/bias", "shape": [44], "dtype": "float32"}, {"name": "block5g_se_expand/kernel", "shape": [1, 1, 44, 1056], "dtype": "float32"}, {"name": "block5g_se_expand/bias", "shape": [1056], "dtype": "float32"}, {"name": "block5g_project_conv/kernel", "shape": [1, 1, 1056, 176], "dtype": "float32"}, {"name": "block5g_project_bn/gamma", "shape": [176], "dtype": "float32"}, {"name": "block5g_project_bn/beta", "shape": [176], "dtype": "float32"}, {"name": "block5g_project_bn/moving_mean", "shape": [176], "dtype": "float32"}, {"name": "block5g_project_bn/moving_variance", "shape": [176], "dtype": "float32"}, {"name": "block6a_expand_conv/kernel", "shape": [1, 1, 176, 1056], "dtype": "float32"}, {"name": "block6a_expand_bn/gamma", "shape": [1056], "dtype": "float32"}, {"name": "block6a_expand_bn/beta", "shape": [1056], "dtype": "float32"}, {"name": "block6a_expand_bn/moving_mean", "shape": [1056], "dtype": "float32"}, {"name": "block6a_expand_bn/moving_variance", "shape": [1056], "dtype": "float32"}, {"name": "block6a_dwconv/depthwise_kernel", "shape": [5, 5, 1056, 1], "dtype": "float32"}, {"name": "block6a_bn/gamma", "shape": [1056], "dtype": "float32"}, {"name": "block6a_bn/beta", "shape": [1056], "dtype": "float32"}, {"name": "block6a_bn/moving_mean", "shape": [1056], "dtype": "float32"}, {"name": "block6a_bn/moving_variance", "shape": [1056], "dtype": "float32"}, {"name": "block6a_se_reduce/kernel", "shape": [1, 1, 1056, 44], "dtype": "float32"}, {"name": "block6a_se_reduce/bias", "shape": [44], "dtype": "float32"}, {"name": "block6a_se_expand/kernel", "shape": [1, 1, 44, 1056], "dtype": "float32"}, {"name": "block6a_se_expand/bias", "shape": [1056], "dtype": "float32"}, {"name": "block6a_project_conv/kernel", "shape": [1, 1, 1056, 304], "dtype": "float32"}, {"name": "block6a_project_bn/gamma", "shape": [304], "dtype": "float32"}, {"name": "block6a_project_bn/beta", "shape": [304], "dtype": "float32"}, {"name": "block6a_project_bn/moving_mean", "shape": [304], "dtype": "float32"}, {"name": "block6a_project_bn/moving_variance", "shape": [304], "dtype": "float32"}, {"name": "block6b_expand_conv/kernel", "shape": [1, 1, 304, 1824], "dtype": "float32"}, {"name": "block6b_expand_bn/gamma", "shape": [1824], "dtype": "float32"}, {"name": "block6b_expand_bn/beta", "shape": [1824], "dtype": "float32"}, {"name": "block6b_expand_bn/moving_mean", "shape": [1824], "dtype": "float32"}, {"name": "block6b_expand_bn/moving_variance", "shape": [1824], "dtype": "float32"}, {"name": "block6b_dwconv/depthwise_kernel", "shape": [5, 5, 1824, 1], "dtype": "float32"}, {"name": "block6b_bn/gamma", "shape": [1824], "dtype": "float32"}, {"name": "block6b_bn/beta", "shape": [1824], "dtype": "float32"}, {"name": "block6b_bn/moving_mean", "shape": [1824], "dtype": "float32"}, {"name": "block6b_bn/moving_variance", "shape": [1824], "dtype": "float32"}, {"name": "block6b_se_reduce/kernel", "shape": [1, 1, 1824, 76], "dtype": "float32"}, {"name": "block6b_se_reduce/bias", "shape": [76], "dtype": "float32"}, {"name": "block6b_se_expand/kernel", "shape": [1, 1, 76, 1824], "dtype": "float32"}, {"name": "block6b_se_expand/bias", "shape": [1824], "dtype": "float32"}, {"name": "block6b_project_conv/kernel", "shape": [1, 1, 1824, 304], "dtype": "float32"}, {"name": "block6b_project_bn/gamma", "shape": [304], "dtype": "float32"}, {"name": "block6b_project_bn/beta", "shape": [304], "dtype": "float32"}, {"name": "block6b_project_bn/moving_mean", "shape": [304], "dtype": "float32"}, {"name": "block6b_project_bn/moving_variance", "shape": [304], "dtype": "float32"}, {"name": "block6c_expand_conv/kernel", "shape": [1, 1, 304, 1824], "dtype": "float32"}, {"name": "block6c_expand_bn/gamma", "shape": [1824], "dtype": "float32"}, {"name": "block6c_expand_bn/beta", "shape": [1824], "dtype": "float32"}, {"name": "block6c_expand_bn/moving_mean", "shape": [1824], "dtype": "float32"}, {"name": "block6c_expand_bn/moving_variance", "shape": [1824], "dtype": "float32"}, {"name": "block6c_dwconv/depthwise_kernel", "shape": [5, 5, 1824, 1], "dtype": "float32"}, {"name": "block6c_bn/gamma", "shape": [1824], "dtype": "float32"}, {"name": "block6c_bn/beta", "shape": [1824], "dtype": "float32"}, {"name": "block6c_bn/moving_mean", "shape": [1824], "dtype": "float32"}, {"name": "block6c_bn/moving_variance", "shape": [1824], "dtype": "float32"}, {"name": "block6c_se_reduce/kernel", "shape": [1, 1, 1824, 76], "dtype": "float32"}, {"name": "block6c_se_reduce/bias", "shape": [76], "dtype": "float32"}, {"name": "block6c_se_expand/kernel", "shape": [1, 1, 76, 1824], "dtype": "float32"}, {"name": "block6c_se_expand/bias", "shape": [1824], "dtype": "float32"}, {"name": "block6c_project_conv/kernel", "shape": [1, 1, 1824, 304], "dtype": "float32"}, {"name": "block6c_project_bn/gamma", "shape": [304], "dtype": "float32"}, {"name": "block6c_project_bn/beta", "shape": [304], "dtype": "float32"}, {"name": "block6c_project_bn/moving_mean", "shape": [304], "dtype": "float32"}, {"name": "block6c_project_bn/moving_variance", "shape": [304], "dtype": "float32"}, {"name": "block6d_expand_conv/kernel", "shape": [1, 1, 304, 1824], "dtype": "float32"}, {"name": "block6d_expand_bn/gamma", "shape": [1824], "dtype": "float32"}, {"name": "block6d_expand_bn/beta", "shape": [1824], "dtype": "float32"}, {"name": "block6d_expand_bn/moving_mean", "shape": [1824], "dtype": "float32"}, {"name": "block6d_expand_bn/moving_variance", "shape": [1824], "dtype": "float32"}, {"name": "block6d_dwconv/depthwise_kernel", "shape": [5, 5, 1824, 1], "dtype": "float32"}, {"name": "block6d_bn/gamma", "shape": [1824], "dtype": "float32"}, {"name": "block6d_bn/beta", "shape": [1824], "dtype": "float32"}, {"name": "block6d_bn/moving_mean", "shape": [1824], "dtype": "float32"}, {"name": "block6d_bn/moving_variance", "shape": [1824], "dtype": "float32"}, {"name": "block6d_se_reduce/kernel", "shape": [1, 1, 1824, 76], "dtype": "float32"}, {"name": "block6d_se_reduce/bias", "shape": [76], "dtype": "float32"}, {"name": "block6d_se_expand/kernel", "shape": [1, 1, 76, 1824], "dtype": "float32"}, {"name": "block6d_se_expand/bias", "shape": [1824], "dtype": "float32"}, {"name": "block6d_project_conv/kernel", "shape": [1, 1, 1824, 304], "dtype": "float32"}, {"name": "block6d_project_bn/gamma", "shape": [304], "dtype": "float32"}, {"name": "block6d_project_bn/beta", "shape": [304], "dtype": "float32"}, {"name": "block6d_project_bn/moving_mean", "shape": [304], "dtype": "float32"}, {"name": "block6d_project_bn/moving_variance", "shape": [304], "dtype": "float32"}, {"name": "block6e_expand_conv/kernel", "shape": [1, 1, 304, 1824], "dtype": "float32"}, {"name": "block6e_expand_bn/gamma", "shape": [1824], "dtype": "float32"}, {"name": "block6e_expand_bn/beta", "shape": [1824], "dtype": "float32"}, {"name": "block6e_expand_bn/moving_mean", "shape": [1824], "dtype": "float32"}, {"name": "block6e_expand_bn/moving_variance", "shape": [1824], "dtype": "float32"}, {"name": "block6e_dwconv/depthwise_kernel", "shape": [5, 5, 1824, 1], "dtype": "float32"}, {"name": "block6e_bn/gamma", "shape": [1824], "dtype": "float32"}, {"name": "block6e_bn/beta", "shape": [1824], "dtype": "float32"}, {"name": "block6e_bn/moving_mean", "shape": [1824], "dtype": "float32"}, {"name": "block6e_bn/moving_variance", "shape": [1824], "dtype": "float32"}, {"name": "block6e_se_reduce/kernel", "shape": [1, 1, 1824, 76], "dtype": "float32"}, {"name": "block6e_se_reduce/bias", "shape": [76], "dtype": "float32"}, {"name": "block6e_se_expand/kernel", "shape": [1, 1, 76, 1824], "dtype": "float32"}, {"name": "block6e_se_expand/bias", "shape": [1824], "dtype": "float32"}, {"name": "block6e_project_conv/kernel", "shape": [1, 1, 1824, 304], "dtype": "float32"}, {"name": "block6e_project_bn/gamma", "shape": [304], "dtype": "float32"}, {"name": "block6e_project_bn/beta", "shape": [304], "dtype": "float32"}, {"name": "block6e_project_bn/moving_mean", "shape": [304], "dtype": "float32"}, {"name": "block6e_project_bn/moving_variance", "shape": [304], "dtype": "float32"}, {"name": "block6f_expand_conv/kernel", "shape": [1, 1, 304, 1824], "dtype": "float32"}, {"name": "block6f_expand_bn/gamma", "shape": [1824], "dtype": "float32"}, {"name": "block6f_expand_bn/beta", "shape": [1824], "dtype": "float32"}, {"name": "block6f_expand_bn/moving_mean", "shape": [1824], "dtype": "float32"}, {"name": "block6f_expand_bn/moving_variance", "shape": [1824], "dtype": "float32"}, {"name": "block6f_dwconv/depthwise_kernel", "shape": [5, 5, 1824, 1], "dtype": "float32"}, {"name": "block6f_bn/gamma", "shape": [1824], "dtype": "float32"}, {"name": "block6f_bn/beta", "shape": [1824], "dtype": "float32"}, {"name": "block6f_bn/moving_mean", "shape": [1824], "dtype": "float32"}, {"name": "block6f_bn/moving_variance", "shape": [1824], "dtype": "float32"}, {"name": "block6f_se_reduce/kernel", "shape": [1, 1, 1824, 76], "dtype": "float32"}, {"name": "block6f_se_reduce/bias", "shape": [76], "dtype": "float32"}, {"name": "block6f_se_expand/kernel", "shape": [1, 1, 76, 1824], "dtype": "float32"}, {"name": "block6f_se_expand/bias", "shape": [1824], "dtype": "float32"}, {"name": "block6f_project_conv/kernel", "shape": [1, 1, 1824, 304], "dtype": "float32"}, {"name": "block6f_project_bn/gamma", "shape": [304], "dtype": "float32"}, {"name": "block6f_project_bn/beta", "shape": [304], "dtype": "float32"}, {"name": "block6f_project_bn/moving_mean", "shape": [304], "dtype": "float32"}, {"name": "block6f_project_bn/moving_variance", "shape": [304], "dtype": "float32"}, {"name": "block6g_expand_conv/kernel", "shape": [1, 1, 304, 1824], "dtype": "float32"}, {"name": "block6g_expand_bn/gamma", "shape": [1824], "dtype": "float32"}, {"name": "block6g_expand_bn/beta", "shape": [1824], "dtype": "float32"}, {"name": "block6g_expand_bn/moving_mean", "shape": [1824], "dtype": "float32"}, {"name": "block6g_expand_bn/moving_variance", "shape": [1824], "dtype": "float32"}, {"name": "block6g_dwconv/depthwise_kernel", "shape": [5, 5, 1824, 1], "dtype": "float32"}, {"name": "block6g_bn/gamma", "shape": [1824], "dtype": "float32"}, {"name": "block6g_bn/beta", "shape": [1824], "dtype": "float32"}, {"name": "block6g_bn/moving_mean", "shape": [1824], "dtype": "float32"}, {"name": "block6g_bn/moving_variance", "shape": [1824], "dtype": "float32"}, {"name": "block6g_se_reduce/kernel", "shape": [1, 1, 1824, 76], "dtype": "float32"}, {"name": "block6g_se_reduce/bias", "shape": [76], "dtype": "float32"}, {"name": "block6g_se_expand/kernel", "shape": [1, 1, 76, 1824], "dtype": "float32"}, {"name": "block6g_se_expand/bias", "shape": [1824], "dtype": "float32"}, {"name": "block6g_project_conv/kernel", "shape": [1, 1, 1824, 304], "dtype": "float32"}, {"name": "block6g_project_bn/gamma", "shape": [304], "dtype": "float32"}, {"name": "block6g_project_bn/beta", "shape": [304], "dtype": "float32"}, {"name": "block6g_project_bn/moving_mean", "shape": [304], "dtype": "float32"}, {"name": "block6g_project_bn/moving_variance", "shape": [304], "dtype": "float32"}, {"name": "block6h_expand_conv/kernel", "shape": [1, 1, 304, 1824], "dtype": "float32"}, {"name": "block6h_expand_bn/gamma", "shape": [1824], "dtype": "float32"}, {"name": "block6h_expand_bn/beta", "shape": [1824], "dtype": "float32"}, {"name": "block6h_expand_bn/moving_mean", "shape": [1824], "dtype": "float32"}, {"name": "block6h_expand_bn/moving_variance", "shape": [1824], "dtype": "float32"}, {"name": "block6h_dwconv/depthwise_kernel", "shape": [5, 5, 1824, 1], "dtype": "float32"}, {"name": "block6h_bn/gamma", "shape": [1824], "dtype": "float32"}, {"name": "block6h_bn/beta", "shape": [1824], "dtype": "float32"}, {"name": "block6h_bn/moving_mean", "shape": [1824], "dtype": "float32"}, {"name": "block6h_bn/moving_variance", "shape": [1824], "dtype": "float32"}, {"name": "block6h_se_reduce/kernel", "shape": [1, 1, 1824, 76], "dtype": "float32"}, {"name": "block6h_se_reduce/bias", "shape": [76], "dtype": "float32"}, {"name": "block6h_se_expand/kernel", "shape": [1, 1, 76, 1824], "dtype": "float32"}, {"name": "block6h_se_expand/bias", "shape": [1824], "dtype": "float32"}, {"name": "block6h_project_conv/kernel", "shape": [1, 1, 1824, 304], "dtype": "float32"}, {"name": "block6h_project_bn/gamma", "shape": [304], "dtype": "float32"}, {"name": "block6h_project_bn/beta", "shape": [304], "dtype": "float32"}, {"name": "block6h_project_bn/moving_mean", "shape": [304], "dtype": "float32"}, {"name": "block6h_project_bn/moving_variance", "shape": [304], "dtype": "float32"}, {"name": "block6i_expand_conv/kernel", "shape": [1, 1, 304, 1824], "dtype": "float32"}, {"name": "block6i_expand_bn/gamma", "shape": [1824], "dtype": "float32"}, {"name": "block6i_expand_bn/beta", "shape": [1824], "dtype": "float32"}, {"name": "block6i_expand_bn/moving_mean", "shape": [1824], "dtype": "float32"}, {"name": "block6i_expand_bn/moving_variance", "shape": [1824], "dtype": "float32"}, {"name": "block6i_dwconv/depthwise_kernel", "shape": [5, 5, 1824, 1], "dtype": "float32"}, {"name": "block6i_bn/gamma", "shape": [1824], "dtype": "float32"}, {"name": "block6i_bn/beta", "shape": [1824], "dtype": "float32"}, {"name": "block6i_bn/moving_mean", "shape": [1824], "dtype": "float32"}, {"name": "block6i_bn/moving_variance", "shape": [1824], "dtype": "float32"}, {"name": "block6i_se_reduce/kernel", "shape": [1, 1, 1824, 76], "dtype": "float32"}, {"name": "block6i_se_reduce/bias", "shape": [76], "dtype": "float32"}, {"name": "block6i_se_expand/kernel", "shape": [1, 1, 76, 1824], "dtype": "float32"}, {"name": "block6i_se_expand/bias", "shape": [1824], "dtype": "float32"}, {"name": "block6i_project_conv/kernel", "shape": [1, 1, 1824, 304], "dtype": "float32"}, {"name": "block6i_project_bn/gamma", "shape": [304], "dtype": "float32"}, {"name": "block6i_project_bn/beta", "shape": [304], "dtype": "float32"}, {"name": "block6i_project_bn/moving_mean", "shape": [304], "dtype": "float32"}, {"name": "block6i_project_bn/moving_variance", "shape": [304], "dtype": "float32"}, {"name": "block7a_expand_conv/kernel", "shape": [1, 1, 304, 1824], "dtype": "float32"}, {"name": "block7a_expand_bn/gamma", "shape": [1824], "dtype": "float32"}, {"name": "block7a_expand_bn/beta", "shape": [1824], "dtype": "float32"}, {"name": "block7a_expand_bn/moving_mean", "shape": [1824], "dtype": "float32"}, {"name": "block7a_expand_bn/moving_variance", "shape": [1824], "dtype": "float32"}, {"name": "block7a_dwconv/depthwise_kernel", "shape": [3, 3, 1824, 1], "dtype": "float32"}, {"name": "block7a_bn/gamma", "shape": [1824], "dtype": "float32"}, {"name": "block7a_bn/beta", "shape": [1824], "dtype": "float32"}, {"name": "block7a_bn/moving_mean", "shape": [1824], "dtype": "float32"}, {"name": "block7a_bn/moving_variance", "shape": [1824], "dtype": "float32"}, {"name": "block7a_se_reduce/kernel", "shape": [1, 1, 1824, 76], "dtype": "float32"}, {"name": "block7a_se_reduce/bias", "shape": [76], "dtype": "float32"}, {"name": "block7a_se_expand/kernel", "shape": [1, 1, 76, 1824], "dtype": "float32"}, {"name": "block7a_se_expand/bias", "shape": [1824], "dtype": "float32"}, {"name": "block7a_project_conv/kernel", "shape": [1, 1, 1824, 512], "dtype": "float32"}, {"name": "block7a_project_bn/gamma", "shape": [512], "dtype": "float32"}, {"name": "block7a_project_bn/beta", "shape": [512], "dtype": "float32"}, {"name": "block7a_project_bn/moving_mean", "shape": [512], "dtype": "float32"}, {"name": "block7a_project_bn/moving_variance", "shape": [512], "dtype": "float32"}, {"name": "block7b_expand_conv/kernel", "shape": [1, 1, 512, 3072], "dtype": "float32"}, {"name": "block7b_expand_bn/gamma", "shape": [3072], "dtype": "float32"}, {"name": "block7b_expand_bn/beta", "shape": [3072], "dtype": "float32"}, {"name": "block7b_expand_bn/moving_mean", "shape": [3072], "dtype": "float32"}, {"name": "block7b_expand_bn/moving_variance", "shape": [3072], "dtype": "float32"}, {"name": "block7b_dwconv/depthwise_kernel", "shape": [3, 3, 3072, 1], "dtype": "float32"}, {"name": "block7b_bn/gamma", "shape": [3072], "dtype": "float32"}, {"name": "block7b_bn/beta", "shape": [3072], "dtype": "float32"}, {"name": "block7b_bn/moving_mean", "shape": [3072], "dtype": "float32"}, {"name": "block7b_bn/moving_variance", "shape": [3072], "dtype": "float32"}, {"name": "block7b_se_reduce/kernel", "shape": [1, 1, 3072, 128], "dtype": "float32"}, {"name": "block7b_se_reduce/bias", "shape": [128], "dtype": "float32"}, {"name": "block7b_se_expand/kernel", "shape": [1, 1, 128, 3072], "dtype": "float32"}, {"name": "block7b_se_expand/bias", "shape": [3072], "dtype": "float32"}, {"name": "block7b_project_conv/kernel", "shape": [1, 1, 3072, 512], "dtype": "float32"}, {"name": "block7b_project_bn/gamma", "shape": [512], "dtype": "float32"}, {"name": "block7b_project_bn/beta", "shape": [512], "dtype": "float32"}, {"name": "block7b_project_bn/moving_mean", "shape": [512], "dtype": "float32"}, {"name": "block7b_project_bn/moving_variance", "shape": [512], "dtype": "float32"}, {"name": "block7c_expand_conv/kernel", "shape": [1, 1, 512, 3072], "dtype": "float32"}, {"name": "block7c_expand_bn/gamma", "shape": [3072], "dtype": "float32"}, {"name": "block7c_expand_bn/beta", "shape": [3072], "dtype": "float32"}, {"name": "block7c_expand_bn/moving_mean", "shape": [3072], "dtype": "float32"}, {"name": "block7c_expand_bn/moving_variance", "shape": [3072], "dtype": "float32"}, {"name": "block7c_dwconv/depthwise_kernel", "shape": [3, 3, 3072, 1], "dtype": "float32"}, {"name": "block7c_bn/gamma", "shape": [3072], "dtype": "float32"}, {"name": "block7c_bn/beta", "shape": [3072], "dtype": "float32"}, {"name": "block7c_bn/moving_mean", "shape": [3072], "dtype": "float32"}, {"name": "block7c_bn/moving_variance", "shape": [3072], "dtype": "float32"}, {"name": "block7c_se_reduce/kernel", "shape": [1, 1, 3072, 128], "dtype": "float32"}, {"name": "block7c_se_reduce/bias", "shape": [128], "dtype": "float32"}, {"name": "block7c_se_expand/kernel", "shape": [1, 1, 128, 3072], "dtype": "float32"}, {"name": "block7c_se_expand/bias", "shape": [3072], "dtype": "float32"}, {"name": "block7c_project_bn/moving_mean", "shape": [512], "dtype": "float32"}, {"name": "block7c_project_bn/moving_variance", "shape": [512], "dtype": "float32"}, {"name": "top_bn/moving_mean", "shape": [2048], "dtype": "float32"}, {"name": "top_bn/moving_variance", "shape": [2048], "dtype": "float32"}]}]}