{"format": "graph-model", "generatedBy": "2.15.0", "convertedBy": "TensorFlow.js Converter v4.17.0", "signature": {"inputs": {"input_text": {"name": "input_text:0", "dtype": "DT_FLOAT", "tensorShape": {"dim": [{"size": "-1"}, {"size": "-1"}]}}, "input_image": {"name": "input_image:0", "dtype": "DT_FLOAT", "tensorShape": {"dim": [{"size": "-1"}, {"size": "456"}, {"size": "456"}, {"size": "3"}]}}}, "outputs": {"decoder_4": {"name": "Identity:0", "dtype": "DT_FLOAT", "tensorShape": {"dim": [{"size": "-1"}, {"size": "-1"}, {"size": "12000"}]}}, "decoder_4_1": {"name": "Identity_1:0", "dtype": "DT_FLOAT", "tensorShape": {"dim": [{"size": "-1"}, {"size": "8"}, {"size": "-1"}, {"size": "225"}]}}}}, "modelTopology": {"node": [{"name": "StatefulPartitionedCall/model_13/decoder_4/decoder_layer_29/feed_forward_59/layer_normalization_158/Reshape/shape/0", "op": "Const", "attr": {"dtype": {"type": "DT_INT32"}, "value": {"tensor": {"dtype": "DT_INT32", "tensorShape": {}}}}}, {"name": "StatefulPartitionedCall/model_13/decoder_4/decoder_layer_29/feed_forward_59/layer_normalization_158/strided_slice_1/stack", "op": "Const", "attr": {"value": {"tensor": {"dtype": "DT_INT32", "tensorShape": {"dim": [{"size": "1"}]}}}, "dtype": {"type": "DT_INT32"}}}, {"name": "StatefulPartitionedCall/model_13/decoder_4/decoder_layer_29/feed_forward_59/layer_normalization_158/strided_slice_1/stack_1", "op": "Const", "attr": {"dtype": {"type": "DT_INT32"}, "value": {"tensor": {"dtype": "DT_INT32", "tensorShape": {"dim": [{"size": "1"}]}}}}}, {"name": "StatefulPartitionedCall/model_13/decoder_4/decoder_layer_29/feed_forward_59/layer_normalization_158/strided_slice_1/stack_2", "op": "Const", "attr": {"value": {"tensor": {"dtype": "DT_INT32", "tensorShape": {"dim": [{"size": "1"}]}}}, "dtype": {"type": "DT_INT32"}}}, {"name": "StatefulPartitionedCall/model_13/decoder_4/decoder_layer_29/feed_forward_59/layer_normalization_158/Const_1", "op": "Const", "attr": {"value": {"tensor": {"dtype": "DT_INT32", "tensorShape": {"dim": [{"size": "1"}]}}}, "dtype": {"type": "DT_INT32"}}}, {"name": "StatefulPartitionedCall/model_13/decoder_4/decoder_layer_29/feed_forward_59/layer_normalization_158/Reshape/shape/3", "op": "Const", "attr": {"dtype": {"type": "DT_INT32"}, "value": {"tensor": {"dtype": "DT_INT32", "tensorShape": {}}}}}, {"name": "StatefulPartitionedCall/model_13/decoder_4/decoder_layer_29/feed_forward_59/layer_normalization_158/ones/Const", "op": "Const", "attr": {"value": {"tensor": {"dtype": "DT_FLOAT", "tensorShape": {}}}, "dtype": {"type": "DT_FLOAT"}}}, {"name": "StatefulPartitionedCall/model_13/decoder_4/decoder_layer_29/feed_forward_59/layer_normalization_158/strided_slice/stack", "op": "Const", "attr": {"value": {"tensor": {"dtype": "DT_INT32", "tensorShape": {"dim": [{"size": "1"}]}}}, "dtype": {"type": "DT_INT32"}}}, {"name": "StatefulPartitionedCall/model_13/decoder_4/decoder_layer_29/feed_forward_59/layer_normalization_158/strided_slice/stack_1", "op": "Const", "attr": {"dtype": {"type": "DT_INT32"}, "value": {"tensor": {"dtype": "DT_INT32", "tensorShape": {"dim": [{"size": "1"}]}}}}}, {"name": "StatefulPartitionedCall/model_13/decoder_4/decoder_layer_29/feed_forward_59/layer_normalization_158/strided_slice/stack_2", "op": "Const", "attr": {"dtype": {"type": "DT_INT32"}, "value": {"tensor": {"dtype": "DT_INT32", "tensorShape": {"dim": [{"size": "1"}]}}}}}, {"name": "StatefulPartitionedCall/model_13/decoder_4/decoder_layer_29/feed_forward_59/layer_normalization_158/Const", "op": "Const", "attr": {"value": {"tensor": {"dtype": "DT_INT32", "tensorShape": {"dim": [{"size": "1"}]}}}, "dtype": {"type": "DT_INT32"}}}, {"name": "StatefulPartitionedCall/model_13/decoder_4/decoder_layer_29/feed_forward_59/layer_normalization_158/zeros/Const", "op": "Const", "attr": {"dtype": {"type": "DT_FLOAT"}, "value": {"tensor": {"dtype": "DT_FLOAT", "tensorShape": {}}}}}, {"name": "StatefulPartitionedCall/model_13/decoder_4/decoder_layer_29/feed_forward_59/layer_normalization_158/Const_2", "op": "Const", "attr": {"value": {"tensor": {"dtype": "DT_FLOAT", "tensorShape": {"dim": [{}]}}}, "dtype": {"type": "DT_FLOAT"}}}, {"name": "StatefulPartitionedCall/model_13/decoder_4/decoder_layer_29/feed_forward_59/layer_normalization_158/Const_3", "op": "Const", "attr": {"value": {"tensor": {"dtype": "DT_FLOAT", "tensorShape": {"dim": [{}]}}}, "dtype": {"type": "DT_FLOAT"}}}, {"name": "StatefulPartitionedCall/model_13/decoder_4/decoder_layer_29/feed_forward_59/layer_normalization_158/mul/ReadVariableOp", "op": "Const", "attr": {"dtype": {"type": "DT_FLOAT"}, "value": {"tensor": {"dtype": "DT_FLOAT", "tensorShape": {"dim": [{"size": "512"}]}}}}}, {"name": "StatefulPartitionedCall/model_13/decoder_4/decoder_layer_29/feed_forward_59/layer_normalization_158/add/ReadVariableOp", "op": "Const", "attr": {"dtype": {"type": "DT_FLOAT"}, "value": {"tensor": {"dtype": "DT_FLOAT", "tensorShape": {"dim": [{"size": "512"}]}}}}}, {"name": "StatefulPartitionedCall/model_13/decoder_4/Const_1", "op": "Const", "attr": {"dtype": {"type": "DT_FLOAT"}, "value": {"tensor": {"dtype": "DT_FLOAT", "tensorShape": {}}}}}, {"name": "StatefulPartitionedCall/model_13/decoder_4/layer_normalization_159/Reshape/shape/0", "op": "Const", "attr": {"value": {"tensor": {"dtype": "DT_INT32", "tensorShape": {}}}, "dtype": {"type": "DT_INT32"}}}, {"name": "StatefulPartitionedCall/model_13/decoder_4/layer_normalization_159/strided_slice_1/stack", "op": "Const", "attr": {"dtype": {"type": "DT_INT32"}, "value": {"tensor": {"dtype": "DT_INT32", "tensorShape": {"dim": [{"size": "1"}]}}}}}, {"name": "StatefulPartitionedCall/model_13/decoder_4/layer_normalization_159/strided_slice_1/stack_1", "op": "Const", "attr": {"dtype": {"type": "DT_INT32"}, "value": {"tensor": {"dtype": "DT_INT32", "tensorShape": {"dim": [{"size": "1"}]}}}}}, {"name": "StatefulPartitionedCall/model_13/decoder_4/layer_normalization_159/strided_slice_1/stack_2", "op": "Const", "attr": {"dtype": {"type": "DT_INT32"}, "value": {"tensor": {"dtype": "DT_INT32", "tensorShape": {"dim": [{"size": "1"}]}}}}}, {"name": "StatefulPartitionedCall/model_13/decoder_4/layer_normalization_159/Const_1", "op": "Const", "attr": {"dtype": {"type": "DT_INT32"}, "value": {"tensor": {"dtype": "DT_INT32", "tensorShape": {"dim": [{"size": "1"}]}}}}}, {"name": "StatefulPartitionedCall/model_13/decoder_4/layer_normalization_159/Reshape/shape/3", "op": "Const", "attr": {"dtype": {"type": "DT_INT32"}, "value": {"tensor": {"dtype": "DT_INT32", "tensorShape": {}}}}}, {"name": "StatefulPartitionedCall/model_13/decoder_4/layer_normalization_159/ones/Const", "op": "Const", "attr": {"dtype": {"type": "DT_FLOAT"}, "value": {"tensor": {"dtype": "DT_FLOAT", "tensorShape": {}}}}}, {"name": "StatefulPartitionedCall/model_13/decoder_4/layer_normalization_159/strided_slice/stack", "op": "Const", "attr": {"value": {"tensor": {"dtype": "DT_INT32", "tensorShape": {"dim": [{"size": "1"}]}}}, "dtype": {"type": "DT_INT32"}}}, {"name": "StatefulPartitionedCall/model_13/decoder_4/layer_normalization_159/strided_slice/stack_1", "op": "Const", "attr": {"value": {"tensor": {"dtype": "DT_INT32", "tensorShape": {"dim": [{"size": "1"}]}}}, "dtype": {"type": "DT_INT32"}}}, {"name": "StatefulPartitionedCall/model_13/decoder_4/layer_normalization_159/strided_slice/stack_2", "op": "Const", "attr": {"dtype": {"type": "DT_INT32"}, "value": {"tensor": {"dtype": "DT_INT32", "tensorShape": {"dim": [{"size": "1"}]}}}}}, {"name": "StatefulPartitionedCall/model_13/decoder_4/layer_normalization_159/Const", "op": "Const", "attr": {"dtype": {"type": "DT_INT32"}, "value": {"tensor": {"dtype": "DT_INT32", "tensorShape": {"dim": [{"size": "1"}]}}}}}, {"name": "StatefulPartitionedCall/model_13/decoder_4/layer_normalization_159/zeros/Const", "op": "Const", "attr": {"dtype": {"type": "DT_FLOAT"}, "value": {"tensor": {"dtype": "DT_FLOAT", "tensorShape": {}}}}}, {"name": "StatefulPartitionedCall/model_13/decoder_4/layer_normalization_159/Const_2", "op": "Const", "attr": {"value": {"tensor": {"dtype": "DT_FLOAT", "tensorShape": {"dim": [{}]}}}, "dtype": {"type": "DT_FLOAT"}}}, {"name": "StatefulPartitionedCall/model_13/decoder_4/layer_normalization_159/Const_3", "op": "Const", "attr": {"value": {"tensor": {"dtype": "DT_FLOAT", "tensorShape": {"dim": [{}]}}}, "dtype": {"type": "DT_FLOAT"}}}, {"name": "StatefulPartitionedCall/model_13/decoder_4/Const", "op": "Const", "attr": {"dtype": {"type": "DT_FLOAT"}, "value": {"tensor": {"dtype": "DT_FLOAT", "tensorShape": {}}}}}, {"name": "StatefulPartitionedCall/model_13/decoder_4/decoder_layer_24/causal_self_attention_24/Const", "op": "Const", "attr": {"value": {"tensor": {"dtype": "DT_FLOAT", "tensorShape": {}}}, "dtype": {"type": "DT_FLOAT"}}}, {"name": "StatefulPartitionedCall/model_13/decoder_4/decoder_layer_24/cross_attention_24/Const", "op": "Const", "attr": {"dtype": {"type": "DT_FLOAT"}, "value": {"tensor": {"dtype": "DT_FLOAT", "tensorShape": {}}}}}, {"name": "StatefulPartitionedCall/model_13/decoder_4/decoder_layer_24/feed_forward_54/Const", "op": "Const", "attr": {"dtype": {"type": "DT_FLOAT"}, "value": {"tensor": {"dtype": "DT_FLOAT", "tensorShape": {}}}}}, {"name": "StatefulPartitionedCall/model_13/decoder_4/decoder_layer_25/causal_self_attention_25/Const", "op": "Const", "attr": {"dtype": {"type": "DT_FLOAT"}, "value": {"tensor": {"dtype": "DT_FLOAT", "tensorShape": {}}}}}, {"name": "StatefulPartitionedCall/model_13/decoder_4/decoder_layer_25/cross_attention_25/Const", "op": "Const", "attr": {"value": {"tensor": {"dtype": "DT_FLOAT", "tensorShape": {}}}, "dtype": {"type": "DT_FLOAT"}}}, {"name": "StatefulPartitionedCall/model_13/decoder_4/decoder_layer_25/feed_forward_55/Const", "op": "Const", "attr": {"dtype": {"type": "DT_FLOAT"}, "value": {"tensor": {"dtype": "DT_FLOAT", "tensorShape": {}}}}}, {"name": "StatefulPartitionedCall/model_13/decoder_4/decoder_layer_26/causal_self_attention_26/Const", "op": "Const", "attr": {"value": {"tensor": {"dtype": "DT_FLOAT", "tensorShape": {}}}, "dtype": {"type": "DT_FLOAT"}}}, {"name": "StatefulPartitionedCall/model_13/decoder_4/decoder_layer_26/cross_attention_26/Const", "op": "Const", "attr": {"dtype": {"type": "DT_FLOAT"}, "value": {"tensor": {"dtype": "DT_FLOAT", "tensorShape": {}}}}}, {"name": "StatefulPartitionedCall/model_13/decoder_4/decoder_layer_26/feed_forward_56/Const", "op": "Const", "attr": {"dtype": {"type": "DT_FLOAT"}, "value": {"tensor": {"dtype": "DT_FLOAT", "tensorShape": {}}}}}, {"name": "StatefulPartitionedCall/model_13/decoder_4/decoder_layer_27/causal_self_attention_27/Const", "op": "Const", "attr": {"dtype": {"type": "DT_FLOAT"}, "value": {"tensor": {"dtype": "DT_FLOAT", "tensorShape": {}}}}}, {"name": "StatefulPartitionedCall/model_13/decoder_4/decoder_layer_27/cross_attention_27/Const", "op": "Const", "attr": {"dtype": {"type": "DT_FLOAT"}, "value": {"tensor": {"dtype": "DT_FLOAT", "tensorShape": {}}}}}, {"name": "StatefulPartitionedCall/model_13/decoder_4/decoder_layer_27/feed_forward_57/Const", "op": "Const", "attr": {"dtype": {"type": "DT_FLOAT"}, "value": {"tensor": {"dtype": "DT_FLOAT", "tensorShape": {}}}}}, {"name": "StatefulPartitionedCall/model_13/decoder_4/decoder_layer_28/causal_self_attention_28/Const", "op": "Const", "attr": {"value": {"tensor": {"dtype": "DT_FLOAT", "tensorShape": {}}}, "dtype": {"type": "DT_FLOAT"}}}, {"name": "StatefulPartitionedCall/model_13/decoder_4/decoder_layer_28/cross_attention_28/Const", "op": "Const", "attr": {"dtype": {"type": "DT_FLOAT"}, "value": {"tensor": {"dtype": "DT_FLOAT", "tensorShape": {}}}}}, {"name": "StatefulPartitionedCall/model_13/decoder_4/decoder_layer_28/feed_forward_58/Const", "op": "Const", "attr": {"value": {"tensor": {"dtype": "DT_FLOAT", "tensorShape": {}}}, "dtype": {"type": "DT_FLOAT"}}}, {"name": "StatefulPartitionedCall/model_13/decoder_4/decoder_layer_29/causal_self_attention_29/Const", "op": "Const", "attr": {"value": {"tensor": {"dtype": "DT_FLOAT", "tensorShape": {}}}, "dtype": {"type": "DT_FLOAT"}}}, {"name": "StatefulPartitionedCall/model_13/decoder_4/decoder_layer_29/cross_attention_29/Const", "op": "Const", "attr": {"value": {"tensor": {"dtype": "DT_FLOAT", "tensorShape": {}}}, "dtype": {"type": "DT_FLOAT"}}}, {"name": "StatefulPartitionedCall/model_13/decoder_4/decoder_layer_29/feed_forward_59/dense_124/Tensordot/Const", "op": "Const", "attr": {"dtype": {"type": "DT_INT32"}, "value": {"tensor": {"dtype": "DT_INT32", "tensorShape": {"dim": [{"size": "1"}]}}}}}, {"name": "StatefulPartitionedCall/model_13/decoder_4/decoder_layer_29/feed_forward_59/dense_124/Tensordot/axes", "op": "Const", "attr": {"value": {"tensor": {"dtype": "DT_INT32", "tensorShape": {"dim": [{"size": "1"}]}}}, "dtype": {"type": "DT_INT32"}}}, {"name": "StatefulPartitionedCall/model_13/decoder_4/decoder_layer_29/feed_forward_59/dense_124/Tensordot/GatherV2_1/axis", "op": "Const", "attr": {"dtype": {"type": "DT_INT32"}, "value": {"tensor": {"dtype": "DT_INT32", "tensorShape": {}}}}}, {"name": "StatefulPartitionedCall/model_13/decoder_4/decoder_layer_29/feed_forward_59/dense_124/Tensordot/Const_1", "op": "Const", "attr": {"dtype": {"type": "DT_INT32"}, "value": {"tensor": {"dtype": "DT_INT32", "tensorShape": {"dim": [{"size": "1"}]}}}}}, {"name": "StatefulPartitionedCall/model_13/decoder_4/decoder_layer_29/feed_forward_59/dense_124/Tensordot/ReadVariableOp", "op": "Const", "attr": {"dtype": {"type": "DT_FLOAT"}, "value": {"tensor": {"dtype": "DT_FLOAT", "tensorShape": {"dim": [{"size": "2048"}, {"size": "512"}]}}}}}, {"name": "StatefulPartitionedCall/model_13/decoder_4/decoder_layer_29/feed_forward_59/dense_123/Tensordot/Const", "op": "Const", "attr": {"value": {"tensor": {"dtype": "DT_INT32", "tensorShape": {"dim": [{"size": "1"}]}}}, "dtype": {"type": "DT_INT32"}}}, {"name": "StatefulPartitionedCall/model_13/decoder_4/decoder_layer_29/feed_forward_59/dense_123/Tensordot/axes", "op": "Const", "attr": {"dtype": {"type": "DT_INT32"}, "value": {"tensor": {"dtype": "DT_INT32", "tensorShape": {"dim": [{"size": "1"}]}}}}}, {"name": "StatefulPartitionedCall/model_13/decoder_4/decoder_layer_29/feed_forward_59/dense_123/Tensordot/GatherV2_1/axis", "op": "Const", "attr": {"value": {"tensor": {"dtype": "DT_INT32", "tensorShape": {}}}, "dtype": {"type": "DT_INT32"}}}, {"name": "StatefulPartitionedCall/model_13/decoder_4/decoder_layer_29/feed_forward_59/dense_123/Tensordot/Const_1", "op": "Const", "attr": {"dtype": {"type": "DT_INT32"}, "value": {"tensor": {"dtype": "DT_INT32", "tensorShape": {"dim": [{"size": "1"}]}}}}}, {"name": "StatefulPartitionedCall/model_13/decoder_4/decoder_layer_29/feed_forward_59/dense_123/Tensordot/ReadVariableOp", "op": "Const", "attr": {"dtype": {"type": "DT_FLOAT"}, "value": {"tensor": {"dtype": "DT_FLOAT", "tensorShape": {"dim": [{"size": "512"}, {"size": "2048"}]}}}}}, {"name": "StatefulPartitionedCall/model_13/decoder_4/decoder_layer_29/cross_attention_29/layer_normalization_157/Reshape/shape/0", "op": "Const", "attr": {"dtype": {"type": "DT_INT32"}, "value": {"tensor": {"dtype": "DT_INT32", "tensorShape": {}}}}}, {"name": "StatefulPartitionedCall/model_13/decoder_4/decoder_layer_29/cross_attention_29/layer_normalization_157/strided_slice_1/stack", "op": "Const", "attr": {"value": {"tensor": {"dtype": "DT_INT32", "tensorShape": {"dim": [{"size": "1"}]}}}, "dtype": {"type": "DT_INT32"}}}, {"name": "StatefulPartitionedCall/model_13/decoder_4/decoder_layer_29/cross_attention_29/layer_normalization_157/strided_slice_1/stack_1", "op": "Const", "attr": {"dtype": {"type": "DT_INT32"}, "value": {"tensor": {"dtype": "DT_INT32", "tensorShape": {"dim": [{"size": "1"}]}}}}}, {"name": "StatefulPartitionedCall/model_13/decoder_4/decoder_layer_29/cross_attention_29/layer_normalization_157/strided_slice_1/stack_2", "op": "Const", "attr": {"value": {"tensor": {"dtype": "DT_INT32", "tensorShape": {"dim": [{"size": "1"}]}}}, "dtype": {"type": "DT_INT32"}}}, {"name": "StatefulPartitionedCall/model_13/decoder_4/decoder_layer_29/cross_attention_29/layer_normalization_157/Const_1", "op": "Const", "attr": {"dtype": {"type": "DT_INT32"}, "value": {"tensor": {"dtype": "DT_INT32", "tensorShape": {"dim": [{"size": "1"}]}}}}}, {"name": "StatefulPartitionedCall/model_13/decoder_4/decoder_layer_29/cross_attention_29/layer_normalization_157/Reshape/shape/3", "op": "Const", "attr": {"dtype": {"type": "DT_INT32"}, "value": {"tensor": {"dtype": "DT_INT32", "tensorShape": {}}}}}, {"name": "StatefulPartitionedCall/model_13/decoder_4/decoder_layer_29/cross_attention_29/layer_normalization_157/ones/Const", "op": "Const", "attr": {"value": {"tensor": {"dtype": "DT_FLOAT", "tensorShape": {}}}, "dtype": {"type": "DT_FLOAT"}}}, {"name": "StatefulPartitionedCall/model_13/decoder_4/decoder_layer_29/cross_attention_29/layer_normalization_157/strided_slice/stack", "op": "Const", "attr": {"dtype": {"type": "DT_INT32"}, "value": {"tensor": {"dtype": "DT_INT32", "tensorShape": {"dim": [{"size": "1"}]}}}}}, {"name": "StatefulPartitionedCall/model_13/decoder_4/decoder_layer_29/cross_attention_29/layer_normalization_157/strided_slice/stack_1", "op": "Const", "attr": {"value": {"tensor": {"dtype": "DT_INT32", "tensorShape": {"dim": [{"size": "1"}]}}}, "dtype": {"type": "DT_INT32"}}}, {"name": "StatefulPartitionedCall/model_13/decoder_4/decoder_layer_29/cross_attention_29/layer_normalization_157/strided_slice/stack_2", "op": "Const", "attr": {"dtype": {"type": "DT_INT32"}, "value": {"tensor": {"dtype": "DT_INT32", "tensorShape": {"dim": [{"size": "1"}]}}}}}, {"name": "StatefulPartitionedCall/model_13/decoder_4/decoder_layer_29/cross_attention_29/layer_normalization_157/Const", "op": "Const", "attr": {"value": {"tensor": {"dtype": "DT_INT32", "tensorShape": {"dim": [{"size": "1"}]}}}, "dtype": {"type": "DT_INT32"}}}, {"name": "StatefulPartitionedCall/model_13/decoder_4/decoder_layer_29/cross_attention_29/layer_normalization_157/zeros/Const", "op": "Const", "attr": {"value": {"tensor": {"dtype": "DT_FLOAT", "tensorShape": {}}}, "dtype": {"type": "DT_FLOAT"}}}, {"name": "StatefulPartitionedCall/model_13/decoder_4/decoder_layer_29/cross_attention_29/layer_normalization_157/Const_2", "op": "Const", "attr": {"dtype": {"type": "DT_FLOAT"}, "value": {"tensor": {"dtype": "DT_FLOAT", "tensorShape": {"dim": [{}]}}}}}, {"name": "StatefulPartitionedCall/model_13/decoder_4/decoder_layer_29/cross_attention_29/layer_normalization_157/Const_3", "op": "Const", "attr": {"dtype": {"type": "DT_FLOAT"}, "value": {"tensor": {"dtype": "DT_FLOAT", "tensorShape": {"dim": [{}]}}}}}, {"name": "StatefulPartitionedCall/model_13/decoder_4/decoder_layer_29/cross_attention_29/multi_head_attention_89/value/einsum/Einsum/ReadVariableOp", "op": "Const", "attr": {"dtype": {"type": "DT_FLOAT"}, "value": {"tensor": {"dtype": "DT_FLOAT", "tensorShape": {"dim": [{"size": "512"}, {"size": "8"}, {"size": "64"}]}}}}}, {"name": "StatefulPartitionedCall/model_13/decoder_4/decoder_layer_29/cross_attention_29/multi_head_attention_89/value/add/ReadVariableOp", "op": "Const", "attr": {"dtype": {"type": "DT_FLOAT"}, "value": {"tensor": {"dtype": "DT_FLOAT", "tensorShape": {"dim": [{"size": "8"}, {"size": "64"}]}}}}}, {"name": "StatefulPartitionedCall/model_13/decoder_4/decoder_layer_29/cross_attention_29/multi_head_attention_89/attention_output/einsum/Einsum/ReadVariableOp", "op": "Const", "attr": {"dtype": {"type": "DT_FLOAT"}, "value": {"tensor": {"dtype": "DT_FLOAT", "tensorShape": {"dim": [{"size": "8"}, {"size": "64"}, {"size": "512"}]}}}}}, {"name": "StatefulPartitionedCall/model_13/decoder_4/decoder_layer_29/cross_attention_29/multi_head_attention_89/attention_output/add/ReadVariableOp", "op": "Const", "attr": {"dtype": {"type": "DT_FLOAT"}, "value": {"tensor": {"dtype": "DT_FLOAT", "tensorShape": {"dim": [{"size": "512"}]}}}}}, {"name": "StatefulPartitionedCall/model_13/decoder_4/decoder_layer_29/cross_attention_29/layer_normalization_157/mul/ReadVariableOp", "op": "Const", "attr": {"dtype": {"type": "DT_FLOAT"}, "value": {"tensor": {"dtype": "DT_FLOAT", "tensorShape": {"dim": [{"size": "512"}]}}}}}, {"name": "StatefulPartitionedCall/model_13/decoder_4/decoder_layer_29/cross_attention_29/layer_normalization_157/add/ReadVariableOp", "op": "Const", "attr": {"dtype": {"type": "DT_FLOAT"}, "value": {"tensor": {"dtype": "DT_FLOAT", "tensorShape": {"dim": [{"size": "512"}]}}}}}, {"name": "StatefulPartitionedCall/model_13/decoder_4/decoder_layer_29/feed_forward_59/dense_123/Tensordot/free", "op": "Const", "attr": {"value": {"tensor": {"dtype": "DT_INT32", "tensorShape": {"dim": [{"size": "2"}]}}}, "dtype": {"type": "DT_INT32"}}}, {"name": "StatefulPartitionedCall/model_13/decoder_4/decoder_layer_29/feed_forward_59/dense_123/Tensordot/GatherV2/axis", "op": "Const", "attr": {"dtype": {"type": "DT_INT32"}, "value": {"tensor": {"dtype": "DT_INT32", "tensorShape": {}}}}}, {"name": "StatefulPartitionedCall/model_13/decoder_4/decoder_layer_29/feed_forward_59/dense_123/Tensordot/Const_2", "op": "Const", "attr": {"dtype": {"type": "DT_INT32"}, "value": {"tensor": {"dtype": "DT_INT32", "tensorShape": {"dim": [{"size": "1"}]}}}}}, {"name": "StatefulPartitionedCall/model_13/decoder_4/decoder_layer_29/feed_forward_59/dense_123/Tensordot/concat_1/axis", "op": "Const", "attr": {"dtype": {"type": "DT_INT32"}, "value": {"tensor": {"dtype": "DT_INT32", "tensorShape": {}}}}}, {"name": "StatefulPartitionedCall/model_13/decoder_4/decoder_layer_29/feed_forward_59/dense_123/BiasAdd/ReadVariableOp", "op": "Const", "attr": {"value": {"tensor": {"dtype": "DT_FLOAT", "tensorShape": {"dim": [{"size": "2048"}]}}}, "dtype": {"type": "DT_FLOAT"}}}, {"name": "StatefulPartitionedCall/model_13/decoder_4/decoder_layer_29/feed_forward_59/dense_124/Tensordot/free", "op": "Const", "attr": {"value": {"tensor": {"dtype": "DT_INT32", "tensorShape": {"dim": [{"size": "2"}]}}}, "dtype": {"type": "DT_INT32"}}}, {"name": "StatefulPartitionedCall/model_13/decoder_4/decoder_layer_29/feed_forward_59/dense_124/Tensordot/GatherV2/axis", "op": "Const", "attr": {"dtype": {"type": "DT_INT32"}, "value": {"tensor": {"dtype": "DT_INT32", "tensorShape": {}}}}}, {"name": "StatefulPartitionedCall/model_13/decoder_4/decoder_layer_29/feed_forward_59/dense_124/Tensordot/Const_2", "op": "Const", "attr": {"value": {"tensor": {"dtype": "DT_INT32", "tensorShape": {"dim": [{"size": "1"}]}}}, "dtype": {"type": "DT_INT32"}}}, {"name": "StatefulPartitionedCall/model_13/decoder_4/decoder_layer_29/feed_forward_59/dense_124/Tensordot/concat_1/axis", "op": "Const", "attr": {"value": {"tensor": {"dtype": "DT_INT32", "tensorShape": {}}}, "dtype": {"type": "DT_INT32"}}}, {"name": "StatefulPartitionedCall/model_13/decoder_4/decoder_layer_29/feed_forward_59/dense_124/BiasAdd/ReadVariableOp", "op": "Const", "attr": {"dtype": {"type": "DT_FLOAT"}, "value": {"tensor": {"dtype": "DT_FLOAT", "tensorShape": {"dim": [{"size": "512"}]}}}}}, {"name": "StatefulPartitionedCall/model_13/decoder_4/decoder_layer_29/feed_forward_59/Const", "op": "Const", "attr": {"dtype": {"type": "DT_FLOAT"}, "value": {"tensor": {"dtype": "DT_FLOAT", "tensorShape": {}}}}}, {"name": "StatefulPartitionedCall/model_13/decoder_4/layer_normalization_159/mul/ReadVariableOp", "op": "Const", "attr": {"value": {"tensor": {"dtype": "DT_FLOAT", "tensorShape": {"dim": [{"size": "512"}]}}}, "dtype": {"type": "DT_FLOAT"}}}, {"name": "StatefulPartitionedCall/model_13/decoder_4/layer_normalization_159/add/ReadVariableOp", "op": "Const", "attr": {"dtype": {"type": "DT_FLOAT"}, "value": {"tensor": {"dtype": "DT_FLOAT", "tensorShape": {"dim": [{"size": "512"}]}}}}}, {"name": "StatefulPartitionedCall/model_13/decoder_4/positional_embedding_4/reversible_embedding_4/transpose", "op": "Const", "attr": {"value": {"tensor": {"dtype": "DT_FLOAT", "tensorShape": {"dim": [{"size": "512"}, {"size": "12000"}]}}}, "dtype": {"type": "DT_FLOAT"}}}, {"name": "StatefulPartitionedCall/model_13/decoder_4/decoder_layer_29/cross_attention_29/multi_head_attention_89/key/einsum/Einsum/ReadVariableOp", "op": "Const", "attr": {"value": {"tensor": {"dtype": "DT_FLOAT", "tensorShape": {"dim": [{"size": "512"}, {"size": "8"}, {"size": "64"}]}}}, "dtype": {"type": "DT_FLOAT"}}}, {"name": "StatefulPartitionedCall/model_13/decoder_4/decoder_layer_29/cross_attention_29/multi_head_attention_89/key/add/ReadVariableOp", "op": "Const", "attr": {"value": {"tensor": {"dtype": "DT_FLOAT", "tensorShape": {"dim": [{"size": "8"}, {"size": "64"}]}}}, "dtype": {"type": "DT_FLOAT"}}}, {"name": "StatefulPartitionedCall/model_13/decoder_4/decoder_layer_29/causal_self_attention_29/layer_normalization_156/Reshape/shape/0", "op": "Const", "attr": {"dtype": {"type": "DT_INT32"}, "value": {"tensor": {"dtype": "DT_INT32", "tensorShape": {}}}}}, {"name": "StatefulPartitionedCall/model_13/decoder_4/decoder_layer_29/causal_self_attention_29/layer_normalization_156/strided_slice_1/stack", "op": "Const", "attr": {"dtype": {"type": "DT_INT32"}, "value": {"tensor": {"dtype": "DT_INT32", "tensorShape": {"dim": [{"size": "1"}]}}}}}, {"name": "StatefulPartitionedCall/model_13/decoder_4/decoder_layer_29/causal_self_attention_29/layer_normalization_156/strided_slice_1/stack_1", "op": "Const", "attr": {"value": {"tensor": {"dtype": "DT_INT32", "tensorShape": {"dim": [{"size": "1"}]}}}, "dtype": {"type": "DT_INT32"}}}, {"name": "StatefulPartitionedCall/model_13/decoder_4/decoder_layer_29/causal_self_attention_29/layer_normalization_156/strided_slice_1/stack_2", "op": "Const", "attr": {"dtype": {"type": "DT_INT32"}, "value": {"tensor": {"dtype": "DT_INT32", "tensorShape": {"dim": [{"size": "1"}]}}}}}, {"name": "StatefulPartitionedCall/model_13/decoder_4/decoder_layer_29/causal_self_attention_29/layer_normalization_156/Const_1", "op": "Const", "attr": {"dtype": {"type": "DT_INT32"}, "value": {"tensor": {"dtype": "DT_INT32", "tensorShape": {"dim": [{"size": "1"}]}}}}}, {"name": "StatefulPartitionedCall/model_13/decoder_4/decoder_layer_29/causal_self_attention_29/layer_normalization_156/Reshape/shape/3", "op": "Const", "attr": {"value": {"tensor": {"dtype": "DT_INT32", "tensorShape": {}}}, "dtype": {"type": "DT_INT32"}}}, {"name": "StatefulPartitionedCall/model_13/decoder_4/decoder_layer_29/causal_self_attention_29/layer_normalization_156/ones/Const", "op": "Const", "attr": {"value": {"tensor": {"dtype": "DT_FLOAT", "tensorShape": {}}}, "dtype": {"type": "DT_FLOAT"}}}, {"name": "StatefulPartitionedCall/model_13/decoder_4/decoder_layer_29/causal_self_attention_29/layer_normalization_156/strided_slice/stack", "op": "Const", "attr": {"value": {"tensor": {"dtype": "DT_INT32", "tensorShape": {"dim": [{"size": "1"}]}}}, "dtype": {"type": "DT_INT32"}}}, {"name": "StatefulPartitionedCall/model_13/decoder_4/decoder_layer_29/causal_self_attention_29/layer_normalization_156/strided_slice/stack_1", "op": "Const", "attr": {"dtype": {"type": "DT_INT32"}, "value": {"tensor": {"dtype": "DT_INT32", "tensorShape": {"dim": [{"size": "1"}]}}}}}, {"name": "StatefulPartitionedCall/model_13/decoder_4/decoder_layer_29/causal_self_attention_29/layer_normalization_156/strided_slice/stack_2", "op": "Const", "attr": {"value": {"tensor": {"dtype": "DT_INT32", "tensorShape": {"dim": [{"size": "1"}]}}}, "dtype": {"type": "DT_INT32"}}}, {"name": "StatefulPartitionedCall/model_13/decoder_4/decoder_layer_29/causal_self_attention_29/layer_normalization_156/Const", "op": "Const", "attr": {"dtype": {"type": "DT_INT32"}, "value": {"tensor": {"dtype": "DT_INT32", "tensorShape": {"dim": [{"size": "1"}]}}}}}, {"name": "StatefulPartitionedCall/model_13/decoder_4/decoder_layer_29/causal_self_attention_29/layer_normalization_156/zeros/Const", "op": "Const", "attr": {"dtype": {"type": "DT_FLOAT"}, "value": {"tensor": {"dtype": "DT_FLOAT", "tensorShape": {}}}}}, {"name": "StatefulPartitionedCall/model_13/decoder_4/decoder_layer_29/causal_self_attention_29/layer_normalization_156/Const_2", "op": "Const", "attr": {"dtype": {"type": "DT_FLOAT"}, "value": {"tensor": {"dtype": "DT_FLOAT", "tensorShape": {"dim": [{}]}}}}}, {"name": "StatefulPartitionedCall/model_13/decoder_4/decoder_layer_29/causal_self_attention_29/layer_normalization_156/Const_3", "op": "Const", "attr": {"value": {"tensor": {"dtype": "DT_FLOAT", "tensorShape": {"dim": [{}]}}}, "dtype": {"type": "DT_FLOAT"}}}, {"name": "StatefulPartitionedCall/model_13/decoder_4/decoder_layer_29/causal_self_attention_29/multi_head_attention_88/key/einsum/Einsum/ReadVariableOp", "op": "Const", "attr": {"value": {"tensor": {"dtype": "DT_FLOAT", "tensorShape": {"dim": [{"size": "512"}, {"size": "8"}, {"size": "64"}]}}}, "dtype": {"type": "DT_FLOAT"}}}, {"name": "StatefulPartitionedCall/model_13/decoder_4/decoder_layer_29/causal_self_attention_29/multi_head_attention_88/key/add/ReadVariableOp", "op": "Const", "attr": {"value": {"tensor": {"dtype": "DT_FLOAT", "tensorShape": {"dim": [{"size": "8"}, {"size": "64"}]}}}, "dtype": {"type": "DT_FLOAT"}}}, {"name": "StatefulPartitionedCall/model_13/decoder_4/decoder_layer_29/causal_self_attention_29/multi_head_attention_88/query/einsum/Einsum/ReadVariableOp", "op": "Const", "attr": {"dtype": {"type": "DT_FLOAT"}, "value": {"tensor": {"dtype": "DT_FLOAT", "tensorShape": {"dim": [{"size": "512"}, {"size": "8"}, {"size": "64"}]}}}}}, {"name": "StatefulPartitionedCall/model_13/decoder_4/decoder_layer_29/causal_self_attention_29/multi_head_attention_88/query/add/ReadVariableOp", "op": "Const", "attr": {"value": {"tensor": {"dtype": "DT_FLOAT", "tensorShape": {"dim": [{"size": "8"}, {"size": "64"}]}}}, "dtype": {"type": "DT_FLOAT"}}}, {"name": "StatefulPartitionedCall/model_13/decoder_4/decoder_layer_29/causal_self_attention_29/multi_head_attention_88/Mul/y", "op": "Const", "attr": {"value": {"tensor": {"dtype": "DT_FLOAT", "tensorShape": {}}}, "dtype": {"type": "DT_FLOAT"}}}, {"name": "StatefulPartitionedCall/model_13/decoder_4/decoder_layer_29/causal_self_attention_29/multi_head_attention_88/softmax_142/sub/x", "op": "Const", "attr": {"value": {"tensor": {"dtype": "DT_FLOAT", "tensorShape": {}}}, "dtype": {"type": "DT_FLOAT"}}}, {"name": "StatefulPartitionedCall/model_13/decoder_4/decoder_layer_29/causal_self_attention_29/multi_head_attention_88/strided_slice/stack", "op": "Const", "attr": {"value": {"tensor": {"dtype": "DT_INT32", "tensorShape": {"dim": [{"size": "3"}]}}}, "dtype": {"type": "DT_INT32"}}}, {"name": "StatefulPartitionedCall/model_13/decoder_4/decoder_layer_29/causal_self_attention_29/multi_head_attention_88/strided_slice/stack_1", "op": "Const", "attr": {"value": {"tensor": {"dtype": "DT_INT32", "tensorShape": {"dim": [{"size": "3"}]}}}, "dtype": {"type": "DT_INT32"}}}, {"name": "StatefulPartitionedCall/model_13/decoder_4/decoder_layer_29/causal_self_attention_29/multi_head_attention_88/strided_slice/stack_2", "op": "Const", "attr": {"value": {"tensor": {"dtype": "DT_INT32", "tensorShape": {"dim": [{"size": "3"}]}}}, "dtype": {"type": "DT_INT32"}}}, {"name": "StatefulPartitionedCall/model_13/decoder_4/decoder_layer_29/causal_self_attention_29/multi_head_attention_88/strided_slice_1/stack", "op": "Const", "attr": {"value": {"tensor": {"dtype": "DT_INT32", "tensorShape": {"dim": [{"size": "3"}]}}}, "dtype": {"type": "DT_INT32"}}}, {"name": "StatefulPartitionedCall/model_13/decoder_4/decoder_layer_29/causal_self_attention_29/multi_head_attention_88/strided_slice_1/stack_1", "op": "Const", "attr": {"dtype": {"type": "DT_INT32"}, "value": {"tensor": {"dtype": "DT_INT32", "tensorShape": {"dim": [{"size": "3"}]}}}}}, {"name": "StatefulPartitionedCall/model_13/decoder_4/decoder_layer_29/causal_self_attention_29/multi_head_attention_88/strided_slice_1/stack_2", "op": "Const", "attr": {"value": {"tensor": {"dtype": "DT_INT32", "tensorShape": {"dim": [{"size": "3"}]}}}, "dtype": {"type": "DT_INT32"}}}, {"name": "StatefulPartitionedCall/model_13/decoder_4/decoder_layer_29/causal_self_attention_29/multi_head_attention_88/strided_slice_2/stack", "op": "Const", "attr": {"value": {"tensor": {"dtype": "DT_INT32", "tensorShape": {"dim": [{"size": "3"}]}}}, "dtype": {"type": "DT_INT32"}}}, {"name": "StatefulPartitionedCall/model_13/decoder_4/decoder_layer_29/causal_self_attention_29/multi_head_attention_88/strided_slice_2/stack_1", "op": "Const", "attr": {"value": {"tensor": {"dtype": "DT_INT32", "tensorShape": {"dim": [{"size": "3"}]}}}, "dtype": {"type": "DT_INT32"}}}, {"name": "StatefulPartitionedCall/model_13/decoder_4/decoder_layer_29/causal_self_attention_29/multi_head_attention_88/strided_slice_2/stack_2", "op": "Const", "attr": {"dtype": {"type": "DT_INT32"}, "value": {"tensor": {"dtype": "DT_INT32", "tensorShape": {"dim": [{"size": "3"}]}}}}}, {"name": "StatefulPartitionedCall/model_13/decoder_4/decoder_layer_29/causal_self_attention_29/multi_head_attention_88/ones/packed/0", "op": "Const", "attr": {"value": {"tensor": {"dtype": "DT_INT32", "tensorShape": {}}}, "dtype": {"type": "DT_INT32"}}}, {"name": "StatefulPartitionedCall/model_13/decoder_4/decoder_layer_29/causal_self_attention_29/multi_head_attention_88/strided_slice_3/stack", "op": "Const", "attr": {"value": {"tensor": {"dtype": "DT_INT32", "tensorShape": {"dim": [{"size": "1"}]}}}, "dtype": {"type": "DT_INT32"}}}, {"name": "StatefulPartitionedCall/model_13/decoder_4/decoder_layer_29/causal_self_attention_29/multi_head_attention_88/strided_slice_3/stack_1", "op": "Const", "attr": {"value": {"tensor": {"dtype": "DT_INT32", "tensorShape": {"dim": [{"size": "1"}]}}}, "dtype": {"type": "DT_INT32"}}}, {"name": "StatefulPartitionedCall/model_13/decoder_4/decoder_layer_29/causal_self_attention_29/multi_head_attention_88/strided_slice_3/stack_2", "op": "Const", "attr": {"dtype": {"type": "DT_INT32"}, "value": {"tensor": {"dtype": "DT_INT32", "tensorShape": {"dim": [{"size": "1"}]}}}}}, {"name": "StatefulPartitionedCall/model_13/decoder_4/decoder_layer_29/causal_self_attention_29/multi_head_attention_88/strided_slice_4/stack", "op": "Const", "attr": {"value": {"tensor": {"dtype": "DT_INT32", "tensorShape": {"dim": [{"size": "1"}]}}}, "dtype": {"type": "DT_INT32"}}}, {"name": "StatefulPartitionedCall/model_13/decoder_4/decoder_layer_29/causal_self_attention_29/multi_head_attention_88/strided_slice_4/stack_1", "op": "Const", "attr": {"value": {"tensor": {"dtype": "DT_INT32", "tensorShape": {"dim": [{"size": "1"}]}}}, "dtype": {"type": "DT_INT32"}}}, {"name": "StatefulPartitionedCall/model_13/decoder_4/decoder_layer_29/causal_self_attention_29/multi_head_attention_88/strided_slice_4/stack_2", "op": "Const", "attr": {"value": {"tensor": {"dtype": "DT_INT32", "tensorShape": {"dim": [{"size": "1"}]}}}, "dtype": {"type": "DT_INT32"}}}, {"name": "StatefulPartitionedCall/model_13/decoder_4/decoder_layer_29/causal_self_attention_29/multi_head_attention_88/ones/Const", "op": "Const", "attr": {"dtype": {"type": "DT_BOOL"}, "value": {"tensor": {"dtype": "DT_BOOL", "tensorShape": {}}}}}, {"name": "StatefulPartitionedCall/model_13/decoder_4/decoder_layer_29/causal_self_attention_29/multi_head_attention_88/MatrixBandPart/num_lower", "op": "Const", "attr": {"value": {"tensor": {"dtype": "DT_INT32", "tensorShape": {}}}, "dtype": {"type": "DT_INT32"}}}, {"name": "StatefulPartitionedCall/model_13/decoder_4/decoder_layer_29/causal_self_attention_29/multi_head_attention_88/MatrixBandPart/num_upper", "op": "Const", "attr": {"dtype": {"type": "DT_INT32"}, "value": {"tensor": {"dtype": "DT_INT32", "tensorShape": {}}}}}, {"name": "StatefulPartitionedCall/model_13/decoder_4/decoder_layer_29/causal_self_attention_29/multi_head_attention_88/ExpandDims/dim", "op": "Const", "attr": {"value": {"tensor": {"dtype": "DT_INT32", "tensorShape": {}}}, "dtype": {"type": "DT_INT32"}}}, {"name": "StatefulPartitionedCall/model_13/decoder_4/decoder_layer_29/causal_self_attention_29/multi_head_attention_88/softmax_142/mul/y", "op": "Const", "attr": {"dtype": {"type": "DT_FLOAT"}, "value": {"tensor": {"dtype": "DT_FLOAT", "tensorShape": {}}}}}, {"name": "StatefulPartitionedCall/model_13/decoder_4/decoder_layer_28/feed_forward_58/layer_normalization_155/Reshape/shape/0", "op": "Const", "attr": {"dtype": {"type": "DT_INT32"}, "value": {"tensor": {"dtype": "DT_INT32", "tensorShape": {}}}}}, {"name": "StatefulPartitionedCall/model_13/decoder_4/decoder_layer_28/feed_forward_58/layer_normalization_155/strided_slice_1/stack", "op": "Const", "attr": {"dtype": {"type": "DT_INT32"}, "value": {"tensor": {"dtype": "DT_INT32", "tensorShape": {"dim": [{"size": "1"}]}}}}}, {"name": "StatefulPartitionedCall/model_13/decoder_4/decoder_layer_28/feed_forward_58/layer_normalization_155/strided_slice_1/stack_1", "op": "Const", "attr": {"dtype": {"type": "DT_INT32"}, "value": {"tensor": {"dtype": "DT_INT32", "tensorShape": {"dim": [{"size": "1"}]}}}}}, {"name": "StatefulPartitionedCall/model_13/decoder_4/decoder_layer_28/feed_forward_58/layer_normalization_155/strided_slice_1/stack_2", "op": "Const", "attr": {"dtype": {"type": "DT_INT32"}, "value": {"tensor": {"dtype": "DT_INT32", "tensorShape": {"dim": [{"size": "1"}]}}}}}, {"name": "StatefulPartitionedCall/model_13/decoder_4/decoder_layer_28/feed_forward_58/layer_normalization_155/Const_1", "op": "Const", "attr": {"dtype": {"type": "DT_INT32"}, "value": {"tensor": {"dtype": "DT_INT32", "tensorShape": {"dim": [{"size": "1"}]}}}}}, {"name": "StatefulPartitionedCall/model_13/decoder_4/decoder_layer_28/feed_forward_58/layer_normalization_155/Reshape/shape/3", "op": "Const", "attr": {"value": {"tensor": {"dtype": "DT_INT32", "tensorShape": {}}}, "dtype": {"type": "DT_INT32"}}}, {"name": "StatefulPartitionedCall/model_13/decoder_4/decoder_layer_28/feed_forward_58/layer_normalization_155/ones/Const", "op": "Const", "attr": {"dtype": {"type": "DT_FLOAT"}, "value": {"tensor": {"dtype": "DT_FLOAT", "tensorShape": {}}}}}, {"name": "StatefulPartitionedCall/model_13/decoder_4/decoder_layer_28/feed_forward_58/layer_normalization_155/strided_slice/stack", "op": "Const", "attr": {"dtype": {"type": "DT_INT32"}, "value": {"tensor": {"dtype": "DT_INT32", "tensorShape": {"dim": [{"size": "1"}]}}}}}, {"name": "StatefulPartitionedCall/model_13/decoder_4/decoder_layer_28/feed_forward_58/layer_normalization_155/strided_slice/stack_1", "op": "Const", "attr": {"value": {"tensor": {"dtype": "DT_INT32", "tensorShape": {"dim": [{"size": "1"}]}}}, "dtype": {"type": "DT_INT32"}}}, {"name": "StatefulPartitionedCall/model_13/decoder_4/decoder_layer_28/feed_forward_58/layer_normalization_155/strided_slice/stack_2", "op": "Const", "attr": {"dtype": {"type": "DT_INT32"}, "value": {"tensor": {"dtype": "DT_INT32", "tensorShape": {"dim": [{"size": "1"}]}}}}}, {"name": "StatefulPartitionedCall/model_13/decoder_4/decoder_layer_28/feed_forward_58/layer_normalization_155/Const", "op": "Const", "attr": {"dtype": {"type": "DT_INT32"}, "value": {"tensor": {"dtype": "DT_INT32", "tensorShape": {"dim": [{"size": "1"}]}}}}}, {"name": "StatefulPartitionedCall/model_13/decoder_4/decoder_layer_28/feed_forward_58/layer_normalization_155/zeros/Const", "op": "Const", "attr": {"value": {"tensor": {"dtype": "DT_FLOAT", "tensorShape": {}}}, "dtype": {"type": "DT_FLOAT"}}}, {"name": "StatefulPartitionedCall/model_13/decoder_4/decoder_layer_28/feed_forward_58/layer_normalization_155/Const_2", "op": "Const", "attr": {"value": {"tensor": {"dtype": "DT_FLOAT", "tensorShape": {"dim": [{}]}}}, "dtype": {"type": "DT_FLOAT"}}}, {"name": "StatefulPartitionedCall/model_13/decoder_4/decoder_layer_28/feed_forward_58/layer_normalization_155/Const_3", "op": "Const", "attr": {"dtype": {"type": "DT_FLOAT"}, "value": {"tensor": {"dtype": "DT_FLOAT", "tensorShape": {"dim": [{}]}}}}}, {"name": "StatefulPartitionedCall/model_13/decoder_4/decoder_layer_28/feed_forward_58/dense_122/Tensordot/Const", "op": "Const", "attr": {"dtype": {"type": "DT_INT32"}, "value": {"tensor": {"dtype": "DT_INT32", "tensorShape": {"dim": [{"size": "1"}]}}}}}, {"name": "StatefulPartitionedCall/model_13/decoder_4/decoder_layer_28/feed_forward_58/dense_122/Tensordot/axes", "op": "Const", "attr": {"value": {"tensor": {"dtype": "DT_INT32", "tensorShape": {"dim": [{"size": "1"}]}}}, "dtype": {"type": "DT_INT32"}}}, {"name": "StatefulPartitionedCall/model_13/decoder_4/decoder_layer_28/feed_forward_58/dense_122/Tensordot/GatherV2_1/axis", "op": "Const", "attr": {"dtype": {"type": "DT_INT32"}, "value": {"tensor": {"dtype": "DT_INT32", "tensorShape": {}}}}}, {"name": "StatefulPartitionedCall/model_13/decoder_4/decoder_layer_28/feed_forward_58/dense_122/Tensordot/Const_1", "op": "Const", "attr": {"value": {"tensor": {"dtype": "DT_INT32", "tensorShape": {"dim": [{"size": "1"}]}}}, "dtype": {"type": "DT_INT32"}}}, {"name": "StatefulPartitionedCall/model_13/decoder_4/decoder_layer_28/feed_forward_58/dense_122/Tensordot/ReadVariableOp", "op": "Const", "attr": {"dtype": {"type": "DT_FLOAT"}, "value": {"tensor": {"dtype": "DT_FLOAT", "tensorShape": {"dim": [{"size": "2048"}, {"size": "512"}]}}}}}, {"name": "StatefulPartitionedCall/model_13/decoder_4/decoder_layer_28/feed_forward_58/dense_121/Tensordot/Const", "op": "Const", "attr": {"dtype": {"type": "DT_INT32"}, "value": {"tensor": {"dtype": "DT_INT32", "tensorShape": {"dim": [{"size": "1"}]}}}}}, {"name": "StatefulPartitionedCall/model_13/decoder_4/decoder_layer_28/feed_forward_58/dense_121/Tensordot/axes", "op": "Const", "attr": {"value": {"tensor": {"dtype": "DT_INT32", "tensorShape": {"dim": [{"size": "1"}]}}}, "dtype": {"type": "DT_INT32"}}}, {"name": "StatefulPartitionedCall/model_13/decoder_4/decoder_layer_28/feed_forward_58/dense_121/Tensordot/GatherV2_1/axis", "op": "Const", "attr": {"value": {"tensor": {"dtype": "DT_INT32", "tensorShape": {}}}, "dtype": {"type": "DT_INT32"}}}, {"name": "StatefulPartitionedCall/model_13/decoder_4/decoder_layer_28/feed_forward_58/dense_121/Tensordot/Const_1", "op": "Const", "attr": {"value": {"tensor": {"dtype": "DT_INT32", "tensorShape": {"dim": [{"size": "1"}]}}}, "dtype": {"type": "DT_INT32"}}}, {"name": "StatefulPartitionedCall/model_13/decoder_4/decoder_layer_28/feed_forward_58/dense_121/Tensordot/ReadVariableOp", "op": "Const", "attr": {"dtype": {"type": "DT_FLOAT"}, "value": {"tensor": {"dtype": "DT_FLOAT", "tensorShape": {"dim": [{"size": "512"}, {"size": "2048"}]}}}}}, {"name": "StatefulPartitionedCall/model_13/decoder_4/decoder_layer_28/cross_attention_28/layer_normalization_154/Reshape/shape/0", "op": "Const", "attr": {"dtype": {"type": "DT_INT32"}, "value": {"tensor": {"dtype": "DT_INT32", "tensorShape": {}}}}}, {"name": "StatefulPartitionedCall/model_13/decoder_4/decoder_layer_28/cross_attention_28/layer_normalization_154/strided_slice_1/stack", "op": "Const", "attr": {"dtype": {"type": "DT_INT32"}, "value": {"tensor": {"dtype": "DT_INT32", "tensorShape": {"dim": [{"size": "1"}]}}}}}, {"name": "StatefulPartitionedCall/model_13/decoder_4/decoder_layer_28/cross_attention_28/layer_normalization_154/strided_slice_1/stack_1", "op": "Const", "attr": {"dtype": {"type": "DT_INT32"}, "value": {"tensor": {"dtype": "DT_INT32", "tensorShape": {"dim": [{"size": "1"}]}}}}}, {"name": "StatefulPartitionedCall/model_13/decoder_4/decoder_layer_28/cross_attention_28/layer_normalization_154/strided_slice_1/stack_2", "op": "Const", "attr": {"value": {"tensor": {"dtype": "DT_INT32", "tensorShape": {"dim": [{"size": "1"}]}}}, "dtype": {"type": "DT_INT32"}}}, {"name": "StatefulPartitionedCall/model_13/decoder_4/decoder_layer_28/cross_attention_28/layer_normalization_154/Const_1", "op": "Const", "attr": {"value": {"tensor": {"dtype": "DT_INT32", "tensorShape": {"dim": [{"size": "1"}]}}}, "dtype": {"type": "DT_INT32"}}}, {"name": "StatefulPartitionedCall/model_13/decoder_4/decoder_layer_28/cross_attention_28/layer_normalization_154/Reshape/shape/3", "op": "Const", "attr": {"dtype": {"type": "DT_INT32"}, "value": {"tensor": {"dtype": "DT_INT32", "tensorShape": {}}}}}, {"name": "StatefulPartitionedCall/model_13/decoder_4/decoder_layer_28/cross_attention_28/layer_normalization_154/ones/Const", "op": "Const", "attr": {"value": {"tensor": {"dtype": "DT_FLOAT", "tensorShape": {}}}, "dtype": {"type": "DT_FLOAT"}}}, {"name": "StatefulPartitionedCall/model_13/decoder_4/decoder_layer_28/cross_attention_28/layer_normalization_154/strided_slice/stack", "op": "Const", "attr": {"value": {"tensor": {"dtype": "DT_INT32", "tensorShape": {"dim": [{"size": "1"}]}}}, "dtype": {"type": "DT_INT32"}}}, {"name": "StatefulPartitionedCall/model_13/decoder_4/decoder_layer_28/cross_attention_28/layer_normalization_154/strided_slice/stack_1", "op": "Const", "attr": {"dtype": {"type": "DT_INT32"}, "value": {"tensor": {"dtype": "DT_INT32", "tensorShape": {"dim": [{"size": "1"}]}}}}}, {"name": "StatefulPartitionedCall/model_13/decoder_4/decoder_layer_28/cross_attention_28/layer_normalization_154/strided_slice/stack_2", "op": "Const", "attr": {"dtype": {"type": "DT_INT32"}, "value": {"tensor": {"dtype": "DT_INT32", "tensorShape": {"dim": [{"size": "1"}]}}}}}, {"name": "StatefulPartitionedCall/model_13/decoder_4/decoder_layer_28/cross_attention_28/layer_normalization_154/Const", "op": "Const", "attr": {"dtype": {"type": "DT_INT32"}, "value": {"tensor": {"dtype": "DT_INT32", "tensorShape": {"dim": [{"size": "1"}]}}}}}, {"name": "StatefulPartitionedCall/model_13/decoder_4/decoder_layer_28/cross_attention_28/layer_normalization_154/zeros/Const", "op": "Const", "attr": {"dtype": {"type": "DT_FLOAT"}, "value": {"tensor": {"dtype": "DT_FLOAT", "tensorShape": {}}}}}, {"name": "StatefulPartitionedCall/model_13/decoder_4/decoder_layer_28/cross_attention_28/layer_normalization_154/Const_2", "op": "Const", "attr": {"value": {"tensor": {"dtype": "DT_FLOAT", "tensorShape": {"dim": [{}]}}}, "dtype": {"type": "DT_FLOAT"}}}, {"name": "StatefulPartitionedCall/model_13/decoder_4/decoder_layer_28/cross_attention_28/layer_normalization_154/Const_3", "op": "Const", "attr": {"dtype": {"type": "DT_FLOAT"}, "value": {"tensor": {"dtype": "DT_FLOAT", "tensorShape": {"dim": [{}]}}}}}, {"name": "StatefulPartitionedCall/model_13/decoder_4/decoder_layer_28/cross_attention_28/multi_head_attention_87/key/einsum/Einsum/ReadVariableOp", "op": "Const", "attr": {"value": {"tensor": {"dtype": "DT_FLOAT", "tensorShape": {"dim": [{"size": "512"}, {"size": "8"}, {"size": "64"}]}}}, "dtype": {"type": "DT_FLOAT"}}}, {"name": "StatefulPartitionedCall/model_13/decoder_4/decoder_layer_28/cross_attention_28/multi_head_attention_87/key/add/ReadVariableOp", "op": "Const", "attr": {"value": {"tensor": {"dtype": "DT_FLOAT", "tensorShape": {"dim": [{"size": "8"}, {"size": "64"}]}}}, "dtype": {"type": "DT_FLOAT"}}}, {"name": "StatefulPartitionedCall/model_13/decoder_4/decoder_layer_28/causal_self_attention_28/layer_normalization_153/Reshape/shape/0", "op": "Const", "attr": {"dtype": {"type": "DT_INT32"}, "value": {"tensor": {"dtype": "DT_INT32", "tensorShape": {}}}}}, {"name": "StatefulPartitionedCall/model_13/decoder_4/decoder_layer_28/causal_self_attention_28/layer_normalization_153/strided_slice_1/stack", "op": "Const", "attr": {"value": {"tensor": {"dtype": "DT_INT32", "tensorShape": {"dim": [{"size": "1"}]}}}, "dtype": {"type": "DT_INT32"}}}, {"name": "StatefulPartitionedCall/model_13/decoder_4/decoder_layer_28/causal_self_attention_28/layer_normalization_153/strided_slice_1/stack_1", "op": "Const", "attr": {"dtype": {"type": "DT_INT32"}, "value": {"tensor": {"dtype": "DT_INT32", "tensorShape": {"dim": [{"size": "1"}]}}}}}, {"name": "StatefulPartitionedCall/model_13/decoder_4/decoder_layer_28/causal_self_attention_28/layer_normalization_153/strided_slice_1/stack_2", "op": "Const", "attr": {"value": {"tensor": {"dtype": "DT_INT32", "tensorShape": {"dim": [{"size": "1"}]}}}, "dtype": {"type": "DT_INT32"}}}, {"name": "StatefulPartitionedCall/model_13/decoder_4/decoder_layer_28/causal_self_attention_28/layer_normalization_153/Const_1", "op": "Const", "attr": {"dtype": {"type": "DT_INT32"}, "value": {"tensor": {"dtype": "DT_INT32", "tensorShape": {"dim": [{"size": "1"}]}}}}}, {"name": "StatefulPartitionedCall/model_13/decoder_4/decoder_layer_28/causal_self_attention_28/layer_normalization_153/Reshape/shape/3", "op": "Const", "attr": {"value": {"tensor": {"dtype": "DT_INT32", "tensorShape": {}}}, "dtype": {"type": "DT_INT32"}}}, {"name": "StatefulPartitionedCall/model_13/decoder_4/decoder_layer_28/causal_self_attention_28/layer_normalization_153/ones/Const", "op": "Const", "attr": {"dtype": {"type": "DT_FLOAT"}, "value": {"tensor": {"dtype": "DT_FLOAT", "tensorShape": {}}}}}, {"name": "StatefulPartitionedCall/model_13/decoder_4/decoder_layer_28/causal_self_attention_28/layer_normalization_153/strided_slice/stack", "op": "Const", "attr": {"value": {"tensor": {"dtype": "DT_INT32", "tensorShape": {"dim": [{"size": "1"}]}}}, "dtype": {"type": "DT_INT32"}}}, {"name": "StatefulPartitionedCall/model_13/decoder_4/decoder_layer_28/causal_self_attention_28/layer_normalization_153/strided_slice/stack_1", "op": "Const", "attr": {"dtype": {"type": "DT_INT32"}, "value": {"tensor": {"dtype": "DT_INT32", "tensorShape": {"dim": [{"size": "1"}]}}}}}, {"name": "StatefulPartitionedCall/model_13/decoder_4/decoder_layer_28/causal_self_attention_28/layer_normalization_153/strided_slice/stack_2", "op": "Const", "attr": {"value": {"tensor": {"dtype": "DT_INT32", "tensorShape": {"dim": [{"size": "1"}]}}}, "dtype": {"type": "DT_INT32"}}}, {"name": "StatefulPartitionedCall/model_13/decoder_4/decoder_layer_28/causal_self_attention_28/layer_normalization_153/Const", "op": "Const", "attr": {"dtype": {"type": "DT_INT32"}, "value": {"tensor": {"dtype": "DT_INT32", "tensorShape": {"dim": [{"size": "1"}]}}}}}, {"name": "StatefulPartitionedCall/model_13/decoder_4/decoder_layer_28/causal_self_attention_28/layer_normalization_153/zeros/Const", "op": "Const", "attr": {"value": {"tensor": {"dtype": "DT_FLOAT", "tensorShape": {}}}, "dtype": {"type": "DT_FLOAT"}}}, {"name": "StatefulPartitionedCall/model_13/decoder_4/decoder_layer_28/causal_self_attention_28/layer_normalization_153/Const_2", "op": "Const", "attr": {"dtype": {"type": "DT_FLOAT"}, "value": {"tensor": {"dtype": "DT_FLOAT", "tensorShape": {"dim": [{}]}}}}}, {"name": "StatefulPartitionedCall/model_13/decoder_4/decoder_layer_28/causal_self_attention_28/layer_normalization_153/Const_3", "op": "Const", "attr": {"dtype": {"type": "DT_FLOAT"}, "value": {"tensor": {"dtype": "DT_FLOAT", "tensorShape": {"dim": [{}]}}}}}, {"name": "StatefulPartitionedCall/model_13/decoder_4/decoder_layer_28/causal_self_attention_28/multi_head_attention_86/key/einsum/Einsum/ReadVariableOp", "op": "Const", "attr": {"value": {"tensor": {"dtype": "DT_FLOAT", "tensorShape": {"dim": [{"size": "512"}, {"size": "8"}, {"size": "64"}]}}}, "dtype": {"type": "DT_FLOAT"}}}, {"name": "StatefulPartitionedCall/model_13/decoder_4/decoder_layer_28/causal_self_attention_28/multi_head_attention_86/key/add/ReadVariableOp", "op": "Const", "attr": {"value": {"tensor": {"dtype": "DT_FLOAT", "tensorShape": {"dim": [{"size": "8"}, {"size": "64"}]}}}, "dtype": {"type": "DT_FLOAT"}}}, {"name": "StatefulPartitionedCall/model_13/decoder_4/decoder_layer_28/causal_self_attention_28/multi_head_attention_86/query/einsum/Einsum/ReadVariableOp", "op": "Const", "attr": {"dtype": {"type": "DT_FLOAT"}, "value": {"tensor": {"dtype": "DT_FLOAT", "tensorShape": {"dim": [{"size": "512"}, {"size": "8"}, {"size": "64"}]}}}}}, {"name": "StatefulPartitionedCall/model_13/decoder_4/decoder_layer_28/causal_self_attention_28/multi_head_attention_86/query/add/ReadVariableOp", "op": "Const", "attr": {"dtype": {"type": "DT_FLOAT"}, "value": {"tensor": {"dtype": "DT_FLOAT", "tensorShape": {"dim": [{"size": "8"}, {"size": "64"}]}}}}}, {"name": "StatefulPartitionedCall/model_13/decoder_4/decoder_layer_28/causal_self_attention_28/multi_head_attention_86/Mul/y", "op": "Const", "attr": {"value": {"tensor": {"dtype": "DT_FLOAT", "tensorShape": {}}}, "dtype": {"type": "DT_FLOAT"}}}, {"name": "StatefulPartitionedCall/model_13/decoder_4/decoder_layer_28/causal_self_attention_28/multi_head_attention_86/softmax_140/sub/x", "op": "Const", "attr": {"value": {"tensor": {"dtype": "DT_FLOAT", "tensorShape": {}}}, "dtype": {"type": "DT_FLOAT"}}}, {"name": "StatefulPartitionedCall/model_13/decoder_4/decoder_layer_28/causal_self_attention_28/multi_head_attention_86/strided_slice/stack", "op": "Const", "attr": {"dtype": {"type": "DT_INT32"}, "value": {"tensor": {"dtype": "DT_INT32", "tensorShape": {"dim": [{"size": "3"}]}}}}}, {"name": "StatefulPartitionedCall/model_13/decoder_4/decoder_layer_28/causal_self_attention_28/multi_head_attention_86/strided_slice/stack_1", "op": "Const", "attr": {"value": {"tensor": {"dtype": "DT_INT32", "tensorShape": {"dim": [{"size": "3"}]}}}, "dtype": {"type": "DT_INT32"}}}, {"name": "StatefulPartitionedCall/model_13/decoder_4/decoder_layer_28/causal_self_attention_28/multi_head_attention_86/strided_slice/stack_2", "op": "Const", "attr": {"value": {"tensor": {"dtype": "DT_INT32", "tensorShape": {"dim": [{"size": "3"}]}}}, "dtype": {"type": "DT_INT32"}}}, {"name": "StatefulPartitionedCall/model_13/decoder_4/decoder_layer_28/causal_self_attention_28/multi_head_attention_86/strided_slice_1/stack", "op": "Const", "attr": {"value": {"tensor": {"dtype": "DT_INT32", "tensorShape": {"dim": [{"size": "3"}]}}}, "dtype": {"type": "DT_INT32"}}}, {"name": "StatefulPartitionedCall/model_13/decoder_4/decoder_layer_28/causal_self_attention_28/multi_head_attention_86/strided_slice_1/stack_1", "op": "Const", "attr": {"dtype": {"type": "DT_INT32"}, "value": {"tensor": {"dtype": "DT_INT32", "tensorShape": {"dim": [{"size": "3"}]}}}}}, {"name": "StatefulPartitionedCall/model_13/decoder_4/decoder_layer_28/causal_self_attention_28/multi_head_attention_86/strided_slice_1/stack_2", "op": "Const", "attr": {"dtype": {"type": "DT_INT32"}, "value": {"tensor": {"dtype": "DT_INT32", "tensorShape": {"dim": [{"size": "3"}]}}}}}, {"name": "StatefulPartitionedCall/model_13/decoder_4/decoder_layer_28/causal_self_attention_28/multi_head_attention_86/strided_slice_2/stack", "op": "Const", "attr": {"value": {"tensor": {"dtype": "DT_INT32", "tensorShape": {"dim": [{"size": "3"}]}}}, "dtype": {"type": "DT_INT32"}}}, {"name": "StatefulPartitionedCall/model_13/decoder_4/decoder_layer_28/causal_self_attention_28/multi_head_attention_86/strided_slice_2/stack_1", "op": "Const", "attr": {"dtype": {"type": "DT_INT32"}, "value": {"tensor": {"dtype": "DT_INT32", "tensorShape": {"dim": [{"size": "3"}]}}}}}, {"name": "StatefulPartitionedCall/model_13/decoder_4/decoder_layer_28/causal_self_attention_28/multi_head_attention_86/strided_slice_2/stack_2", "op": "Const", "attr": {"dtype": {"type": "DT_INT32"}, "value": {"tensor": {"dtype": "DT_INT32", "tensorShape": {"dim": [{"size": "3"}]}}}}}, {"name": "StatefulPartitionedCall/model_13/decoder_4/decoder_layer_28/causal_self_attention_28/multi_head_attention_86/ones/packed/0", "op": "Const", "attr": {"value": {"tensor": {"dtype": "DT_INT32", "tensorShape": {}}}, "dtype": {"type": "DT_INT32"}}}, {"name": "StatefulPartitionedCall/model_13/decoder_4/decoder_layer_28/causal_self_attention_28/multi_head_attention_86/strided_slice_3/stack", "op": "Const", "attr": {"dtype": {"type": "DT_INT32"}, "value": {"tensor": {"dtype": "DT_INT32", "tensorShape": {"dim": [{"size": "1"}]}}}}}, {"name": "StatefulPartitionedCall/model_13/decoder_4/decoder_layer_28/causal_self_attention_28/multi_head_attention_86/strided_slice_3/stack_1", "op": "Const", "attr": {"dtype": {"type": "DT_INT32"}, "value": {"tensor": {"dtype": "DT_INT32", "tensorShape": {"dim": [{"size": "1"}]}}}}}, {"name": "StatefulPartitionedCall/model_13/decoder_4/decoder_layer_28/causal_self_attention_28/multi_head_attention_86/strided_slice_3/stack_2", "op": "Const", "attr": {"dtype": {"type": "DT_INT32"}, "value": {"tensor": {"dtype": "DT_INT32", "tensorShape": {"dim": [{"size": "1"}]}}}}}, {"name": "StatefulPartitionedCall/model_13/decoder_4/decoder_layer_28/causal_self_attention_28/multi_head_attention_86/strided_slice_4/stack", "op": "Const", "attr": {"dtype": {"type": "DT_INT32"}, "value": {"tensor": {"dtype": "DT_INT32", "tensorShape": {"dim": [{"size": "1"}]}}}}}, {"name": "StatefulPartitionedCall/model_13/decoder_4/decoder_layer_28/causal_self_attention_28/multi_head_attention_86/strided_slice_4/stack_1", "op": "Const", "attr": {"value": {"tensor": {"dtype": "DT_INT32", "tensorShape": {"dim": [{"size": "1"}]}}}, "dtype": {"type": "DT_INT32"}}}, {"name": "StatefulPartitionedCall/model_13/decoder_4/decoder_layer_28/causal_self_attention_28/multi_head_attention_86/strided_slice_4/stack_2", "op": "Const", "attr": {"value": {"tensor": {"dtype": "DT_INT32", "tensorShape": {"dim": [{"size": "1"}]}}}, "dtype": {"type": "DT_INT32"}}}, {"name": "StatefulPartitionedCall/model_13/decoder_4/decoder_layer_28/causal_self_attention_28/multi_head_attention_86/ones/Const", "op": "Const", "attr": {"dtype": {"type": "DT_BOOL"}, "value": {"tensor": {"dtype": "DT_BOOL", "tensorShape": {}}}}}, {"name": "StatefulPartitionedCall/model_13/decoder_4/decoder_layer_28/causal_self_attention_28/multi_head_attention_86/MatrixBandPart/num_lower", "op": "Const", "attr": {"dtype": {"type": "DT_INT32"}, "value": {"tensor": {"dtype": "DT_INT32", "tensorShape": {}}}}}, {"name": "StatefulPartitionedCall/model_13/decoder_4/decoder_layer_28/causal_self_attention_28/multi_head_attention_86/MatrixBandPart/num_upper", "op": "Const", "attr": {"value": {"tensor": {"dtype": "DT_INT32", "tensorShape": {}}}, "dtype": {"type": "DT_INT32"}}}, {"name": "StatefulPartitionedCall/model_13/decoder_4/decoder_layer_28/causal_self_attention_28/multi_head_attention_86/ExpandDims/dim", "op": "Const", "attr": {"dtype": {"type": "DT_INT32"}, "value": {"tensor": {"dtype": "DT_INT32", "tensorShape": {}}}}}, {"name": "StatefulPartitionedCall/model_13/decoder_4/decoder_layer_28/causal_self_attention_28/multi_head_attention_86/softmax_140/mul/y", "op": "Const", "attr": {"value": {"tensor": {"dtype": "DT_FLOAT", "tensorShape": {}}}, "dtype": {"type": "DT_FLOAT"}}}, {"name": "StatefulPartitionedCall/model_13/decoder_4/decoder_layer_27/feed_forward_57/layer_normalization_152/Reshape/shape/0", "op": "Const", "attr": {"value": {"tensor": {"dtype": "DT_INT32", "tensorShape": {}}}, "dtype": {"type": "DT_INT32"}}}, {"name": "StatefulPartitionedCall/model_13/decoder_4/decoder_layer_27/feed_forward_57/layer_normalization_152/strided_slice_1/stack", "op": "Const", "attr": {"value": {"tensor": {"dtype": "DT_INT32", "tensorShape": {"dim": [{"size": "1"}]}}}, "dtype": {"type": "DT_INT32"}}}, {"name": "StatefulPartitionedCall/model_13/decoder_4/decoder_layer_27/feed_forward_57/layer_normalization_152/strided_slice_1/stack_1", "op": "Const", "attr": {"value": {"tensor": {"dtype": "DT_INT32", "tensorShape": {"dim": [{"size": "1"}]}}}, "dtype": {"type": "DT_INT32"}}}, {"name": "StatefulPartitionedCall/model_13/decoder_4/decoder_layer_27/feed_forward_57/layer_normalization_152/strided_slice_1/stack_2", "op": "Const", "attr": {"value": {"tensor": {"dtype": "DT_INT32", "tensorShape": {"dim": [{"size": "1"}]}}}, "dtype": {"type": "DT_INT32"}}}, {"name": "StatefulPartitionedCall/model_13/decoder_4/decoder_layer_27/feed_forward_57/layer_normalization_152/Const_1", "op": "Const", "attr": {"dtype": {"type": "DT_INT32"}, "value": {"tensor": {"dtype": "DT_INT32", "tensorShape": {"dim": [{"size": "1"}]}}}}}, {"name": "StatefulPartitionedCall/model_13/decoder_4/decoder_layer_27/feed_forward_57/layer_normalization_152/Reshape/shape/3", "op": "Const", "attr": {"dtype": {"type": "DT_INT32"}, "value": {"tensor": {"dtype": "DT_INT32", "tensorShape": {}}}}}, {"name": "StatefulPartitionedCall/model_13/decoder_4/decoder_layer_27/feed_forward_57/layer_normalization_152/ones/Const", "op": "Const", "attr": {"value": {"tensor": {"dtype": "DT_FLOAT", "tensorShape": {}}}, "dtype": {"type": "DT_FLOAT"}}}, {"name": "StatefulPartitionedCall/model_13/decoder_4/decoder_layer_27/feed_forward_57/layer_normalization_152/strided_slice/stack", "op": "Const", "attr": {"dtype": {"type": "DT_INT32"}, "value": {"tensor": {"dtype": "DT_INT32", "tensorShape": {"dim": [{"size": "1"}]}}}}}, {"name": "StatefulPartitionedCall/model_13/decoder_4/decoder_layer_27/feed_forward_57/layer_normalization_152/strided_slice/stack_1", "op": "Const", "attr": {"value": {"tensor": {"dtype": "DT_INT32", "tensorShape": {"dim": [{"size": "1"}]}}}, "dtype": {"type": "DT_INT32"}}}, {"name": "StatefulPartitionedCall/model_13/decoder_4/decoder_layer_27/feed_forward_57/layer_normalization_152/strided_slice/stack_2", "op": "Const", "attr": {"dtype": {"type": "DT_INT32"}, "value": {"tensor": {"dtype": "DT_INT32", "tensorShape": {"dim": [{"size": "1"}]}}}}}, {"name": "StatefulPartitionedCall/model_13/decoder_4/decoder_layer_27/feed_forward_57/layer_normalization_152/Const", "op": "Const", "attr": {"dtype": {"type": "DT_INT32"}, "value": {"tensor": {"dtype": "DT_INT32", "tensorShape": {"dim": [{"size": "1"}]}}}}}, {"name": "StatefulPartitionedCall/model_13/decoder_4/decoder_layer_27/feed_forward_57/layer_normalization_152/zeros/Const", "op": "Const", "attr": {"value": {"tensor": {"dtype": "DT_FLOAT", "tensorShape": {}}}, "dtype": {"type": "DT_FLOAT"}}}, {"name": "StatefulPartitionedCall/model_13/decoder_4/decoder_layer_27/feed_forward_57/layer_normalization_152/Const_2", "op": "Const", "attr": {"value": {"tensor": {"dtype": "DT_FLOAT", "tensorShape": {"dim": [{}]}}}, "dtype": {"type": "DT_FLOAT"}}}, {"name": "StatefulPartitionedCall/model_13/decoder_4/decoder_layer_27/feed_forward_57/layer_normalization_152/Const_3", "op": "Const", "attr": {"dtype": {"type": "DT_FLOAT"}, "value": {"tensor": {"dtype": "DT_FLOAT", "tensorShape": {"dim": [{}]}}}}}, {"name": "StatefulPartitionedCall/model_13/decoder_4/decoder_layer_27/feed_forward_57/dense_120/Tensordot/Const", "op": "Const", "attr": {"dtype": {"type": "DT_INT32"}, "value": {"tensor": {"dtype": "DT_INT32", "tensorShape": {"dim": [{"size": "1"}]}}}}}, {"name": "StatefulPartitionedCall/model_13/decoder_4/decoder_layer_27/feed_forward_57/dense_120/Tensordot/axes", "op": "Const", "attr": {"dtype": {"type": "DT_INT32"}, "value": {"tensor": {"dtype": "DT_INT32", "tensorShape": {"dim": [{"size": "1"}]}}}}}, {"name": "StatefulPartitionedCall/model_13/decoder_4/decoder_layer_27/feed_forward_57/dense_120/Tensordot/GatherV2_1/axis", "op": "Const", "attr": {"dtype": {"type": "DT_INT32"}, "value": {"tensor": {"dtype": "DT_INT32", "tensorShape": {}}}}}, {"name": "StatefulPartitionedCall/model_13/decoder_4/decoder_layer_27/feed_forward_57/dense_120/Tensordot/Const_1", "op": "Const", "attr": {"dtype": {"type": "DT_INT32"}, "value": {"tensor": {"dtype": "DT_INT32", "tensorShape": {"dim": [{"size": "1"}]}}}}}, {"name": "StatefulPartitionedCall/model_13/decoder_4/decoder_layer_27/feed_forward_57/dense_120/Tensordot/ReadVariableOp", "op": "Const", "attr": {"value": {"tensor": {"dtype": "DT_FLOAT", "tensorShape": {"dim": [{"size": "2048"}, {"size": "512"}]}}}, "dtype": {"type": "DT_FLOAT"}}}, {"name": "StatefulPartitionedCall/model_13/decoder_4/decoder_layer_27/feed_forward_57/dense_119/Tensordot/Const", "op": "Const", "attr": {"value": {"tensor": {"dtype": "DT_INT32", "tensorShape": {"dim": [{"size": "1"}]}}}, "dtype": {"type": "DT_INT32"}}}, {"name": "StatefulPartitionedCall/model_13/decoder_4/decoder_layer_27/feed_forward_57/dense_119/Tensordot/axes", "op": "Const", "attr": {"value": {"tensor": {"dtype": "DT_INT32", "tensorShape": {"dim": [{"size": "1"}]}}}, "dtype": {"type": "DT_INT32"}}}, {"name": "StatefulPartitionedCall/model_13/decoder_4/decoder_layer_27/feed_forward_57/dense_119/Tensordot/GatherV2_1/axis", "op": "Const", "attr": {"dtype": {"type": "DT_INT32"}, "value": {"tensor": {"dtype": "DT_INT32", "tensorShape": {}}}}}, {"name": "StatefulPartitionedCall/model_13/decoder_4/decoder_layer_27/feed_forward_57/dense_119/Tensordot/Const_1", "op": "Const", "attr": {"dtype": {"type": "DT_INT32"}, "value": {"tensor": {"dtype": "DT_INT32", "tensorShape": {"dim": [{"size": "1"}]}}}}}, {"name": "StatefulPartitionedCall/model_13/decoder_4/decoder_layer_27/feed_forward_57/dense_119/Tensordot/ReadVariableOp", "op": "Const", "attr": {"value": {"tensor": {"dtype": "DT_FLOAT", "tensorShape": {"dim": [{"size": "512"}, {"size": "2048"}]}}}, "dtype": {"type": "DT_FLOAT"}}}, {"name": "StatefulPartitionedCall/model_13/decoder_4/decoder_layer_27/cross_attention_27/layer_normalization_151/Reshape/shape/0", "op": "Const", "attr": {"value": {"tensor": {"dtype": "DT_INT32", "tensorShape": {}}}, "dtype": {"type": "DT_INT32"}}}, {"name": "StatefulPartitionedCall/model_13/decoder_4/decoder_layer_27/cross_attention_27/layer_normalization_151/strided_slice_1/stack", "op": "Const", "attr": {"dtype": {"type": "DT_INT32"}, "value": {"tensor": {"dtype": "DT_INT32", "tensorShape": {"dim": [{"size": "1"}]}}}}}, {"name": "StatefulPartitionedCall/model_13/decoder_4/decoder_layer_27/cross_attention_27/layer_normalization_151/strided_slice_1/stack_1", "op": "Const", "attr": {"value": {"tensor": {"dtype": "DT_INT32", "tensorShape": {"dim": [{"size": "1"}]}}}, "dtype": {"type": "DT_INT32"}}}, {"name": "StatefulPartitionedCall/model_13/decoder_4/decoder_layer_27/cross_attention_27/layer_normalization_151/strided_slice_1/stack_2", "op": "Const", "attr": {"dtype": {"type": "DT_INT32"}, "value": {"tensor": {"dtype": "DT_INT32", "tensorShape": {"dim": [{"size": "1"}]}}}}}, {"name": "StatefulPartitionedCall/model_13/decoder_4/decoder_layer_27/cross_attention_27/layer_normalization_151/Const_1", "op": "Const", "attr": {"dtype": {"type": "DT_INT32"}, "value": {"tensor": {"dtype": "DT_INT32", "tensorShape": {"dim": [{"size": "1"}]}}}}}, {"name": "StatefulPartitionedCall/model_13/decoder_4/decoder_layer_27/cross_attention_27/layer_normalization_151/Reshape/shape/3", "op": "Const", "attr": {"dtype": {"type": "DT_INT32"}, "value": {"tensor": {"dtype": "DT_INT32", "tensorShape": {}}}}}, {"name": "StatefulPartitionedCall/model_13/decoder_4/decoder_layer_27/cross_attention_27/layer_normalization_151/ones/Const", "op": "Const", "attr": {"value": {"tensor": {"dtype": "DT_FLOAT", "tensorShape": {}}}, "dtype": {"type": "DT_FLOAT"}}}, {"name": "StatefulPartitionedCall/model_13/decoder_4/decoder_layer_27/cross_attention_27/layer_normalization_151/strided_slice/stack", "op": "Const", "attr": {"value": {"tensor": {"dtype": "DT_INT32", "tensorShape": {"dim": [{"size": "1"}]}}}, "dtype": {"type": "DT_INT32"}}}, {"name": "StatefulPartitionedCall/model_13/decoder_4/decoder_layer_27/cross_attention_27/layer_normalization_151/strided_slice/stack_1", "op": "Const", "attr": {"dtype": {"type": "DT_INT32"}, "value": {"tensor": {"dtype": "DT_INT32", "tensorShape": {"dim": [{"size": "1"}]}}}}}, {"name": "StatefulPartitionedCall/model_13/decoder_4/decoder_layer_27/cross_attention_27/layer_normalization_151/strided_slice/stack_2", "op": "Const", "attr": {"value": {"tensor": {"dtype": "DT_INT32", "tensorShape": {"dim": [{"size": "1"}]}}}, "dtype": {"type": "DT_INT32"}}}, {"name": "StatefulPartitionedCall/model_13/decoder_4/decoder_layer_27/cross_attention_27/layer_normalization_151/Const", "op": "Const", "attr": {"value": {"tensor": {"dtype": "DT_INT32", "tensorShape": {"dim": [{"size": "1"}]}}}, "dtype": {"type": "DT_INT32"}}}, {"name": "StatefulPartitionedCall/model_13/decoder_4/decoder_layer_27/cross_attention_27/layer_normalization_151/zeros/Const", "op": "Const", "attr": {"dtype": {"type": "DT_FLOAT"}, "value": {"tensor": {"dtype": "DT_FLOAT", "tensorShape": {}}}}}, {"name": "StatefulPartitionedCall/model_13/decoder_4/decoder_layer_27/cross_attention_27/layer_normalization_151/Const_2", "op": "Const", "attr": {"dtype": {"type": "DT_FLOAT"}, "value": {"tensor": {"dtype": "DT_FLOAT", "tensorShape": {"dim": [{}]}}}}}, {"name": "StatefulPartitionedCall/model_13/decoder_4/decoder_layer_27/cross_attention_27/layer_normalization_151/Const_3", "op": "Const", "attr": {"dtype": {"type": "DT_FLOAT"}, "value": {"tensor": {"dtype": "DT_FLOAT", "tensorShape": {"dim": [{}]}}}}}, {"name": "StatefulPartitionedCall/model_13/decoder_4/decoder_layer_27/cross_attention_27/multi_head_attention_85/key/einsum/Einsum/ReadVariableOp", "op": "Const", "attr": {"value": {"tensor": {"dtype": "DT_FLOAT", "tensorShape": {"dim": [{"size": "512"}, {"size": "8"}, {"size": "64"}]}}}, "dtype": {"type": "DT_FLOAT"}}}, {"name": "StatefulPartitionedCall/model_13/decoder_4/decoder_layer_27/cross_attention_27/multi_head_attention_85/key/add/ReadVariableOp", "op": "Const", "attr": {"value": {"tensor": {"dtype": "DT_FLOAT", "tensorShape": {"dim": [{"size": "8"}, {"size": "64"}]}}}, "dtype": {"type": "DT_FLOAT"}}}, {"name": "StatefulPartitionedCall/model_13/decoder_4/decoder_layer_27/causal_self_attention_27/layer_normalization_150/Reshape/shape/0", "op": "Const", "attr": {"dtype": {"type": "DT_INT32"}, "value": {"tensor": {"dtype": "DT_INT32", "tensorShape": {}}}}}, {"name": "StatefulPartitionedCall/model_13/decoder_4/decoder_layer_27/causal_self_attention_27/layer_normalization_150/strided_slice_1/stack", "op": "Const", "attr": {"value": {"tensor": {"dtype": "DT_INT32", "tensorShape": {"dim": [{"size": "1"}]}}}, "dtype": {"type": "DT_INT32"}}}, {"name": "StatefulPartitionedCall/model_13/decoder_4/decoder_layer_27/causal_self_attention_27/layer_normalization_150/strided_slice_1/stack_1", "op": "Const", "attr": {"value": {"tensor": {"dtype": "DT_INT32", "tensorShape": {"dim": [{"size": "1"}]}}}, "dtype": {"type": "DT_INT32"}}}, {"name": "StatefulPartitionedCall/model_13/decoder_4/decoder_layer_27/causal_self_attention_27/layer_normalization_150/strided_slice_1/stack_2", "op": "Const", "attr": {"value": {"tensor": {"dtype": "DT_INT32", "tensorShape": {"dim": [{"size": "1"}]}}}, "dtype": {"type": "DT_INT32"}}}, {"name": "StatefulPartitionedCall/model_13/decoder_4/decoder_layer_27/causal_self_attention_27/layer_normalization_150/Const_1", "op": "Const", "attr": {"value": {"tensor": {"dtype": "DT_INT32", "tensorShape": {"dim": [{"size": "1"}]}}}, "dtype": {"type": "DT_INT32"}}}, {"name": "StatefulPartitionedCall/model_13/decoder_4/decoder_layer_27/causal_self_attention_27/layer_normalization_150/Reshape/shape/3", "op": "Const", "attr": {"dtype": {"type": "DT_INT32"}, "value": {"tensor": {"dtype": "DT_INT32", "tensorShape": {}}}}}, {"name": "StatefulPartitionedCall/model_13/decoder_4/decoder_layer_27/causal_self_attention_27/layer_normalization_150/ones/Const", "op": "Const", "attr": {"dtype": {"type": "DT_FLOAT"}, "value": {"tensor": {"dtype": "DT_FLOAT", "tensorShape": {}}}}}, {"name": "StatefulPartitionedCall/model_13/decoder_4/decoder_layer_27/causal_self_attention_27/layer_normalization_150/strided_slice/stack", "op": "Const", "attr": {"value": {"tensor": {"dtype": "DT_INT32", "tensorShape": {"dim": [{"size": "1"}]}}}, "dtype": {"type": "DT_INT32"}}}, {"name": "StatefulPartitionedCall/model_13/decoder_4/decoder_layer_27/causal_self_attention_27/layer_normalization_150/strided_slice/stack_1", "op": "Const", "attr": {"value": {"tensor": {"dtype": "DT_INT32", "tensorShape": {"dim": [{"size": "1"}]}}}, "dtype": {"type": "DT_INT32"}}}, {"name": "StatefulPartitionedCall/model_13/decoder_4/decoder_layer_27/causal_self_attention_27/layer_normalization_150/strided_slice/stack_2", "op": "Const", "attr": {"value": {"tensor": {"dtype": "DT_INT32", "tensorShape": {"dim": [{"size": "1"}]}}}, "dtype": {"type": "DT_INT32"}}}, {"name": "StatefulPartitionedCall/model_13/decoder_4/decoder_layer_27/causal_self_attention_27/layer_normalization_150/Const", "op": "Const", "attr": {"dtype": {"type": "DT_INT32"}, "value": {"tensor": {"dtype": "DT_INT32", "tensorShape": {"dim": [{"size": "1"}]}}}}}, {"name": "StatefulPartitionedCall/model_13/decoder_4/decoder_layer_27/causal_self_attention_27/layer_normalization_150/zeros/Const", "op": "Const", "attr": {"dtype": {"type": "DT_FLOAT"}, "value": {"tensor": {"dtype": "DT_FLOAT", "tensorShape": {}}}}}, {"name": "StatefulPartitionedCall/model_13/decoder_4/decoder_layer_27/causal_self_attention_27/layer_normalization_150/Const_2", "op": "Const", "attr": {"dtype": {"type": "DT_FLOAT"}, "value": {"tensor": {"dtype": "DT_FLOAT", "tensorShape": {"dim": [{}]}}}}}, {"name": "StatefulPartitionedCall/model_13/decoder_4/decoder_layer_27/causal_self_attention_27/layer_normalization_150/Const_3", "op": "Const", "attr": {"dtype": {"type": "DT_FLOAT"}, "value": {"tensor": {"dtype": "DT_FLOAT", "tensorShape": {"dim": [{}]}}}}}, {"name": "StatefulPartitionedCall/model_13/decoder_4/decoder_layer_27/causal_self_attention_27/multi_head_attention_84/key/einsum/Einsum/ReadVariableOp", "op": "Const", "attr": {"dtype": {"type": "DT_FLOAT"}, "value": {"tensor": {"dtype": "DT_FLOAT", "tensorShape": {"dim": [{"size": "512"}, {"size": "8"}, {"size": "64"}]}}}}}, {"name": "StatefulPartitionedCall/model_13/decoder_4/decoder_layer_27/causal_self_attention_27/multi_head_attention_84/key/add/ReadVariableOp", "op": "Const", "attr": {"value": {"tensor": {"dtype": "DT_FLOAT", "tensorShape": {"dim": [{"size": "8"}, {"size": "64"}]}}}, "dtype": {"type": "DT_FLOAT"}}}, {"name": "StatefulPartitionedCall/model_13/decoder_4/decoder_layer_27/causal_self_attention_27/multi_head_attention_84/query/einsum/Einsum/ReadVariableOp", "op": "Const", "attr": {"dtype": {"type": "DT_FLOAT"}, "value": {"tensor": {"dtype": "DT_FLOAT", "tensorShape": {"dim": [{"size": "512"}, {"size": "8"}, {"size": "64"}]}}}}}, {"name": "StatefulPartitionedCall/model_13/decoder_4/decoder_layer_27/causal_self_attention_27/multi_head_attention_84/query/add/ReadVariableOp", "op": "Const", "attr": {"value": {"tensor": {"dtype": "DT_FLOAT", "tensorShape": {"dim": [{"size": "8"}, {"size": "64"}]}}}, "dtype": {"type": "DT_FLOAT"}}}, {"name": "StatefulPartitionedCall/model_13/decoder_4/decoder_layer_27/causal_self_attention_27/multi_head_attention_84/Mul/y", "op": "Const", "attr": {"value": {"tensor": {"dtype": "DT_FLOAT", "tensorShape": {}}}, "dtype": {"type": "DT_FLOAT"}}}, {"name": "StatefulPartitionedCall/model_13/decoder_4/decoder_layer_27/causal_self_attention_27/multi_head_attention_84/softmax_138/sub/x", "op": "Const", "attr": {"value": {"tensor": {"dtype": "DT_FLOAT", "tensorShape": {}}}, "dtype": {"type": "DT_FLOAT"}}}, {"name": "StatefulPartitionedCall/model_13/decoder_4/decoder_layer_27/causal_self_attention_27/multi_head_attention_84/strided_slice/stack", "op": "Const", "attr": {"value": {"tensor": {"dtype": "DT_INT32", "tensorShape": {"dim": [{"size": "3"}]}}}, "dtype": {"type": "DT_INT32"}}}, {"name": "StatefulPartitionedCall/model_13/decoder_4/decoder_layer_27/causal_self_attention_27/multi_head_attention_84/strided_slice/stack_1", "op": "Const", "attr": {"dtype": {"type": "DT_INT32"}, "value": {"tensor": {"dtype": "DT_INT32", "tensorShape": {"dim": [{"size": "3"}]}}}}}, {"name": "StatefulPartitionedCall/model_13/decoder_4/decoder_layer_27/causal_self_attention_27/multi_head_attention_84/strided_slice/stack_2", "op": "Const", "attr": {"value": {"tensor": {"dtype": "DT_INT32", "tensorShape": {"dim": [{"size": "3"}]}}}, "dtype": {"type": "DT_INT32"}}}, {"name": "StatefulPartitionedCall/model_13/decoder_4/decoder_layer_27/causal_self_attention_27/multi_head_attention_84/strided_slice_1/stack", "op": "Const", "attr": {"dtype": {"type": "DT_INT32"}, "value": {"tensor": {"dtype": "DT_INT32", "tensorShape": {"dim": [{"size": "3"}]}}}}}, {"name": "StatefulPartitionedCall/model_13/decoder_4/decoder_layer_27/causal_self_attention_27/multi_head_attention_84/strided_slice_1/stack_1", "op": "Const", "attr": {"value": {"tensor": {"dtype": "DT_INT32", "tensorShape": {"dim": [{"size": "3"}]}}}, "dtype": {"type": "DT_INT32"}}}, {"name": "StatefulPartitionedCall/model_13/decoder_4/decoder_layer_27/causal_self_attention_27/multi_head_attention_84/strided_slice_1/stack_2", "op": "Const", "attr": {"value": {"tensor": {"dtype": "DT_INT32", "tensorShape": {"dim": [{"size": "3"}]}}}, "dtype": {"type": "DT_INT32"}}}, {"name": "StatefulPartitionedCall/model_13/decoder_4/decoder_layer_27/causal_self_attention_27/multi_head_attention_84/strided_slice_2/stack", "op": "Const", "attr": {"dtype": {"type": "DT_INT32"}, "value": {"tensor": {"dtype": "DT_INT32", "tensorShape": {"dim": [{"size": "3"}]}}}}}, {"name": "StatefulPartitionedCall/model_13/decoder_4/decoder_layer_27/causal_self_attention_27/multi_head_attention_84/strided_slice_2/stack_1", "op": "Const", "attr": {"value": {"tensor": {"dtype": "DT_INT32", "tensorShape": {"dim": [{"size": "3"}]}}}, "dtype": {"type": "DT_INT32"}}}, {"name": "StatefulPartitionedCall/model_13/decoder_4/decoder_layer_27/causal_self_attention_27/multi_head_attention_84/strided_slice_2/stack_2", "op": "Const", "attr": {"value": {"tensor": {"dtype": "DT_INT32", "tensorShape": {"dim": [{"size": "3"}]}}}, "dtype": {"type": "DT_INT32"}}}, {"name": "StatefulPartitionedCall/model_13/decoder_4/decoder_layer_27/causal_self_attention_27/multi_head_attention_84/ones/packed/0", "op": "Const", "attr": {"dtype": {"type": "DT_INT32"}, "value": {"tensor": {"dtype": "DT_INT32", "tensorShape": {}}}}}, {"name": "StatefulPartitionedCall/model_13/decoder_4/decoder_layer_27/causal_self_attention_27/multi_head_attention_84/strided_slice_3/stack", "op": "Const", "attr": {"value": {"tensor": {"dtype": "DT_INT32", "tensorShape": {"dim": [{"size": "1"}]}}}, "dtype": {"type": "DT_INT32"}}}, {"name": "StatefulPartitionedCall/model_13/decoder_4/decoder_layer_27/causal_self_attention_27/multi_head_attention_84/strided_slice_3/stack_1", "op": "Const", "attr": {"value": {"tensor": {"dtype": "DT_INT32", "tensorShape": {"dim": [{"size": "1"}]}}}, "dtype": {"type": "DT_INT32"}}}, {"name": "StatefulPartitionedCall/model_13/decoder_4/decoder_layer_27/causal_self_attention_27/multi_head_attention_84/strided_slice_3/stack_2", "op": "Const", "attr": {"value": {"tensor": {"dtype": "DT_INT32", "tensorShape": {"dim": [{"size": "1"}]}}}, "dtype": {"type": "DT_INT32"}}}, {"name": "StatefulPartitionedCall/model_13/decoder_4/decoder_layer_27/causal_self_attention_27/multi_head_attention_84/strided_slice_4/stack", "op": "Const", "attr": {"dtype": {"type": "DT_INT32"}, "value": {"tensor": {"dtype": "DT_INT32", "tensorShape": {"dim": [{"size": "1"}]}}}}}, {"name": "StatefulPartitionedCall/model_13/decoder_4/decoder_layer_27/causal_self_attention_27/multi_head_attention_84/strided_slice_4/stack_1", "op": "Const", "attr": {"dtype": {"type": "DT_INT32"}, "value": {"tensor": {"dtype": "DT_INT32", "tensorShape": {"dim": [{"size": "1"}]}}}}}, {"name": "StatefulPartitionedCall/model_13/decoder_4/decoder_layer_27/causal_self_attention_27/multi_head_attention_84/strided_slice_4/stack_2", "op": "Const", "attr": {"value": {"tensor": {"dtype": "DT_INT32", "tensorShape": {"dim": [{"size": "1"}]}}}, "dtype": {"type": "DT_INT32"}}}, {"name": "StatefulPartitionedCall/model_13/decoder_4/decoder_layer_27/causal_self_attention_27/multi_head_attention_84/ones/Const", "op": "Const", "attr": {"dtype": {"type": "DT_BOOL"}, "value": {"tensor": {"dtype": "DT_BOOL", "tensorShape": {}}}}}, {"name": "StatefulPartitionedCall/model_13/decoder_4/decoder_layer_27/causal_self_attention_27/multi_head_attention_84/MatrixBandPart/num_lower", "op": "Const", "attr": {"value": {"tensor": {"dtype": "DT_INT32", "tensorShape": {}}}, "dtype": {"type": "DT_INT32"}}}, {"name": "StatefulPartitionedCall/model_13/decoder_4/decoder_layer_27/causal_self_attention_27/multi_head_attention_84/MatrixBandPart/num_upper", "op": "Const", "attr": {"dtype": {"type": "DT_INT32"}, "value": {"tensor": {"dtype": "DT_INT32", "tensorShape": {}}}}}, {"name": "StatefulPartitionedCall/model_13/decoder_4/decoder_layer_27/causal_self_attention_27/multi_head_attention_84/ExpandDims/dim", "op": "Const", "attr": {"value": {"tensor": {"dtype": "DT_INT32", "tensorShape": {}}}, "dtype": {"type": "DT_INT32"}}}, {"name": "StatefulPartitionedCall/model_13/decoder_4/decoder_layer_27/causal_self_attention_27/multi_head_attention_84/softmax_138/mul/y", "op": "Const", "attr": {"value": {"tensor": {"dtype": "DT_FLOAT", "tensorShape": {}}}, "dtype": {"type": "DT_FLOAT"}}}, {"name": "StatefulPartitionedCall/model_13/decoder_4/decoder_layer_26/feed_forward_56/layer_normalization_149/Reshape/shape/0", "op": "Const", "attr": {"dtype": {"type": "DT_INT32"}, "value": {"tensor": {"dtype": "DT_INT32", "tensorShape": {}}}}}, {"name": "StatefulPartitionedCall/model_13/decoder_4/decoder_layer_26/feed_forward_56/layer_normalization_149/strided_slice_1/stack", "op": "Const", "attr": {"dtype": {"type": "DT_INT32"}, "value": {"tensor": {"dtype": "DT_INT32", "tensorShape": {"dim": [{"size": "1"}]}}}}}, {"name": "StatefulPartitionedCall/model_13/decoder_4/decoder_layer_26/feed_forward_56/layer_normalization_149/strided_slice_1/stack_1", "op": "Const", "attr": {"dtype": {"type": "DT_INT32"}, "value": {"tensor": {"dtype": "DT_INT32", "tensorShape": {"dim": [{"size": "1"}]}}}}}, {"name": "StatefulPartitionedCall/model_13/decoder_4/decoder_layer_26/feed_forward_56/layer_normalization_149/strided_slice_1/stack_2", "op": "Const", "attr": {"value": {"tensor": {"dtype": "DT_INT32", "tensorShape": {"dim": [{"size": "1"}]}}}, "dtype": {"type": "DT_INT32"}}}, {"name": "StatefulPartitionedCall/model_13/decoder_4/decoder_layer_26/feed_forward_56/layer_normalization_149/Const_1", "op": "Const", "attr": {"value": {"tensor": {"dtype": "DT_INT32", "tensorShape": {"dim": [{"size": "1"}]}}}, "dtype": {"type": "DT_INT32"}}}, {"name": "StatefulPartitionedCall/model_13/decoder_4/decoder_layer_26/feed_forward_56/layer_normalization_149/Reshape/shape/3", "op": "Const", "attr": {"value": {"tensor": {"dtype": "DT_INT32", "tensorShape": {}}}, "dtype": {"type": "DT_INT32"}}}, {"name": "StatefulPartitionedCall/model_13/decoder_4/decoder_layer_26/feed_forward_56/layer_normalization_149/ones/Const", "op": "Const", "attr": {"dtype": {"type": "DT_FLOAT"}, "value": {"tensor": {"dtype": "DT_FLOAT", "tensorShape": {}}}}}, {"name": "StatefulPartitionedCall/model_13/decoder_4/decoder_layer_26/feed_forward_56/layer_normalization_149/strided_slice/stack", "op": "Const", "attr": {"value": {"tensor": {"dtype": "DT_INT32", "tensorShape": {"dim": [{"size": "1"}]}}}, "dtype": {"type": "DT_INT32"}}}, {"name": "StatefulPartitionedCall/model_13/decoder_4/decoder_layer_26/feed_forward_56/layer_normalization_149/strided_slice/stack_1", "op": "Const", "attr": {"dtype": {"type": "DT_INT32"}, "value": {"tensor": {"dtype": "DT_INT32", "tensorShape": {"dim": [{"size": "1"}]}}}}}, {"name": "StatefulPartitionedCall/model_13/decoder_4/decoder_layer_26/feed_forward_56/layer_normalization_149/strided_slice/stack_2", "op": "Const", "attr": {"value": {"tensor": {"dtype": "DT_INT32", "tensorShape": {"dim": [{"size": "1"}]}}}, "dtype": {"type": "DT_INT32"}}}, {"name": "StatefulPartitionedCall/model_13/decoder_4/decoder_layer_26/feed_forward_56/layer_normalization_149/Const", "op": "Const", "attr": {"dtype": {"type": "DT_INT32"}, "value": {"tensor": {"dtype": "DT_INT32", "tensorShape": {"dim": [{"size": "1"}]}}}}}, {"name": "StatefulPartitionedCall/model_13/decoder_4/decoder_layer_26/feed_forward_56/layer_normalization_149/zeros/Const", "op": "Const", "attr": {"dtype": {"type": "DT_FLOAT"}, "value": {"tensor": {"dtype": "DT_FLOAT", "tensorShape": {}}}}}, {"name": "StatefulPartitionedCall/model_13/decoder_4/decoder_layer_26/feed_forward_56/layer_normalization_149/Const_2", "op": "Const", "attr": {"dtype": {"type": "DT_FLOAT"}, "value": {"tensor": {"dtype": "DT_FLOAT", "tensorShape": {"dim": [{}]}}}}}, {"name": "StatefulPartitionedCall/model_13/decoder_4/decoder_layer_26/feed_forward_56/layer_normalization_149/Const_3", "op": "Const", "attr": {"dtype": {"type": "DT_FLOAT"}, "value": {"tensor": {"dtype": "DT_FLOAT", "tensorShape": {"dim": [{}]}}}}}, {"name": "StatefulPartitionedCall/model_13/decoder_4/decoder_layer_26/feed_forward_56/dense_118/Tensordot/Const", "op": "Const", "attr": {"value": {"tensor": {"dtype": "DT_INT32", "tensorShape": {"dim": [{"size": "1"}]}}}, "dtype": {"type": "DT_INT32"}}}, {"name": "StatefulPartitionedCall/model_13/decoder_4/decoder_layer_26/feed_forward_56/dense_118/Tensordot/axes", "op": "Const", "attr": {"value": {"tensor": {"dtype": "DT_INT32", "tensorShape": {"dim": [{"size": "1"}]}}}, "dtype": {"type": "DT_INT32"}}}, {"name": "StatefulPartitionedCall/model_13/decoder_4/decoder_layer_26/feed_forward_56/dense_118/Tensordot/GatherV2_1/axis", "op": "Const", "attr": {"dtype": {"type": "DT_INT32"}, "value": {"tensor": {"dtype": "DT_INT32", "tensorShape": {}}}}}, {"name": "StatefulPartitionedCall/model_13/decoder_4/decoder_layer_26/feed_forward_56/dense_118/Tensordot/Const_1", "op": "Const", "attr": {"dtype": {"type": "DT_INT32"}, "value": {"tensor": {"dtype": "DT_INT32", "tensorShape": {"dim": [{"size": "1"}]}}}}}, {"name": "StatefulPartitionedCall/model_13/decoder_4/decoder_layer_26/feed_forward_56/dense_118/Tensordot/ReadVariableOp", "op": "Const", "attr": {"dtype": {"type": "DT_FLOAT"}, "value": {"tensor": {"dtype": "DT_FLOAT", "tensorShape": {"dim": [{"size": "2048"}, {"size": "512"}]}}}}}, {"name": "StatefulPartitionedCall/model_13/decoder_4/decoder_layer_26/feed_forward_56/dense_117/Tensordot/Const", "op": "Const", "attr": {"value": {"tensor": {"dtype": "DT_INT32", "tensorShape": {"dim": [{"size": "1"}]}}}, "dtype": {"type": "DT_INT32"}}}, {"name": "StatefulPartitionedCall/model_13/decoder_4/decoder_layer_26/feed_forward_56/dense_117/Tensordot/axes", "op": "Const", "attr": {"dtype": {"type": "DT_INT32"}, "value": {"tensor": {"dtype": "DT_INT32", "tensorShape": {"dim": [{"size": "1"}]}}}}}, {"name": "StatefulPartitionedCall/model_13/decoder_4/decoder_layer_26/feed_forward_56/dense_117/Tensordot/GatherV2_1/axis", "op": "Const", "attr": {"dtype": {"type": "DT_INT32"}, "value": {"tensor": {"dtype": "DT_INT32", "tensorShape": {}}}}}, {"name": "StatefulPartitionedCall/model_13/decoder_4/decoder_layer_26/feed_forward_56/dense_117/Tensordot/Const_1", "op": "Const", "attr": {"dtype": {"type": "DT_INT32"}, "value": {"tensor": {"dtype": "DT_INT32", "tensorShape": {"dim": [{"size": "1"}]}}}}}, {"name": "StatefulPartitionedCall/model_13/decoder_4/decoder_layer_26/feed_forward_56/dense_117/Tensordot/ReadVariableOp", "op": "Const", "attr": {"value": {"tensor": {"dtype": "DT_FLOAT", "tensorShape": {"dim": [{"size": "512"}, {"size": "2048"}]}}}, "dtype": {"type": "DT_FLOAT"}}}, {"name": "StatefulPartitionedCall/model_13/decoder_4/decoder_layer_26/cross_attention_26/layer_normalization_148/Reshape/shape/0", "op": "Const", "attr": {"dtype": {"type": "DT_INT32"}, "value": {"tensor": {"dtype": "DT_INT32", "tensorShape": {}}}}}, {"name": "StatefulPartitionedCall/model_13/decoder_4/decoder_layer_26/cross_attention_26/layer_normalization_148/strided_slice_1/stack", "op": "Const", "attr": {"dtype": {"type": "DT_INT32"}, "value": {"tensor": {"dtype": "DT_INT32", "tensorShape": {"dim": [{"size": "1"}]}}}}}, {"name": "StatefulPartitionedCall/model_13/decoder_4/decoder_layer_26/cross_attention_26/layer_normalization_148/strided_slice_1/stack_1", "op": "Const", "attr": {"value": {"tensor": {"dtype": "DT_INT32", "tensorShape": {"dim": [{"size": "1"}]}}}, "dtype": {"type": "DT_INT32"}}}, {"name": "StatefulPartitionedCall/model_13/decoder_4/decoder_layer_26/cross_attention_26/layer_normalization_148/strided_slice_1/stack_2", "op": "Const", "attr": {"dtype": {"type": "DT_INT32"}, "value": {"tensor": {"dtype": "DT_INT32", "tensorShape": {"dim": [{"size": "1"}]}}}}}, {"name": "StatefulPartitionedCall/model_13/decoder_4/decoder_layer_26/cross_attention_26/layer_normalization_148/Const_1", "op": "Const", "attr": {"dtype": {"type": "DT_INT32"}, "value": {"tensor": {"dtype": "DT_INT32", "tensorShape": {"dim": [{"size": "1"}]}}}}}, {"name": "StatefulPartitionedCall/model_13/decoder_4/decoder_layer_26/cross_attention_26/layer_normalization_148/Reshape/shape/3", "op": "Const", "attr": {"dtype": {"type": "DT_INT32"}, "value": {"tensor": {"dtype": "DT_INT32", "tensorShape": {}}}}}, {"name": "StatefulPartitionedCall/model_13/decoder_4/decoder_layer_26/cross_attention_26/layer_normalization_148/ones/Const", "op": "Const", "attr": {"dtype": {"type": "DT_FLOAT"}, "value": {"tensor": {"dtype": "DT_FLOAT", "tensorShape": {}}}}}, {"name": "StatefulPartitionedCall/model_13/decoder_4/decoder_layer_26/cross_attention_26/layer_normalization_148/strided_slice/stack", "op": "Const", "attr": {"value": {"tensor": {"dtype": "DT_INT32", "tensorShape": {"dim": [{"size": "1"}]}}}, "dtype": {"type": "DT_INT32"}}}, {"name": "StatefulPartitionedCall/model_13/decoder_4/decoder_layer_26/cross_attention_26/layer_normalization_148/strided_slice/stack_1", "op": "Const", "attr": {"dtype": {"type": "DT_INT32"}, "value": {"tensor": {"dtype": "DT_INT32", "tensorShape": {"dim": [{"size": "1"}]}}}}}, {"name": "StatefulPartitionedCall/model_13/decoder_4/decoder_layer_26/cross_attention_26/layer_normalization_148/strided_slice/stack_2", "op": "Const", "attr": {"dtype": {"type": "DT_INT32"}, "value": {"tensor": {"dtype": "DT_INT32", "tensorShape": {"dim": [{"size": "1"}]}}}}}, {"name": "StatefulPartitionedCall/model_13/decoder_4/decoder_layer_26/cross_attention_26/layer_normalization_148/Const", "op": "Const", "attr": {"value": {"tensor": {"dtype": "DT_INT32", "tensorShape": {"dim": [{"size": "1"}]}}}, "dtype": {"type": "DT_INT32"}}}, {"name": "StatefulPartitionedCall/model_13/decoder_4/decoder_layer_26/cross_attention_26/layer_normalization_148/zeros/Const", "op": "Const", "attr": {"dtype": {"type": "DT_FLOAT"}, "value": {"tensor": {"dtype": "DT_FLOAT", "tensorShape": {}}}}}, {"name": "StatefulPartitionedCall/model_13/decoder_4/decoder_layer_26/cross_attention_26/layer_normalization_148/Const_2", "op": "Const", "attr": {"dtype": {"type": "DT_FLOAT"}, "value": {"tensor": {"dtype": "DT_FLOAT", "tensorShape": {"dim": [{}]}}}}}, {"name": "StatefulPartitionedCall/model_13/decoder_4/decoder_layer_26/cross_attention_26/layer_normalization_148/Const_3", "op": "Const", "attr": {"dtype": {"type": "DT_FLOAT"}, "value": {"tensor": {"dtype": "DT_FLOAT", "tensorShape": {"dim": [{}]}}}}}, {"name": "StatefulPartitionedCall/model_13/decoder_4/decoder_layer_26/cross_attention_26/multi_head_attention_83/key/einsum/Einsum/ReadVariableOp", "op": "Const", "attr": {"dtype": {"type": "DT_FLOAT"}, "value": {"tensor": {"dtype": "DT_FLOAT", "tensorShape": {"dim": [{"size": "512"}, {"size": "8"}, {"size": "64"}]}}}}}, {"name": "StatefulPartitionedCall/model_13/decoder_4/decoder_layer_26/cross_attention_26/multi_head_attention_83/key/add/ReadVariableOp", "op": "Const", "attr": {"value": {"tensor": {"dtype": "DT_FLOAT", "tensorShape": {"dim": [{"size": "8"}, {"size": "64"}]}}}, "dtype": {"type": "DT_FLOAT"}}}, {"name": "StatefulPartitionedCall/model_13/decoder_4/decoder_layer_26/causal_self_attention_26/layer_normalization_147/Reshape/shape/0", "op": "Const", "attr": {"dtype": {"type": "DT_INT32"}, "value": {"tensor": {"dtype": "DT_INT32", "tensorShape": {}}}}}, {"name": "StatefulPartitionedCall/model_13/decoder_4/decoder_layer_26/causal_self_attention_26/layer_normalization_147/strided_slice_1/stack", "op": "Const", "attr": {"dtype": {"type": "DT_INT32"}, "value": {"tensor": {"dtype": "DT_INT32", "tensorShape": {"dim": [{"size": "1"}]}}}}}, {"name": "StatefulPartitionedCall/model_13/decoder_4/decoder_layer_26/causal_self_attention_26/layer_normalization_147/strided_slice_1/stack_1", "op": "Const", "attr": {"dtype": {"type": "DT_INT32"}, "value": {"tensor": {"dtype": "DT_INT32", "tensorShape": {"dim": [{"size": "1"}]}}}}}, {"name": "StatefulPartitionedCall/model_13/decoder_4/decoder_layer_26/causal_self_attention_26/layer_normalization_147/strided_slice_1/stack_2", "op": "Const", "attr": {"dtype": {"type": "DT_INT32"}, "value": {"tensor": {"dtype": "DT_INT32", "tensorShape": {"dim": [{"size": "1"}]}}}}}, {"name": "StatefulPartitionedCall/model_13/decoder_4/decoder_layer_26/causal_self_attention_26/layer_normalization_147/Const_1", "op": "Const", "attr": {"dtype": {"type": "DT_INT32"}, "value": {"tensor": {"dtype": "DT_INT32", "tensorShape": {"dim": [{"size": "1"}]}}}}}, {"name": "StatefulPartitionedCall/model_13/decoder_4/decoder_layer_26/causal_self_attention_26/layer_normalization_147/Reshape/shape/3", "op": "Const", "attr": {"value": {"tensor": {"dtype": "DT_INT32", "tensorShape": {}}}, "dtype": {"type": "DT_INT32"}}}, {"name": "StatefulPartitionedCall/model_13/decoder_4/decoder_layer_26/causal_self_attention_26/layer_normalization_147/ones/Const", "op": "Const", "attr": {"value": {"tensor": {"dtype": "DT_FLOAT", "tensorShape": {}}}, "dtype": {"type": "DT_FLOAT"}}}, {"name": "StatefulPartitionedCall/model_13/decoder_4/decoder_layer_26/causal_self_attention_26/layer_normalization_147/strided_slice/stack", "op": "Const", "attr": {"value": {"tensor": {"dtype": "DT_INT32", "tensorShape": {"dim": [{"size": "1"}]}}}, "dtype": {"type": "DT_INT32"}}}, {"name": "StatefulPartitionedCall/model_13/decoder_4/decoder_layer_26/causal_self_attention_26/layer_normalization_147/strided_slice/stack_1", "op": "Const", "attr": {"dtype": {"type": "DT_INT32"}, "value": {"tensor": {"dtype": "DT_INT32", "tensorShape": {"dim": [{"size": "1"}]}}}}}, {"name": "StatefulPartitionedCall/model_13/decoder_4/decoder_layer_26/causal_self_attention_26/layer_normalization_147/strided_slice/stack_2", "op": "Const", "attr": {"value": {"tensor": {"dtype": "DT_INT32", "tensorShape": {"dim": [{"size": "1"}]}}}, "dtype": {"type": "DT_INT32"}}}, {"name": "StatefulPartitionedCall/model_13/decoder_4/decoder_layer_26/causal_self_attention_26/layer_normalization_147/Const", "op": "Const", "attr": {"dtype": {"type": "DT_INT32"}, "value": {"tensor": {"dtype": "DT_INT32", "tensorShape": {"dim": [{"size": "1"}]}}}}}, {"name": "StatefulPartitionedCall/model_13/decoder_4/decoder_layer_26/causal_self_attention_26/layer_normalization_147/zeros/Const", "op": "Const", "attr": {"value": {"tensor": {"dtype": "DT_FLOAT", "tensorShape": {}}}, "dtype": {"type": "DT_FLOAT"}}}, {"name": "StatefulPartitionedCall/model_13/decoder_4/decoder_layer_26/causal_self_attention_26/layer_normalization_147/Const_2", "op": "Const", "attr": {"dtype": {"type": "DT_FLOAT"}, "value": {"tensor": {"dtype": "DT_FLOAT", "tensorShape": {"dim": [{}]}}}}}, {"name": "StatefulPartitionedCall/model_13/decoder_4/decoder_layer_26/causal_self_attention_26/layer_normalization_147/Const_3", "op": "Const", "attr": {"dtype": {"type": "DT_FLOAT"}, "value": {"tensor": {"dtype": "DT_FLOAT", "tensorShape": {"dim": [{}]}}}}}, {"name": "StatefulPartitionedCall/model_13/decoder_4/decoder_layer_26/causal_self_attention_26/multi_head_attention_82/key/einsum/Einsum/ReadVariableOp", "op": "Const", "attr": {"dtype": {"type": "DT_FLOAT"}, "value": {"tensor": {"dtype": "DT_FLOAT", "tensorShape": {"dim": [{"size": "512"}, {"size": "8"}, {"size": "64"}]}}}}}, {"name": "StatefulPartitionedCall/model_13/decoder_4/decoder_layer_26/causal_self_attention_26/multi_head_attention_82/key/add/ReadVariableOp", "op": "Const", "attr": {"dtype": {"type": "DT_FLOAT"}, "value": {"tensor": {"dtype": "DT_FLOAT", "tensorShape": {"dim": [{"size": "8"}, {"size": "64"}]}}}}}, {"name": "StatefulPartitionedCall/model_13/decoder_4/decoder_layer_26/causal_self_attention_26/multi_head_attention_82/query/einsum/Einsum/ReadVariableOp", "op": "Const", "attr": {"dtype": {"type": "DT_FLOAT"}, "value": {"tensor": {"dtype": "DT_FLOAT", "tensorShape": {"dim": [{"size": "512"}, {"size": "8"}, {"size": "64"}]}}}}}, {"name": "StatefulPartitionedCall/model_13/decoder_4/decoder_layer_26/causal_self_attention_26/multi_head_attention_82/query/add/ReadVariableOp", "op": "Const", "attr": {"value": {"tensor": {"dtype": "DT_FLOAT", "tensorShape": {"dim": [{"size": "8"}, {"size": "64"}]}}}, "dtype": {"type": "DT_FLOAT"}}}, {"name": "StatefulPartitionedCall/model_13/decoder_4/decoder_layer_26/causal_self_attention_26/multi_head_attention_82/Mul/y", "op": "Const", "attr": {"value": {"tensor": {"dtype": "DT_FLOAT", "tensorShape": {}}}, "dtype": {"type": "DT_FLOAT"}}}, {"name": "StatefulPartitionedCall/model_13/decoder_4/decoder_layer_26/causal_self_attention_26/multi_head_attention_82/softmax_136/sub/x", "op": "Const", "attr": {"dtype": {"type": "DT_FLOAT"}, "value": {"tensor": {"dtype": "DT_FLOAT", "tensorShape": {}}}}}, {"name": "StatefulPartitionedCall/model_13/decoder_4/decoder_layer_26/causal_self_attention_26/multi_head_attention_82/strided_slice/stack", "op": "Const", "attr": {"value": {"tensor": {"dtype": "DT_INT32", "tensorShape": {"dim": [{"size": "3"}]}}}, "dtype": {"type": "DT_INT32"}}}, {"name": "StatefulPartitionedCall/model_13/decoder_4/decoder_layer_26/causal_self_attention_26/multi_head_attention_82/strided_slice/stack_1", "op": "Const", "attr": {"value": {"tensor": {"dtype": "DT_INT32", "tensorShape": {"dim": [{"size": "3"}]}}}, "dtype": {"type": "DT_INT32"}}}, {"name": "StatefulPartitionedCall/model_13/decoder_4/decoder_layer_26/causal_self_attention_26/multi_head_attention_82/strided_slice/stack_2", "op": "Const", "attr": {"value": {"tensor": {"dtype": "DT_INT32", "tensorShape": {"dim": [{"size": "3"}]}}}, "dtype": {"type": "DT_INT32"}}}, {"name": "StatefulPartitionedCall/model_13/decoder_4/decoder_layer_26/causal_self_attention_26/multi_head_attention_82/strided_slice_1/stack", "op": "Const", "attr": {"value": {"tensor": {"dtype": "DT_INT32", "tensorShape": {"dim": [{"size": "3"}]}}}, "dtype": {"type": "DT_INT32"}}}, {"name": "StatefulPartitionedCall/model_13/decoder_4/decoder_layer_26/causal_self_attention_26/multi_head_attention_82/strided_slice_1/stack_1", "op": "Const", "attr": {"value": {"tensor": {"dtype": "DT_INT32", "tensorShape": {"dim": [{"size": "3"}]}}}, "dtype": {"type": "DT_INT32"}}}, {"name": "StatefulPartitionedCall/model_13/decoder_4/decoder_layer_26/causal_self_attention_26/multi_head_attention_82/strided_slice_1/stack_2", "op": "Const", "attr": {"dtype": {"type": "DT_INT32"}, "value": {"tensor": {"dtype": "DT_INT32", "tensorShape": {"dim": [{"size": "3"}]}}}}}, {"name": "StatefulPartitionedCall/model_13/decoder_4/decoder_layer_26/causal_self_attention_26/multi_head_attention_82/strided_slice_2/stack", "op": "Const", "attr": {"value": {"tensor": {"dtype": "DT_INT32", "tensorShape": {"dim": [{"size": "3"}]}}}, "dtype": {"type": "DT_INT32"}}}, {"name": "StatefulPartitionedCall/model_13/decoder_4/decoder_layer_26/causal_self_attention_26/multi_head_attention_82/strided_slice_2/stack_1", "op": "Const", "attr": {"value": {"tensor": {"dtype": "DT_INT32", "tensorShape": {"dim": [{"size": "3"}]}}}, "dtype": {"type": "DT_INT32"}}}, {"name": "StatefulPartitionedCall/model_13/decoder_4/decoder_layer_26/causal_self_attention_26/multi_head_attention_82/strided_slice_2/stack_2", "op": "Const", "attr": {"value": {"tensor": {"dtype": "DT_INT32", "tensorShape": {"dim": [{"size": "3"}]}}}, "dtype": {"type": "DT_INT32"}}}, {"name": "StatefulPartitionedCall/model_13/decoder_4/decoder_layer_26/causal_self_attention_26/multi_head_attention_82/ones/packed/0", "op": "Const", "attr": {"dtype": {"type": "DT_INT32"}, "value": {"tensor": {"dtype": "DT_INT32", "tensorShape": {}}}}}, {"name": "StatefulPartitionedCall/model_13/decoder_4/decoder_layer_26/causal_self_attention_26/multi_head_attention_82/strided_slice_3/stack", "op": "Const", "attr": {"value": {"tensor": {"dtype": "DT_INT32", "tensorShape": {"dim": [{"size": "1"}]}}}, "dtype": {"type": "DT_INT32"}}}, {"name": "StatefulPartitionedCall/model_13/decoder_4/decoder_layer_26/causal_self_attention_26/multi_head_attention_82/strided_slice_3/stack_1", "op": "Const", "attr": {"dtype": {"type": "DT_INT32"}, "value": {"tensor": {"dtype": "DT_INT32", "tensorShape": {"dim": [{"size": "1"}]}}}}}, {"name": "StatefulPartitionedCall/model_13/decoder_4/decoder_layer_26/causal_self_attention_26/multi_head_attention_82/strided_slice_3/stack_2", "op": "Const", "attr": {"value": {"tensor": {"dtype": "DT_INT32", "tensorShape": {"dim": [{"size": "1"}]}}}, "dtype": {"type": "DT_INT32"}}}, {"name": "StatefulPartitionedCall/model_13/decoder_4/decoder_layer_26/causal_self_attention_26/multi_head_attention_82/strided_slice_4/stack", "op": "Const", "attr": {"dtype": {"type": "DT_INT32"}, "value": {"tensor": {"dtype": "DT_INT32", "tensorShape": {"dim": [{"size": "1"}]}}}}}, {"name": "StatefulPartitionedCall/model_13/decoder_4/decoder_layer_26/causal_self_attention_26/multi_head_attention_82/strided_slice_4/stack_1", "op": "Const", "attr": {"value": {"tensor": {"dtype": "DT_INT32", "tensorShape": {"dim": [{"size": "1"}]}}}, "dtype": {"type": "DT_INT32"}}}, {"name": "StatefulPartitionedCall/model_13/decoder_4/decoder_layer_26/causal_self_attention_26/multi_head_attention_82/strided_slice_4/stack_2", "op": "Const", "attr": {"value": {"tensor": {"dtype": "DT_INT32", "tensorShape": {"dim": [{"size": "1"}]}}}, "dtype": {"type": "DT_INT32"}}}, {"name": "StatefulPartitionedCall/model_13/decoder_4/decoder_layer_26/causal_self_attention_26/multi_head_attention_82/ones/Const", "op": "Const", "attr": {"value": {"tensor": {"dtype": "DT_BOOL", "tensorShape": {}}}, "dtype": {"type": "DT_BOOL"}}}, {"name": "StatefulPartitionedCall/model_13/decoder_4/decoder_layer_26/causal_self_attention_26/multi_head_attention_82/MatrixBandPart/num_lower", "op": "Const", "attr": {"dtype": {"type": "DT_INT32"}, "value": {"tensor": {"dtype": "DT_INT32", "tensorShape": {}}}}}, {"name": "StatefulPartitionedCall/model_13/decoder_4/decoder_layer_26/causal_self_attention_26/multi_head_attention_82/MatrixBandPart/num_upper", "op": "Const", "attr": {"value": {"tensor": {"dtype": "DT_INT32", "tensorShape": {}}}, "dtype": {"type": "DT_INT32"}}}, {"name": "StatefulPartitionedCall/model_13/decoder_4/decoder_layer_26/causal_self_attention_26/multi_head_attention_82/ExpandDims/dim", "op": "Const", "attr": {"dtype": {"type": "DT_INT32"}, "value": {"tensor": {"dtype": "DT_INT32", "tensorShape": {}}}}}, {"name": "StatefulPartitionedCall/model_13/decoder_4/decoder_layer_26/causal_self_attention_26/multi_head_attention_82/softmax_136/mul/y", "op": "Const", "attr": {"value": {"tensor": {"dtype": "DT_FLOAT", "tensorShape": {}}}, "dtype": {"type": "DT_FLOAT"}}}, {"name": "StatefulPartitionedCall/model_13/decoder_4/decoder_layer_25/feed_forward_55/layer_normalization_146/Reshape/shape/0", "op": "Const", "attr": {"value": {"tensor": {"dtype": "DT_INT32", "tensorShape": {}}}, "dtype": {"type": "DT_INT32"}}}, {"name": "StatefulPartitionedCall/model_13/decoder_4/decoder_layer_25/feed_forward_55/layer_normalization_146/strided_slice_1/stack", "op": "Const", "attr": {"dtype": {"type": "DT_INT32"}, "value": {"tensor": {"dtype": "DT_INT32", "tensorShape": {"dim": [{"size": "1"}]}}}}}, {"name": "StatefulPartitionedCall/model_13/decoder_4/decoder_layer_25/feed_forward_55/layer_normalization_146/strided_slice_1/stack_1", "op": "Const", "attr": {"value": {"tensor": {"dtype": "DT_INT32", "tensorShape": {"dim": [{"size": "1"}]}}}, "dtype": {"type": "DT_INT32"}}}, {"name": "StatefulPartitionedCall/model_13/decoder_4/decoder_layer_25/feed_forward_55/layer_normalization_146/strided_slice_1/stack_2", "op": "Const", "attr": {"dtype": {"type": "DT_INT32"}, "value": {"tensor": {"dtype": "DT_INT32", "tensorShape": {"dim": [{"size": "1"}]}}}}}, {"name": "StatefulPartitionedCall/model_13/decoder_4/decoder_layer_25/feed_forward_55/layer_normalization_146/Const_1", "op": "Const", "attr": {"value": {"tensor": {"dtype": "DT_INT32", "tensorShape": {"dim": [{"size": "1"}]}}}, "dtype": {"type": "DT_INT32"}}}, {"name": "StatefulPartitionedCall/model_13/decoder_4/decoder_layer_25/feed_forward_55/layer_normalization_146/Reshape/shape/3", "op": "Const", "attr": {"dtype": {"type": "DT_INT32"}, "value": {"tensor": {"dtype": "DT_INT32", "tensorShape": {}}}}}, {"name": "StatefulPartitionedCall/model_13/decoder_4/decoder_layer_25/feed_forward_55/layer_normalization_146/ones/Const", "op": "Const", "attr": {"value": {"tensor": {"dtype": "DT_FLOAT", "tensorShape": {}}}, "dtype": {"type": "DT_FLOAT"}}}, {"name": "StatefulPartitionedCall/model_13/decoder_4/decoder_layer_25/feed_forward_55/layer_normalization_146/strided_slice/stack", "op": "Const", "attr": {"value": {"tensor": {"dtype": "DT_INT32", "tensorShape": {"dim": [{"size": "1"}]}}}, "dtype": {"type": "DT_INT32"}}}, {"name": "StatefulPartitionedCall/model_13/decoder_4/decoder_layer_25/feed_forward_55/layer_normalization_146/strided_slice/stack_1", "op": "Const", "attr": {"dtype": {"type": "DT_INT32"}, "value": {"tensor": {"dtype": "DT_INT32", "tensorShape": {"dim": [{"size": "1"}]}}}}}, {"name": "StatefulPartitionedCall/model_13/decoder_4/decoder_layer_25/feed_forward_55/layer_normalization_146/strided_slice/stack_2", "op": "Const", "attr": {"dtype": {"type": "DT_INT32"}, "value": {"tensor": {"dtype": "DT_INT32", "tensorShape": {"dim": [{"size": "1"}]}}}}}, {"name": "StatefulPartitionedCall/model_13/decoder_4/decoder_layer_25/feed_forward_55/layer_normalization_146/Const", "op": "Const", "attr": {"dtype": {"type": "DT_INT32"}, "value": {"tensor": {"dtype": "DT_INT32", "tensorShape": {"dim": [{"size": "1"}]}}}}}, {"name": "StatefulPartitionedCall/model_13/decoder_4/decoder_layer_25/feed_forward_55/layer_normalization_146/zeros/Const", "op": "Const", "attr": {"dtype": {"type": "DT_FLOAT"}, "value": {"tensor": {"dtype": "DT_FLOAT", "tensorShape": {}}}}}, {"name": "StatefulPartitionedCall/model_13/decoder_4/decoder_layer_25/feed_forward_55/layer_normalization_146/Const_2", "op": "Const", "attr": {"value": {"tensor": {"dtype": "DT_FLOAT", "tensorShape": {"dim": [{}]}}}, "dtype": {"type": "DT_FLOAT"}}}, {"name": "StatefulPartitionedCall/model_13/decoder_4/decoder_layer_25/feed_forward_55/layer_normalization_146/Const_3", "op": "Const", "attr": {"value": {"tensor": {"dtype": "DT_FLOAT", "tensorShape": {"dim": [{}]}}}, "dtype": {"type": "DT_FLOAT"}}}, {"name": "StatefulPartitionedCall/model_13/decoder_4/decoder_layer_25/feed_forward_55/dense_116/Tensordot/Const", "op": "Const", "attr": {"dtype": {"type": "DT_INT32"}, "value": {"tensor": {"dtype": "DT_INT32", "tensorShape": {"dim": [{"size": "1"}]}}}}}, {"name": "StatefulPartitionedCall/model_13/decoder_4/decoder_layer_25/feed_forward_55/dense_116/Tensordot/axes", "op": "Const", "attr": {"value": {"tensor": {"dtype": "DT_INT32", "tensorShape": {"dim": [{"size": "1"}]}}}, "dtype": {"type": "DT_INT32"}}}, {"name": "StatefulPartitionedCall/model_13/decoder_4/decoder_layer_25/feed_forward_55/dense_116/Tensordot/GatherV2_1/axis", "op": "Const", "attr": {"dtype": {"type": "DT_INT32"}, "value": {"tensor": {"dtype": "DT_INT32", "tensorShape": {}}}}}, {"name": "StatefulPartitionedCall/model_13/decoder_4/decoder_layer_25/feed_forward_55/dense_116/Tensordot/Const_1", "op": "Const", "attr": {"dtype": {"type": "DT_INT32"}, "value": {"tensor": {"dtype": "DT_INT32", "tensorShape": {"dim": [{"size": "1"}]}}}}}, {"name": "StatefulPartitionedCall/model_13/decoder_4/decoder_layer_25/feed_forward_55/dense_116/Tensordot/ReadVariableOp", "op": "Const", "attr": {"value": {"tensor": {"dtype": "DT_FLOAT", "tensorShape": {"dim": [{"size": "2048"}, {"size": "512"}]}}}, "dtype": {"type": "DT_FLOAT"}}}, {"name": "StatefulPartitionedCall/model_13/decoder_4/decoder_layer_25/feed_forward_55/dense_115/Tensordot/Const", "op": "Const", "attr": {"dtype": {"type": "DT_INT32"}, "value": {"tensor": {"dtype": "DT_INT32", "tensorShape": {"dim": [{"size": "1"}]}}}}}, {"name": "StatefulPartitionedCall/model_13/decoder_4/decoder_layer_25/feed_forward_55/dense_115/Tensordot/axes", "op": "Const", "attr": {"value": {"tensor": {"dtype": "DT_INT32", "tensorShape": {"dim": [{"size": "1"}]}}}, "dtype": {"type": "DT_INT32"}}}, {"name": "StatefulPartitionedCall/model_13/decoder_4/decoder_layer_25/feed_forward_55/dense_115/Tensordot/GatherV2_1/axis", "op": "Const", "attr": {"value": {"tensor": {"dtype": "DT_INT32", "tensorShape": {}}}, "dtype": {"type": "DT_INT32"}}}, {"name": "StatefulPartitionedCall/model_13/decoder_4/decoder_layer_25/feed_forward_55/dense_115/Tensordot/Const_1", "op": "Const", "attr": {"value": {"tensor": {"dtype": "DT_INT32", "tensorShape": {"dim": [{"size": "1"}]}}}, "dtype": {"type": "DT_INT32"}}}, {"name": "StatefulPartitionedCall/model_13/decoder_4/decoder_layer_25/feed_forward_55/dense_115/Tensordot/ReadVariableOp", "op": "Const", "attr": {"value": {"tensor": {"dtype": "DT_FLOAT", "tensorShape": {"dim": [{"size": "512"}, {"size": "2048"}]}}}, "dtype": {"type": "DT_FLOAT"}}}, {"name": "StatefulPartitionedCall/model_13/decoder_4/decoder_layer_25/cross_attention_25/layer_normalization_145/Reshape/shape/0", "op": "Const", "attr": {"value": {"tensor": {"dtype": "DT_INT32", "tensorShape": {}}}, "dtype": {"type": "DT_INT32"}}}, {"name": "StatefulPartitionedCall/model_13/decoder_4/decoder_layer_25/cross_attention_25/layer_normalization_145/strided_slice_1/stack", "op": "Const", "attr": {"value": {"tensor": {"dtype": "DT_INT32", "tensorShape": {"dim": [{"size": "1"}]}}}, "dtype": {"type": "DT_INT32"}}}, {"name": "StatefulPartitionedCall/model_13/decoder_4/decoder_layer_25/cross_attention_25/layer_normalization_145/strided_slice_1/stack_1", "op": "Const", "attr": {"value": {"tensor": {"dtype": "DT_INT32", "tensorShape": {"dim": [{"size": "1"}]}}}, "dtype": {"type": "DT_INT32"}}}, {"name": "StatefulPartitionedCall/model_13/decoder_4/decoder_layer_25/cross_attention_25/layer_normalization_145/strided_slice_1/stack_2", "op": "Const", "attr": {"dtype": {"type": "DT_INT32"}, "value": {"tensor": {"dtype": "DT_INT32", "tensorShape": {"dim": [{"size": "1"}]}}}}}, {"name": "StatefulPartitionedCall/model_13/decoder_4/decoder_layer_25/cross_attention_25/layer_normalization_145/Const_1", "op": "Const", "attr": {"dtype": {"type": "DT_INT32"}, "value": {"tensor": {"dtype": "DT_INT32", "tensorShape": {"dim": [{"size": "1"}]}}}}}, {"name": "StatefulPartitionedCall/model_13/decoder_4/decoder_layer_25/cross_attention_25/layer_normalization_145/Reshape/shape/3", "op": "Const", "attr": {"value": {"tensor": {"dtype": "DT_INT32", "tensorShape": {}}}, "dtype": {"type": "DT_INT32"}}}, {"name": "StatefulPartitionedCall/model_13/decoder_4/decoder_layer_25/cross_attention_25/layer_normalization_145/ones/Const", "op": "Const", "attr": {"dtype": {"type": "DT_FLOAT"}, "value": {"tensor": {"dtype": "DT_FLOAT", "tensorShape": {}}}}}, {"name": "StatefulPartitionedCall/model_13/decoder_4/decoder_layer_25/cross_attention_25/layer_normalization_145/strided_slice/stack", "op": "Const", "attr": {"dtype": {"type": "DT_INT32"}, "value": {"tensor": {"dtype": "DT_INT32", "tensorShape": {"dim": [{"size": "1"}]}}}}}, {"name": "StatefulPartitionedCall/model_13/decoder_4/decoder_layer_25/cross_attention_25/layer_normalization_145/strided_slice/stack_1", "op": "Const", "attr": {"value": {"tensor": {"dtype": "DT_INT32", "tensorShape": {"dim": [{"size": "1"}]}}}, "dtype": {"type": "DT_INT32"}}}, {"name": "StatefulPartitionedCall/model_13/decoder_4/decoder_layer_25/cross_attention_25/layer_normalization_145/strided_slice/stack_2", "op": "Const", "attr": {"value": {"tensor": {"dtype": "DT_INT32", "tensorShape": {"dim": [{"size": "1"}]}}}, "dtype": {"type": "DT_INT32"}}}, {"name": "StatefulPartitionedCall/model_13/decoder_4/decoder_layer_25/cross_attention_25/layer_normalization_145/Const", "op": "Const", "attr": {"value": {"tensor": {"dtype": "DT_INT32", "tensorShape": {"dim": [{"size": "1"}]}}}, "dtype": {"type": "DT_INT32"}}}, {"name": "StatefulPartitionedCall/model_13/decoder_4/decoder_layer_25/cross_attention_25/layer_normalization_145/zeros/Const", "op": "Const", "attr": {"value": {"tensor": {"dtype": "DT_FLOAT", "tensorShape": {}}}, "dtype": {"type": "DT_FLOAT"}}}, {"name": "StatefulPartitionedCall/model_13/decoder_4/decoder_layer_25/cross_attention_25/layer_normalization_145/Const_2", "op": "Const", "attr": {"value": {"tensor": {"dtype": "DT_FLOAT", "tensorShape": {"dim": [{}]}}}, "dtype": {"type": "DT_FLOAT"}}}, {"name": "StatefulPartitionedCall/model_13/decoder_4/decoder_layer_25/cross_attention_25/layer_normalization_145/Const_3", "op": "Const", "attr": {"value": {"tensor": {"dtype": "DT_FLOAT", "tensorShape": {"dim": [{}]}}}, "dtype": {"type": "DT_FLOAT"}}}, {"name": "StatefulPartitionedCall/model_13/decoder_4/decoder_layer_25/cross_attention_25/multi_head_attention_81/key/einsum/Einsum/ReadVariableOp", "op": "Const", "attr": {"dtype": {"type": "DT_FLOAT"}, "value": {"tensor": {"dtype": "DT_FLOAT", "tensorShape": {"dim": [{"size": "512"}, {"size": "8"}, {"size": "64"}]}}}}}, {"name": "StatefulPartitionedCall/model_13/decoder_4/decoder_layer_25/cross_attention_25/multi_head_attention_81/key/add/ReadVariableOp", "op": "Const", "attr": {"dtype": {"type": "DT_FLOAT"}, "value": {"tensor": {"dtype": "DT_FLOAT", "tensorShape": {"dim": [{"size": "8"}, {"size": "64"}]}}}}}, {"name": "StatefulPartitionedCall/model_13/decoder_4/decoder_layer_25/causal_self_attention_25/layer_normalization_144/Reshape/shape/0", "op": "Const", "attr": {"value": {"tensor": {"dtype": "DT_INT32", "tensorShape": {}}}, "dtype": {"type": "DT_INT32"}}}, {"name": "StatefulPartitionedCall/model_13/decoder_4/decoder_layer_25/causal_self_attention_25/layer_normalization_144/strided_slice_1/stack", "op": "Const", "attr": {"value": {"tensor": {"dtype": "DT_INT32", "tensorShape": {"dim": [{"size": "1"}]}}}, "dtype": {"type": "DT_INT32"}}}, {"name": "StatefulPartitionedCall/model_13/decoder_4/decoder_layer_25/causal_self_attention_25/layer_normalization_144/strided_slice_1/stack_1", "op": "Const", "attr": {"value": {"tensor": {"dtype": "DT_INT32", "tensorShape": {"dim": [{"size": "1"}]}}}, "dtype": {"type": "DT_INT32"}}}, {"name": "StatefulPartitionedCall/model_13/decoder_4/decoder_layer_25/causal_self_attention_25/layer_normalization_144/strided_slice_1/stack_2", "op": "Const", "attr": {"dtype": {"type": "DT_INT32"}, "value": {"tensor": {"dtype": "DT_INT32", "tensorShape": {"dim": [{"size": "1"}]}}}}}, {"name": "StatefulPartitionedCall/model_13/decoder_4/decoder_layer_25/causal_self_attention_25/layer_normalization_144/Const_1", "op": "Const", "attr": {"dtype": {"type": "DT_INT32"}, "value": {"tensor": {"dtype": "DT_INT32", "tensorShape": {"dim": [{"size": "1"}]}}}}}, {"name": "StatefulPartitionedCall/model_13/decoder_4/decoder_layer_25/causal_self_attention_25/layer_normalization_144/Reshape/shape/3", "op": "Const", "attr": {"dtype": {"type": "DT_INT32"}, "value": {"tensor": {"dtype": "DT_INT32", "tensorShape": {}}}}}, {"name": "StatefulPartitionedCall/model_13/decoder_4/decoder_layer_25/causal_self_attention_25/layer_normalization_144/ones/Const", "op": "Const", "attr": {"dtype": {"type": "DT_FLOAT"}, "value": {"tensor": {"dtype": "DT_FLOAT", "tensorShape": {}}}}}, {"name": "StatefulPartitionedCall/model_13/decoder_4/decoder_layer_25/causal_self_attention_25/layer_normalization_144/strided_slice/stack", "op": "Const", "attr": {"dtype": {"type": "DT_INT32"}, "value": {"tensor": {"dtype": "DT_INT32", "tensorShape": {"dim": [{"size": "1"}]}}}}}, {"name": "StatefulPartitionedCall/model_13/decoder_4/decoder_layer_25/causal_self_attention_25/layer_normalization_144/strided_slice/stack_1", "op": "Const", "attr": {"value": {"tensor": {"dtype": "DT_INT32", "tensorShape": {"dim": [{"size": "1"}]}}}, "dtype": {"type": "DT_INT32"}}}, {"name": "StatefulPartitionedCall/model_13/decoder_4/decoder_layer_25/causal_self_attention_25/layer_normalization_144/strided_slice/stack_2", "op": "Const", "attr": {"dtype": {"type": "DT_INT32"}, "value": {"tensor": {"dtype": "DT_INT32", "tensorShape": {"dim": [{"size": "1"}]}}}}}, {"name": "StatefulPartitionedCall/model_13/decoder_4/decoder_layer_25/causal_self_attention_25/layer_normalization_144/Const", "op": "Const", "attr": {"value": {"tensor": {"dtype": "DT_INT32", "tensorShape": {"dim": [{"size": "1"}]}}}, "dtype": {"type": "DT_INT32"}}}, {"name": "StatefulPartitionedCall/model_13/decoder_4/decoder_layer_25/causal_self_attention_25/layer_normalization_144/zeros/Const", "op": "Const", "attr": {"value": {"tensor": {"dtype": "DT_FLOAT", "tensorShape": {}}}, "dtype": {"type": "DT_FLOAT"}}}, {"name": "StatefulPartitionedCall/model_13/decoder_4/decoder_layer_25/causal_self_attention_25/layer_normalization_144/Const_2", "op": "Const", "attr": {"dtype": {"type": "DT_FLOAT"}, "value": {"tensor": {"dtype": "DT_FLOAT", "tensorShape": {"dim": [{}]}}}}}, {"name": "StatefulPartitionedCall/model_13/decoder_4/decoder_layer_25/causal_self_attention_25/layer_normalization_144/Const_3", "op": "Const", "attr": {"value": {"tensor": {"dtype": "DT_FLOAT", "tensorShape": {"dim": [{}]}}}, "dtype": {"type": "DT_FLOAT"}}}, {"name": "StatefulPartitionedCall/model_13/decoder_4/decoder_layer_25/causal_self_attention_25/multi_head_attention_80/key/einsum/Einsum/ReadVariableOp", "op": "Const", "attr": {"dtype": {"type": "DT_FLOAT"}, "value": {"tensor": {"dtype": "DT_FLOAT", "tensorShape": {"dim": [{"size": "512"}, {"size": "8"}, {"size": "64"}]}}}}}, {"name": "StatefulPartitionedCall/model_13/decoder_4/decoder_layer_25/causal_self_attention_25/multi_head_attention_80/key/add/ReadVariableOp", "op": "Const", "attr": {"dtype": {"type": "DT_FLOAT"}, "value": {"tensor": {"dtype": "DT_FLOAT", "tensorShape": {"dim": [{"size": "8"}, {"size": "64"}]}}}}}, {"name": "StatefulPartitionedCall/model_13/decoder_4/decoder_layer_25/causal_self_attention_25/multi_head_attention_80/query/einsum/Einsum/ReadVariableOp", "op": "Const", "attr": {"dtype": {"type": "DT_FLOAT"}, "value": {"tensor": {"dtype": "DT_FLOAT", "tensorShape": {"dim": [{"size": "512"}, {"size": "8"}, {"size": "64"}]}}}}}, {"name": "StatefulPartitionedCall/model_13/decoder_4/decoder_layer_25/causal_self_attention_25/multi_head_attention_80/query/add/ReadVariableOp", "op": "Const", "attr": {"value": {"tensor": {"dtype": "DT_FLOAT", "tensorShape": {"dim": [{"size": "8"}, {"size": "64"}]}}}, "dtype": {"type": "DT_FLOAT"}}}, {"name": "StatefulPartitionedCall/model_13/decoder_4/decoder_layer_25/causal_self_attention_25/multi_head_attention_80/Mul/y", "op": "Const", "attr": {"dtype": {"type": "DT_FLOAT"}, "value": {"tensor": {"dtype": "DT_FLOAT", "tensorShape": {}}}}}, {"name": "StatefulPartitionedCall/model_13/decoder_4/decoder_layer_25/causal_self_attention_25/multi_head_attention_80/softmax_134/sub/x", "op": "Const", "attr": {"dtype": {"type": "DT_FLOAT"}, "value": {"tensor": {"dtype": "DT_FLOAT", "tensorShape": {}}}}}, {"name": "StatefulPartitionedCall/model_13/decoder_4/decoder_layer_25/causal_self_attention_25/multi_head_attention_80/strided_slice/stack", "op": "Const", "attr": {"value": {"tensor": {"dtype": "DT_INT32", "tensorShape": {"dim": [{"size": "3"}]}}}, "dtype": {"type": "DT_INT32"}}}, {"name": "StatefulPartitionedCall/model_13/decoder_4/decoder_layer_25/causal_self_attention_25/multi_head_attention_80/strided_slice/stack_1", "op": "Const", "attr": {"dtype": {"type": "DT_INT32"}, "value": {"tensor": {"dtype": "DT_INT32", "tensorShape": {"dim": [{"size": "3"}]}}}}}, {"name": "StatefulPartitionedCall/model_13/decoder_4/decoder_layer_25/causal_self_attention_25/multi_head_attention_80/strided_slice/stack_2", "op": "Const", "attr": {"dtype": {"type": "DT_INT32"}, "value": {"tensor": {"dtype": "DT_INT32", "tensorShape": {"dim": [{"size": "3"}]}}}}}, {"name": "StatefulPartitionedCall/model_13/decoder_4/decoder_layer_25/causal_self_attention_25/multi_head_attention_80/strided_slice_1/stack", "op": "Const", "attr": {"value": {"tensor": {"dtype": "DT_INT32", "tensorShape": {"dim": [{"size": "3"}]}}}, "dtype": {"type": "DT_INT32"}}}, {"name": "StatefulPartitionedCall/model_13/decoder_4/decoder_layer_25/causal_self_attention_25/multi_head_attention_80/strided_slice_1/stack_1", "op": "Const", "attr": {"dtype": {"type": "DT_INT32"}, "value": {"tensor": {"dtype": "DT_INT32", "tensorShape": {"dim": [{"size": "3"}]}}}}}, {"name": "StatefulPartitionedCall/model_13/decoder_4/decoder_layer_25/causal_self_attention_25/multi_head_attention_80/strided_slice_1/stack_2", "op": "Const", "attr": {"dtype": {"type": "DT_INT32"}, "value": {"tensor": {"dtype": "DT_INT32", "tensorShape": {"dim": [{"size": "3"}]}}}}}, {"name": "StatefulPartitionedCall/model_13/decoder_4/decoder_layer_25/causal_self_attention_25/multi_head_attention_80/strided_slice_2/stack", "op": "Const", "attr": {"value": {"tensor": {"dtype": "DT_INT32", "tensorShape": {"dim": [{"size": "3"}]}}}, "dtype": {"type": "DT_INT32"}}}, {"name": "StatefulPartitionedCall/model_13/decoder_4/decoder_layer_25/causal_self_attention_25/multi_head_attention_80/strided_slice_2/stack_1", "op": "Const", "attr": {"value": {"tensor": {"dtype": "DT_INT32", "tensorShape": {"dim": [{"size": "3"}]}}}, "dtype": {"type": "DT_INT32"}}}, {"name": "StatefulPartitionedCall/model_13/decoder_4/decoder_layer_25/causal_self_attention_25/multi_head_attention_80/strided_slice_2/stack_2", "op": "Const", "attr": {"value": {"tensor": {"dtype": "DT_INT32", "tensorShape": {"dim": [{"size": "3"}]}}}, "dtype": {"type": "DT_INT32"}}}, {"name": "StatefulPartitionedCall/model_13/decoder_4/decoder_layer_25/causal_self_attention_25/multi_head_attention_80/ones/packed/0", "op": "Const", "attr": {"dtype": {"type": "DT_INT32"}, "value": {"tensor": {"dtype": "DT_INT32", "tensorShape": {}}}}}, {"name": "StatefulPartitionedCall/model_13/decoder_4/decoder_layer_25/causal_self_attention_25/multi_head_attention_80/strided_slice_3/stack", "op": "Const", "attr": {"dtype": {"type": "DT_INT32"}, "value": {"tensor": {"dtype": "DT_INT32", "tensorShape": {"dim": [{"size": "1"}]}}}}}, {"name": "StatefulPartitionedCall/model_13/decoder_4/decoder_layer_25/causal_self_attention_25/multi_head_attention_80/strided_slice_3/stack_1", "op": "Const", "attr": {"dtype": {"type": "DT_INT32"}, "value": {"tensor": {"dtype": "DT_INT32", "tensorShape": {"dim": [{"size": "1"}]}}}}}, {"name": "StatefulPartitionedCall/model_13/decoder_4/decoder_layer_25/causal_self_attention_25/multi_head_attention_80/strided_slice_3/stack_2", "op": "Const", "attr": {"value": {"tensor": {"dtype": "DT_INT32", "tensorShape": {"dim": [{"size": "1"}]}}}, "dtype": {"type": "DT_INT32"}}}, {"name": "StatefulPartitionedCall/model_13/decoder_4/decoder_layer_25/causal_self_attention_25/multi_head_attention_80/strided_slice_4/stack", "op": "Const", "attr": {"value": {"tensor": {"dtype": "DT_INT32", "tensorShape": {"dim": [{"size": "1"}]}}}, "dtype": {"type": "DT_INT32"}}}, {"name": "StatefulPartitionedCall/model_13/decoder_4/decoder_layer_25/causal_self_attention_25/multi_head_attention_80/strided_slice_4/stack_1", "op": "Const", "attr": {"dtype": {"type": "DT_INT32"}, "value": {"tensor": {"dtype": "DT_INT32", "tensorShape": {"dim": [{"size": "1"}]}}}}}, {"name": "StatefulPartitionedCall/model_13/decoder_4/decoder_layer_25/causal_self_attention_25/multi_head_attention_80/strided_slice_4/stack_2", "op": "Const", "attr": {"dtype": {"type": "DT_INT32"}, "value": {"tensor": {"dtype": "DT_INT32", "tensorShape": {"dim": [{"size": "1"}]}}}}}, {"name": "StatefulPartitionedCall/model_13/decoder_4/decoder_layer_25/causal_self_attention_25/multi_head_attention_80/ones/Const", "op": "Const", "attr": {"value": {"tensor": {"dtype": "DT_BOOL", "tensorShape": {}}}, "dtype": {"type": "DT_BOOL"}}}, {"name": "StatefulPartitionedCall/model_13/decoder_4/decoder_layer_25/causal_self_attention_25/multi_head_attention_80/MatrixBandPart/num_lower", "op": "Const", "attr": {"dtype": {"type": "DT_INT32"}, "value": {"tensor": {"dtype": "DT_INT32", "tensorShape": {}}}}}, {"name": "StatefulPartitionedCall/model_13/decoder_4/decoder_layer_25/causal_self_attention_25/multi_head_attention_80/MatrixBandPart/num_upper", "op": "Const", "attr": {"value": {"tensor": {"dtype": "DT_INT32", "tensorShape": {}}}, "dtype": {"type": "DT_INT32"}}}, {"name": "StatefulPartitionedCall/model_13/decoder_4/decoder_layer_25/causal_self_attention_25/multi_head_attention_80/ExpandDims/dim", "op": "Const", "attr": {"value": {"tensor": {"dtype": "DT_INT32", "tensorShape": {}}}, "dtype": {"type": "DT_INT32"}}}, {"name": "StatefulPartitionedCall/model_13/decoder_4/decoder_layer_25/causal_self_attention_25/multi_head_attention_80/softmax_134/mul/y", "op": "Const", "attr": {"dtype": {"type": "DT_FLOAT"}, "value": {"tensor": {"dtype": "DT_FLOAT", "tensorShape": {}}}}}, {"name": "StatefulPartitionedCall/model_13/decoder_4/decoder_layer_24/feed_forward_54/layer_normalization_143/Reshape/shape/0", "op": "Const", "attr": {"dtype": {"type": "DT_INT32"}, "value": {"tensor": {"dtype": "DT_INT32", "tensorShape": {}}}}}, {"name": "StatefulPartitionedCall/model_13/decoder_4/decoder_layer_24/feed_forward_54/layer_normalization_143/strided_slice_1/stack", "op": "Const", "attr": {"value": {"tensor": {"dtype": "DT_INT32", "tensorShape": {"dim": [{"size": "1"}]}}}, "dtype": {"type": "DT_INT32"}}}, {"name": "StatefulPartitionedCall/model_13/decoder_4/decoder_layer_24/feed_forward_54/layer_normalization_143/strided_slice_1/stack_1", "op": "Const", "attr": {"dtype": {"type": "DT_INT32"}, "value": {"tensor": {"dtype": "DT_INT32", "tensorShape": {"dim": [{"size": "1"}]}}}}}, {"name": "StatefulPartitionedCall/model_13/decoder_4/decoder_layer_24/feed_forward_54/layer_normalization_143/strided_slice_1/stack_2", "op": "Const", "attr": {"dtype": {"type": "DT_INT32"}, "value": {"tensor": {"dtype": "DT_INT32", "tensorShape": {"dim": [{"size": "1"}]}}}}}, {"name": "StatefulPartitionedCall/model_13/decoder_4/decoder_layer_24/feed_forward_54/layer_normalization_143/Const_1", "op": "Const", "attr": {"dtype": {"type": "DT_INT32"}, "value": {"tensor": {"dtype": "DT_INT32", "tensorShape": {"dim": [{"size": "1"}]}}}}}, {"name": "StatefulPartitionedCall/model_13/decoder_4/decoder_layer_24/feed_forward_54/layer_normalization_143/Reshape/shape/3", "op": "Const", "attr": {"dtype": {"type": "DT_INT32"}, "value": {"tensor": {"dtype": "DT_INT32", "tensorShape": {}}}}}, {"name": "StatefulPartitionedCall/model_13/decoder_4/decoder_layer_24/feed_forward_54/layer_normalization_143/ones/Const", "op": "Const", "attr": {"dtype": {"type": "DT_FLOAT"}, "value": {"tensor": {"dtype": "DT_FLOAT", "tensorShape": {}}}}}, {"name": "StatefulPartitionedCall/model_13/decoder_4/decoder_layer_24/feed_forward_54/layer_normalization_143/strided_slice/stack", "op": "Const", "attr": {"value": {"tensor": {"dtype": "DT_INT32", "tensorShape": {"dim": [{"size": "1"}]}}}, "dtype": {"type": "DT_INT32"}}}, {"name": "StatefulPartitionedCall/model_13/decoder_4/decoder_layer_24/feed_forward_54/layer_normalization_143/strided_slice/stack_1", "op": "Const", "attr": {"dtype": {"type": "DT_INT32"}, "value": {"tensor": {"dtype": "DT_INT32", "tensorShape": {"dim": [{"size": "1"}]}}}}}, {"name": "StatefulPartitionedCall/model_13/decoder_4/decoder_layer_24/feed_forward_54/layer_normalization_143/strided_slice/stack_2", "op": "Const", "attr": {"value": {"tensor": {"dtype": "DT_INT32", "tensorShape": {"dim": [{"size": "1"}]}}}, "dtype": {"type": "DT_INT32"}}}, {"name": "StatefulPartitionedCall/model_13/decoder_4/decoder_layer_24/feed_forward_54/layer_normalization_143/Const", "op": "Const", "attr": {"dtype": {"type": "DT_INT32"}, "value": {"tensor": {"dtype": "DT_INT32", "tensorShape": {"dim": [{"size": "1"}]}}}}}, {"name": "StatefulPartitionedCall/model_13/decoder_4/decoder_layer_24/feed_forward_54/layer_normalization_143/zeros/Const", "op": "Const", "attr": {"value": {"tensor": {"dtype": "DT_FLOAT", "tensorShape": {}}}, "dtype": {"type": "DT_FLOAT"}}}, {"name": "StatefulPartitionedCall/model_13/decoder_4/decoder_layer_24/feed_forward_54/layer_normalization_143/Const_2", "op": "Const", "attr": {"value": {"tensor": {"dtype": "DT_FLOAT", "tensorShape": {"dim": [{}]}}}, "dtype": {"type": "DT_FLOAT"}}}, {"name": "StatefulPartitionedCall/model_13/decoder_4/decoder_layer_24/feed_forward_54/layer_normalization_143/Const_3", "op": "Const", "attr": {"value": {"tensor": {"dtype": "DT_FLOAT", "tensorShape": {"dim": [{}]}}}, "dtype": {"type": "DT_FLOAT"}}}, {"name": "StatefulPartitionedCall/model_13/decoder_4/decoder_layer_24/feed_forward_54/dense_114/Tensordot/Const", "op": "Const", "attr": {"value": {"tensor": {"dtype": "DT_INT32", "tensorShape": {"dim": [{"size": "1"}]}}}, "dtype": {"type": "DT_INT32"}}}, {"name": "StatefulPartitionedCall/model_13/decoder_4/decoder_layer_24/feed_forward_54/dense_114/Tensordot/axes", "op": "Const", "attr": {"dtype": {"type": "DT_INT32"}, "value": {"tensor": {"dtype": "DT_INT32", "tensorShape": {"dim": [{"size": "1"}]}}}}}, {"name": "StatefulPartitionedCall/model_13/decoder_4/decoder_layer_24/feed_forward_54/dense_114/Tensordot/GatherV2_1/axis", "op": "Const", "attr": {"dtype": {"type": "DT_INT32"}, "value": {"tensor": {"dtype": "DT_INT32", "tensorShape": {}}}}}, {"name": "StatefulPartitionedCall/model_13/decoder_4/decoder_layer_24/feed_forward_54/dense_114/Tensordot/Const_1", "op": "Const", "attr": {"value": {"tensor": {"dtype": "DT_INT32", "tensorShape": {"dim": [{"size": "1"}]}}}, "dtype": {"type": "DT_INT32"}}}, {"name": "StatefulPartitionedCall/model_13/decoder_4/decoder_layer_24/feed_forward_54/dense_114/Tensordot/ReadVariableOp", "op": "Const", "attr": {"value": {"tensor": {"dtype": "DT_FLOAT", "tensorShape": {"dim": [{"size": "2048"}, {"size": "512"}]}}}, "dtype": {"type": "DT_FLOAT"}}}, {"name": "StatefulPartitionedCall/model_13/decoder_4/decoder_layer_24/feed_forward_54/dense_113/Tensordot/Const", "op": "Const", "attr": {"value": {"tensor": {"dtype": "DT_INT32", "tensorShape": {"dim": [{"size": "1"}]}}}, "dtype": {"type": "DT_INT32"}}}, {"name": "StatefulPartitionedCall/model_13/decoder_4/decoder_layer_24/feed_forward_54/dense_113/Tensordot/axes", "op": "Const", "attr": {"dtype": {"type": "DT_INT32"}, "value": {"tensor": {"dtype": "DT_INT32", "tensorShape": {"dim": [{"size": "1"}]}}}}}, {"name": "StatefulPartitionedCall/model_13/decoder_4/decoder_layer_24/feed_forward_54/dense_113/Tensordot/GatherV2_1/axis", "op": "Const", "attr": {"value": {"tensor": {"dtype": "DT_INT32", "tensorShape": {}}}, "dtype": {"type": "DT_INT32"}}}, {"name": "StatefulPartitionedCall/model_13/decoder_4/decoder_layer_24/feed_forward_54/dense_113/Tensordot/Const_1", "op": "Const", "attr": {"dtype": {"type": "DT_INT32"}, "value": {"tensor": {"dtype": "DT_INT32", "tensorShape": {"dim": [{"size": "1"}]}}}}}, {"name": "StatefulPartitionedCall/model_13/decoder_4/decoder_layer_24/feed_forward_54/dense_113/Tensordot/ReadVariableOp", "op": "Const", "attr": {"value": {"tensor": {"dtype": "DT_FLOAT", "tensorShape": {"dim": [{"size": "512"}, {"size": "2048"}]}}}, "dtype": {"type": "DT_FLOAT"}}}, {"name": "StatefulPartitionedCall/model_13/decoder_4/decoder_layer_24/cross_attention_24/layer_normalization_142/Reshape/shape/0", "op": "Const", "attr": {"dtype": {"type": "DT_INT32"}, "value": {"tensor": {"dtype": "DT_INT32", "tensorShape": {}}}}}, {"name": "StatefulPartitionedCall/model_13/decoder_4/decoder_layer_24/cross_attention_24/layer_normalization_142/strided_slice_1/stack", "op": "Const", "attr": {"dtype": {"type": "DT_INT32"}, "value": {"tensor": {"dtype": "DT_INT32", "tensorShape": {"dim": [{"size": "1"}]}}}}}, {"name": "StatefulPartitionedCall/model_13/decoder_4/decoder_layer_24/cross_attention_24/layer_normalization_142/strided_slice_1/stack_1", "op": "Const", "attr": {"dtype": {"type": "DT_INT32"}, "value": {"tensor": {"dtype": "DT_INT32", "tensorShape": {"dim": [{"size": "1"}]}}}}}, {"name": "StatefulPartitionedCall/model_13/decoder_4/decoder_layer_24/cross_attention_24/layer_normalization_142/strided_slice_1/stack_2", "op": "Const", "attr": {"value": {"tensor": {"dtype": "DT_INT32", "tensorShape": {"dim": [{"size": "1"}]}}}, "dtype": {"type": "DT_INT32"}}}, {"name": "StatefulPartitionedCall/model_13/decoder_4/decoder_layer_24/cross_attention_24/layer_normalization_142/Const_1", "op": "Const", "attr": {"dtype": {"type": "DT_INT32"}, "value": {"tensor": {"dtype": "DT_INT32", "tensorShape": {"dim": [{"size": "1"}]}}}}}, {"name": "StatefulPartitionedCall/model_13/decoder_4/decoder_layer_24/cross_attention_24/layer_normalization_142/Reshape/shape/3", "op": "Const", "attr": {"dtype": {"type": "DT_INT32"}, "value": {"tensor": {"dtype": "DT_INT32", "tensorShape": {}}}}}, {"name": "StatefulPartitionedCall/model_13/decoder_4/decoder_layer_24/cross_attention_24/layer_normalization_142/ones/Const", "op": "Const", "attr": {"dtype": {"type": "DT_FLOAT"}, "value": {"tensor": {"dtype": "DT_FLOAT", "tensorShape": {}}}}}, {"name": "StatefulPartitionedCall/model_13/decoder_4/decoder_layer_24/cross_attention_24/layer_normalization_142/strided_slice/stack", "op": "Const", "attr": {"value": {"tensor": {"dtype": "DT_INT32", "tensorShape": {"dim": [{"size": "1"}]}}}, "dtype": {"type": "DT_INT32"}}}, {"name": "StatefulPartitionedCall/model_13/decoder_4/decoder_layer_24/cross_attention_24/layer_normalization_142/strided_slice/stack_1", "op": "Const", "attr": {"dtype": {"type": "DT_INT32"}, "value": {"tensor": {"dtype": "DT_INT32", "tensorShape": {"dim": [{"size": "1"}]}}}}}, {"name": "StatefulPartitionedCall/model_13/decoder_4/decoder_layer_24/cross_attention_24/layer_normalization_142/strided_slice/stack_2", "op": "Const", "attr": {"dtype": {"type": "DT_INT32"}, "value": {"tensor": {"dtype": "DT_INT32", "tensorShape": {"dim": [{"size": "1"}]}}}}}, {"name": "StatefulPartitionedCall/model_13/decoder_4/decoder_layer_24/cross_attention_24/layer_normalization_142/Const", "op": "Const", "attr": {"dtype": {"type": "DT_INT32"}, "value": {"tensor": {"dtype": "DT_INT32", "tensorShape": {"dim": [{"size": "1"}]}}}}}, {"name": "StatefulPartitionedCall/model_13/decoder_4/decoder_layer_24/cross_attention_24/layer_normalization_142/zeros/Const", "op": "Const", "attr": {"value": {"tensor": {"dtype": "DT_FLOAT", "tensorShape": {}}}, "dtype": {"type": "DT_FLOAT"}}}, {"name": "StatefulPartitionedCall/model_13/decoder_4/decoder_layer_24/cross_attention_24/layer_normalization_142/Const_2", "op": "Const", "attr": {"dtype": {"type": "DT_FLOAT"}, "value": {"tensor": {"dtype": "DT_FLOAT", "tensorShape": {"dim": [{}]}}}}}, {"name": "StatefulPartitionedCall/model_13/decoder_4/decoder_layer_24/cross_attention_24/layer_normalization_142/Const_3", "op": "Const", "attr": {"value": {"tensor": {"dtype": "DT_FLOAT", "tensorShape": {"dim": [{}]}}}, "dtype": {"type": "DT_FLOAT"}}}, {"name": "StatefulPartitionedCall/model_13/decoder_4/decoder_layer_24/cross_attention_24/multi_head_attention_79/key/einsum/Einsum/ReadVariableOp", "op": "Const", "attr": {"value": {"tensor": {"dtype": "DT_FLOAT", "tensorShape": {"dim": [{"size": "512"}, {"size": "8"}, {"size": "64"}]}}}, "dtype": {"type": "DT_FLOAT"}}}, {"name": "StatefulPartitionedCall/model_13/decoder_4/decoder_layer_24/cross_attention_24/multi_head_attention_79/key/add/ReadVariableOp", "op": "Const", "attr": {"dtype": {"type": "DT_FLOAT"}, "value": {"tensor": {"dtype": "DT_FLOAT", "tensorShape": {"dim": [{"size": "8"}, {"size": "64"}]}}}}}, {"name": "StatefulPartitionedCall/model_13/decoder_4/decoder_layer_24/causal_self_attention_24/layer_normalization_141/Reshape/shape/0", "op": "Const", "attr": {"value": {"tensor": {"dtype": "DT_INT32", "tensorShape": {}}}, "dtype": {"type": "DT_INT32"}}}, {"name": "StatefulPartitionedCall/model_13/decoder_4/decoder_layer_24/causal_self_attention_24/layer_normalization_141/strided_slice_1/stack", "op": "Const", "attr": {"dtype": {"type": "DT_INT32"}, "value": {"tensor": {"dtype": "DT_INT32", "tensorShape": {"dim": [{"size": "1"}]}}}}}, {"name": "StatefulPartitionedCall/model_13/decoder_4/decoder_layer_24/causal_self_attention_24/layer_normalization_141/strided_slice_1/stack_1", "op": "Const", "attr": {"value": {"tensor": {"dtype": "DT_INT32", "tensorShape": {"dim": [{"size": "1"}]}}}, "dtype": {"type": "DT_INT32"}}}, {"name": "StatefulPartitionedCall/model_13/decoder_4/decoder_layer_24/causal_self_attention_24/layer_normalization_141/strided_slice_1/stack_2", "op": "Const", "attr": {"value": {"tensor": {"dtype": "DT_INT32", "tensorShape": {"dim": [{"size": "1"}]}}}, "dtype": {"type": "DT_INT32"}}}, {"name": "StatefulPartitionedCall/model_13/decoder_4/decoder_layer_24/causal_self_attention_24/layer_normalization_141/Const_1", "op": "Const", "attr": {"dtype": {"type": "DT_INT32"}, "value": {"tensor": {"dtype": "DT_INT32", "tensorShape": {"dim": [{"size": "1"}]}}}}}, {"name": "StatefulPartitionedCall/model_13/decoder_4/decoder_layer_24/causal_self_attention_24/layer_normalization_141/Reshape/shape/3", "op": "Const", "attr": {"value": {"tensor": {"dtype": "DT_INT32", "tensorShape": {}}}, "dtype": {"type": "DT_INT32"}}}, {"name": "StatefulPartitionedCall/model_13/decoder_4/decoder_layer_24/causal_self_attention_24/layer_normalization_141/ones/Const", "op": "Const", "attr": {"value": {"tensor": {"dtype": "DT_FLOAT", "tensorShape": {}}}, "dtype": {"type": "DT_FLOAT"}}}, {"name": "StatefulPartitionedCall/model_13/decoder_4/decoder_layer_24/causal_self_attention_24/layer_normalization_141/strided_slice/stack", "op": "Const", "attr": {"value": {"tensor": {"dtype": "DT_INT32", "tensorShape": {"dim": [{"size": "1"}]}}}, "dtype": {"type": "DT_INT32"}}}, {"name": "StatefulPartitionedCall/model_13/decoder_4/decoder_layer_24/causal_self_attention_24/layer_normalization_141/strided_slice/stack_1", "op": "Const", "attr": {"dtype": {"type": "DT_INT32"}, "value": {"tensor": {"dtype": "DT_INT32", "tensorShape": {"dim": [{"size": "1"}]}}}}}, {"name": "StatefulPartitionedCall/model_13/decoder_4/decoder_layer_24/causal_self_attention_24/layer_normalization_141/strided_slice/stack_2", "op": "Const", "attr": {"value": {"tensor": {"dtype": "DT_INT32", "tensorShape": {"dim": [{"size": "1"}]}}}, "dtype": {"type": "DT_INT32"}}}, {"name": "StatefulPartitionedCall/model_13/decoder_4/decoder_layer_24/causal_self_attention_24/layer_normalization_141/Const", "op": "Const", "attr": {"dtype": {"type": "DT_INT32"}, "value": {"tensor": {"dtype": "DT_INT32", "tensorShape": {"dim": [{"size": "1"}]}}}}}, {"name": "StatefulPartitionedCall/model_13/decoder_4/decoder_layer_24/causal_self_attention_24/layer_normalization_141/zeros/Const", "op": "Const", "attr": {"dtype": {"type": "DT_FLOAT"}, "value": {"tensor": {"dtype": "DT_FLOAT", "tensorShape": {}}}}}, {"name": "StatefulPartitionedCall/model_13/decoder_4/decoder_layer_24/causal_self_attention_24/layer_normalization_141/Const_2", "op": "Const", "attr": {"value": {"tensor": {"dtype": "DT_FLOAT", "tensorShape": {"dim": [{}]}}}, "dtype": {"type": "DT_FLOAT"}}}, {"name": "StatefulPartitionedCall/model_13/decoder_4/decoder_layer_24/causal_self_attention_24/layer_normalization_141/Const_3", "op": "Const", "attr": {"dtype": {"type": "DT_FLOAT"}, "value": {"tensor": {"dtype": "DT_FLOAT", "tensorShape": {"dim": [{}]}}}}}, {"name": "StatefulPartitionedCall/model_13/decoder_4/decoder_layer_24/causal_self_attention_24/multi_head_attention_78/key/einsum/Einsum/ReadVariableOp", "op": "Const", "attr": {"dtype": {"type": "DT_FLOAT"}, "value": {"tensor": {"dtype": "DT_FLOAT", "tensorShape": {"dim": [{"size": "512"}, {"size": "8"}, {"size": "64"}]}}}}}, {"name": "StatefulPartitionedCall/model_13/decoder_4/decoder_layer_24/causal_self_attention_24/multi_head_attention_78/key/add/ReadVariableOp", "op": "Const", "attr": {"value": {"tensor": {"dtype": "DT_FLOAT", "tensorShape": {"dim": [{"size": "8"}, {"size": "64"}]}}}, "dtype": {"type": "DT_FLOAT"}}}, {"name": "StatefulPartitionedCall/model_13/decoder_4/decoder_layer_24/causal_self_attention_24/multi_head_attention_78/query/einsum/Einsum/ReadVariableOp", "op": "Const", "attr": {"dtype": {"type": "DT_FLOAT"}, "value": {"tensor": {"dtype": "DT_FLOAT", "tensorShape": {"dim": [{"size": "512"}, {"size": "8"}, {"size": "64"}]}}}}}, {"name": "StatefulPartitionedCall/model_13/decoder_4/decoder_layer_24/causal_self_attention_24/multi_head_attention_78/query/add/ReadVariableOp", "op": "Const", "attr": {"dtype": {"type": "DT_FLOAT"}, "value": {"tensor": {"dtype": "DT_FLOAT", "tensorShape": {"dim": [{"size": "8"}, {"size": "64"}]}}}}}, {"name": "StatefulPartitionedCall/model_13/decoder_4/decoder_layer_24/causal_self_attention_24/multi_head_attention_78/Mul/y", "op": "Const", "attr": {"value": {"tensor": {"dtype": "DT_FLOAT", "tensorShape": {}}}, "dtype": {"type": "DT_FLOAT"}}}, {"name": "StatefulPartitionedCall/model_13/decoder_4/decoder_layer_24/causal_self_attention_24/multi_head_attention_78/softmax_132/sub/x", "op": "Const", "attr": {"value": {"tensor": {"dtype": "DT_FLOAT", "tensorShape": {}}}, "dtype": {"type": "DT_FLOAT"}}}, {"name": "StatefulPartitionedCall/model_13/decoder_4/decoder_layer_24/causal_self_attention_24/multi_head_attention_78/strided_slice/stack", "op": "Const", "attr": {"value": {"tensor": {"dtype": "DT_INT32", "tensorShape": {"dim": [{"size": "3"}]}}}, "dtype": {"type": "DT_INT32"}}}, {"name": "StatefulPartitionedCall/model_13/decoder_4/decoder_layer_24/causal_self_attention_24/multi_head_attention_78/strided_slice/stack_1", "op": "Const", "attr": {"dtype": {"type": "DT_INT32"}, "value": {"tensor": {"dtype": "DT_INT32", "tensorShape": {"dim": [{"size": "3"}]}}}}}, {"name": "StatefulPartitionedCall/model_13/decoder_4/decoder_layer_24/causal_self_attention_24/multi_head_attention_78/strided_slice/stack_2", "op": "Const", "attr": {"value": {"tensor": {"dtype": "DT_INT32", "tensorShape": {"dim": [{"size": "3"}]}}}, "dtype": {"type": "DT_INT32"}}}, {"name": "StatefulPartitionedCall/model_13/decoder_4/decoder_layer_24/causal_self_attention_24/multi_head_attention_78/strided_slice_1/stack", "op": "Const", "attr": {"dtype": {"type": "DT_INT32"}, "value": {"tensor": {"dtype": "DT_INT32", "tensorShape": {"dim": [{"size": "3"}]}}}}}, {"name": "StatefulPartitionedCall/model_13/decoder_4/decoder_layer_24/causal_self_attention_24/multi_head_attention_78/strided_slice_1/stack_1", "op": "Const", "attr": {"value": {"tensor": {"dtype": "DT_INT32", "tensorShape": {"dim": [{"size": "3"}]}}}, "dtype": {"type": "DT_INT32"}}}, {"name": "StatefulPartitionedCall/model_13/decoder_4/decoder_layer_24/causal_self_attention_24/multi_head_attention_78/strided_slice_1/stack_2", "op": "Const", "attr": {"dtype": {"type": "DT_INT32"}, "value": {"tensor": {"dtype": "DT_INT32", "tensorShape": {"dim": [{"size": "3"}]}}}}}, {"name": "StatefulPartitionedCall/model_13/decoder_4/decoder_layer_24/causal_self_attention_24/multi_head_attention_78/strided_slice_2/stack", "op": "Const", "attr": {"value": {"tensor": {"dtype": "DT_INT32", "tensorShape": {"dim": [{"size": "3"}]}}}, "dtype": {"type": "DT_INT32"}}}, {"name": "StatefulPartitionedCall/model_13/decoder_4/decoder_layer_24/causal_self_attention_24/multi_head_attention_78/strided_slice_2/stack_1", "op": "Const", "attr": {"dtype": {"type": "DT_INT32"}, "value": {"tensor": {"dtype": "DT_INT32", "tensorShape": {"dim": [{"size": "3"}]}}}}}, {"name": "StatefulPartitionedCall/model_13/decoder_4/decoder_layer_24/causal_self_attention_24/multi_head_attention_78/strided_slice_2/stack_2", "op": "Const", "attr": {"dtype": {"type": "DT_INT32"}, "value": {"tensor": {"dtype": "DT_INT32", "tensorShape": {"dim": [{"size": "3"}]}}}}}, {"name": "StatefulPartitionedCall/model_13/decoder_4/decoder_layer_24/causal_self_attention_24/multi_head_attention_78/ones/packed/0", "op": "Const", "attr": {"value": {"tensor": {"dtype": "DT_INT32", "tensorShape": {}}}, "dtype": {"type": "DT_INT32"}}}, {"name": "StatefulPartitionedCall/model_13/decoder_4/decoder_layer_24/causal_self_attention_24/multi_head_attention_78/strided_slice_3/stack", "op": "Const", "attr": {"dtype": {"type": "DT_INT32"}, "value": {"tensor": {"dtype": "DT_INT32", "tensorShape": {"dim": [{"size": "1"}]}}}}}, {"name": "StatefulPartitionedCall/model_13/decoder_4/decoder_layer_24/causal_self_attention_24/multi_head_attention_78/strided_slice_3/stack_1", "op": "Const", "attr": {"value": {"tensor": {"dtype": "DT_INT32", "tensorShape": {"dim": [{"size": "1"}]}}}, "dtype": {"type": "DT_INT32"}}}, {"name": "StatefulPartitionedCall/model_13/decoder_4/decoder_layer_24/causal_self_attention_24/multi_head_attention_78/strided_slice_3/stack_2", "op": "Const", "attr": {"dtype": {"type": "DT_INT32"}, "value": {"tensor": {"dtype": "DT_INT32", "tensorShape": {"dim": [{"size": "1"}]}}}}}, {"name": "StatefulPartitionedCall/model_13/decoder_4/decoder_layer_24/causal_self_attention_24/multi_head_attention_78/strided_slice_4/stack", "op": "Const", "attr": {"value": {"tensor": {"dtype": "DT_INT32", "tensorShape": {"dim": [{"size": "1"}]}}}, "dtype": {"type": "DT_INT32"}}}, {"name": "StatefulPartitionedCall/model_13/decoder_4/decoder_layer_24/causal_self_attention_24/multi_head_attention_78/strided_slice_4/stack_1", "op": "Const", "attr": {"dtype": {"type": "DT_INT32"}, "value": {"tensor": {"dtype": "DT_INT32", "tensorShape": {"dim": [{"size": "1"}]}}}}}, {"name": "StatefulPartitionedCall/model_13/decoder_4/decoder_layer_24/causal_self_attention_24/multi_head_attention_78/strided_slice_4/stack_2", "op": "Const", "attr": {"value": {"tensor": {"dtype": "DT_INT32", "tensorShape": {"dim": [{"size": "1"}]}}}, "dtype": {"type": "DT_INT32"}}}, {"name": "StatefulPartitionedCall/model_13/decoder_4/decoder_layer_24/causal_self_attention_24/multi_head_attention_78/ones/Const", "op": "Const", "attr": {"value": {"tensor": {"dtype": "DT_BOOL", "tensorShape": {}}}, "dtype": {"type": "DT_BOOL"}}}, {"name": "StatefulPartitionedCall/model_13/decoder_4/decoder_layer_24/causal_self_attention_24/multi_head_attention_78/MatrixBandPart/num_lower", "op": "Const", "attr": {"value": {"tensor": {"dtype": "DT_INT32", "tensorShape": {}}}, "dtype": {"type": "DT_INT32"}}}, {"name": "StatefulPartitionedCall/model_13/decoder_4/decoder_layer_24/causal_self_attention_24/multi_head_attention_78/MatrixBandPart/num_upper", "op": "Const", "attr": {"dtype": {"type": "DT_INT32"}, "value": {"tensor": {"dtype": "DT_INT32", "tensorShape": {}}}}}, {"name": "StatefulPartitionedCall/model_13/decoder_4/decoder_layer_24/causal_self_attention_24/multi_head_attention_78/ExpandDims/dim", "op": "Const", "attr": {"value": {"tensor": {"dtype": "DT_INT32", "tensorShape": {}}}, "dtype": {"type": "DT_INT32"}}}, {"name": "StatefulPartitionedCall/model_13/decoder_4/decoder_layer_24/causal_self_attention_24/multi_head_attention_78/softmax_132/mul/y", "op": "Const", "attr": {"dtype": {"type": "DT_FLOAT"}, "value": {"tensor": {"dtype": "DT_FLOAT", "tensorShape": {}}}}}, {"name": "StatefulPartitionedCall/model_13/decoder_4/positional_embedding_4/sine_position_encoding_4/sub", "op": "Const", "attr": {"value": {"tensor": {"dtype": "DT_FLOAT", "tensorShape": {"dim": [{"size": "512"}]}}}, "dtype": {"type": "DT_FLOAT"}}}, {"name": "StatefulPartitionedCall/model_13/decoder_4/positional_embedding_4/sine_position_encoding_4/range/start", "op": "Const", "attr": {"dtype": {"type": "DT_INT32"}, "value": {"tensor": {"dtype": "DT_INT32", "tensorShape": {}}}}}, {"name": "StatefulPartitionedCall/model_13/decoder_4/positional_embedding_4/sine_position_encoding_4/range/delta", "op": "Const", "attr": {"value": {"tensor": {"dtype": "DT_INT32", "tensorShape": {}}}, "dtype": {"type": "DT_INT32"}}}, {"name": "StatefulPartitionedCall/model_13/decoder_4/positional_embedding_4/sine_position_encoding_4/ExpandDims/dim", "op": "Const", "attr": {"value": {"tensor": {"dtype": "DT_INT32", "tensorShape": {}}}, "dtype": {"type": "DT_INT32"}}}, {"name": "StatefulPartitionedCall/model_13/decoder_4/positional_embedding_4/sine_position_encoding_4/ExpandDims_1", "op": "Const", "attr": {"dtype": {"type": "DT_FLOAT"}, "value": {"tensor": {"dtype": "DT_FLOAT", "tensorShape": {"dim": [{"size": "1"}, {"size": "512"}]}}}}}, {"name": "StatefulPartitionedCall/model_13/decoder_4/positional_embedding_4/sine_position_encoding_4/Cast_4", "op": "Const", "attr": {"dtype": {"type": "DT_FLOAT"}, "value": {"tensor": {"dtype": "DT_FLOAT", "tensorShape": {"dim": [{"size": "512"}]}}}}}, {"name": "StatefulPartitionedCall/model_13/decoder_4/positional_embedding_4/sine_position_encoding_4/strided_slice/stack", "op": "Const", "attr": {"dtype": {"type": "DT_INT32"}, "value": {"tensor": {"dtype": "DT_INT32", "tensorShape": {"dim": [{"size": "1"}]}}}}}, {"name": "StatefulPartitionedCall/model_13/decoder_4/positional_embedding_4/sine_position_encoding_4/strided_slice/stack_1", "op": "Const", "attr": {"dtype": {"type": "DT_INT32"}, "value": {"tensor": {"dtype": "DT_INT32", "tensorShape": {"dim": [{"size": "1"}]}}}}}, {"name": "StatefulPartitionedCall/model_13/decoder_4/positional_embedding_4/sine_position_encoding_4/strided_slice/stack_2", "op": "Const", "attr": {"value": {"tensor": {"dtype": "DT_INT32", "tensorShape": {"dim": [{"size": "1"}]}}}, "dtype": {"type": "DT_INT32"}}}, {"name": "unknown_838", "op": "Const", "attr": {"value": {"tensor": {"dtype": "DT_FLOAT", "tensorShape": {"dim": [{"size": "12000"}, {"size": "512"}]}}}, "dtype": {"type": "DT_FLOAT"}}}, {"name": "StatefulPartitionedCall/model_13/decoder_4/positional_embedding_4/reversible_embedding_4/embedding_lookup/axis", "op": "Const", "attr": {"dtype": {"type": "DT_INT32"}, "value": {"tensor": {"dtype": "DT_INT32", "tensorShape": {}}}}}, {"name": "StatefulPartitionedCall/model_13/decoder_4/positional_embedding_4/Sqrt", "op": "Const", "attr": {"dtype": {"type": "DT_FLOAT"}, "value": {"tensor": {"dtype": "DT_FLOAT", "tensorShape": {}}}}}, {"name": "StatefulPartitionedCall/model_13/decoder_4/positional_embedding_4/sine_position_encoding_4/strided_slice_1/stack", "op": "Const", "attr": {"dtype": {"type": "DT_INT32"}, "value": {"tensor": {"dtype": "DT_INT32", "tensorShape": {"dim": [{"size": "1"}]}}}}}, {"name": "StatefulPartitionedCall/model_13/decoder_4/positional_embedding_4/sine_position_encoding_4/strided_slice_1/stack_1", "op": "Const", "attr": {"dtype": {"type": "DT_INT32"}, "value": {"tensor": {"dtype": "DT_INT32", "tensorShape": {"dim": [{"size": "1"}]}}}}}, {"name": "StatefulPartitionedCall/model_13/decoder_4/positional_embedding_4/sine_position_encoding_4/strided_slice_1/stack_2", "op": "Const", "attr": {"value": {"tensor": {"dtype": "DT_INT32", "tensorShape": {"dim": [{"size": "1"}]}}}, "dtype": {"type": "DT_INT32"}}}, {"name": "StatefulPartitionedCall/model_13/decoder_4/positional_embedding_4/sine_position_encoding_4/packed/2", "op": "Const", "attr": {"dtype": {"type": "DT_INT32"}, "value": {"tensor": {"dtype": "DT_INT32", "tensorShape": {}}}}}, {"name": "StatefulPartitionedCall/model_13/decoder_4/decoder_layer_24/causal_self_attention_24/multi_head_attention_78/value/einsum/Einsum/ReadVariableOp", "op": "Const", "attr": {"value": {"tensor": {"dtype": "DT_FLOAT", "tensorShape"…
int32"}, {"name": "StatefulPartitionedCall/model_13/encoder_4/encoder_layer_29/feed_forward_53/dense_111/Tensordot/GatherV2/axis", "shape": [], "dtype": "int32"}, {"name": "StatefulPartitionedCall/model_13/encoder_4/encoder_layer_29/feed_forward_53/dense_111/Tensordot/Const_2", "shape": [1], "dtype": "int32"}, {"name": "StatefulPartitionedCall/model_13/encoder_4/encoder_layer_29/feed_forward_53/dense_111/Tensordot/concat_1/axis", "shape": [], "dtype": "int32"}, {"name": "StatefulPartitionedCall/model_13/encoder_4/encoder_layer_29/feed_forward_53/dense_111/BiasAdd/ReadVariableOp", "shape": [2048], "dtype": "float32"}, {"name": "StatefulPartitionedCall/model_13/encoder_4/encoder_layer_29/feed_forward_53/dense_112/Tensordot/free", "shape": [2], "dtype": "int32"}, {"name": "StatefulPartitionedCall/model_13/encoder_4/encoder_layer_29/feed_forward_53/dense_112/Tensordot/GatherV2/axis", "shape": [], "dtype": "int32"}, {"name": "StatefulPartitionedCall/model_13/encoder_4/encoder_layer_29/feed_forward_53/dense_112/Tensordot/Const_2", "shape": [1], "dtype": "int32"}, {"name": "StatefulPartitionedCall/model_13/encoder_4/encoder_layer_29/feed_forward_53/dense_112/Tensordot/concat_1/axis", "shape": [], "dtype": "int32"}, {"name": "StatefulPartitionedCall/model_13/encoder_4/encoder_layer_29/feed_forward_53/dense_112/BiasAdd/ReadVariableOp", "shape": [512], "dtype": "float32"}, {"name": "StatefulPartitionedCall/model_13/encoder_4/encoder_layer_29/feed_forward_53/Const", "shape": [], "dtype": "float32"}, {"name": "StatefulPartitionedCall/model_13/encoder_4/layer_normalization_140/mul/ReadVariableOp", "shape": [512], "dtype": "float32"}, {"name": "StatefulPartitionedCall/model_13/encoder_4/layer_normalization_140/add/ReadVariableOp", "shape": [512], "dtype": "float32"}, {"name": "StatefulPartitionedCall/model_13/decoder_4/decoder_layer_28/cross_attention_28/multi_head_attention_87/value/einsum/Einsum/ReadVariableOp", "shape": [512, 8, 64], "dtype": "float32"}, {"name": "StatefulPartitionedCall/model_13/decoder_4/decoder_layer_28/cross_attention_28/multi_head_attention_87/value/add/ReadVariableOp", "shape": [8, 64], "dtype": "float32"}, {"name": "StatefulPartitionedCall/model_13/decoder_4/decoder_layer_28/cross_attention_28/multi_head_attention_87/attention_output/einsum/Einsum/ReadVariableOp", "shape": [8, 64, 512], "dtype": "float32"}, {"name": "StatefulPartitionedCall/model_13/decoder_4/decoder_layer_28/cross_attention_28/multi_head_attention_87/attention_output/add/ReadVariableOp", "shape": [512], "dtype": "float32"}, {"name": "StatefulPartitionedCall/model_13/decoder_4/decoder_layer_28/cross_attention_28/layer_normalization_154/mul/ReadVariableOp", "shape": [512], "dtype": "float32"}, {"name": "StatefulPartitionedCall/model_13/decoder_4/decoder_layer_28/cross_attention_28/layer_normalization_154/add/ReadVariableOp", "shape": [512], "dtype": "float32"}, {"name": "StatefulPartitionedCall/model_13/decoder_4/decoder_layer_28/feed_forward_58/dense_121/Tensordot/free", "shape": [2], "dtype": "int32"}, {"name": "StatefulPartitionedCall/model_13/decoder_4/decoder_layer_28/feed_forward_58/dense_121/Tensordot/GatherV2/axis", "shape": [], "dtype": "int32"}, {"name": "StatefulPartitionedCall/model_13/decoder_4/decoder_layer_28/feed_forward_58/dense_121/Tensordot/Const_2", "shape": [1], "dtype": "int32"}, {"name": "StatefulPartitionedCall/model_13/decoder_4/decoder_layer_28/feed_forward_58/dense_121/Tensordot/concat_1/axis", "shape": [], "dtype": "int32"}, {"name": "StatefulPartitionedCall/model_13/decoder_4/decoder_layer_28/feed_forward_58/dense_121/BiasAdd/ReadVariableOp", "shape": [2048], "dtype": "float32"}, {"name": "StatefulPartitionedCall/model_13/decoder_4/decoder_layer_28/feed_forward_58/dense_122/Tensordot/free", "shape": [2], "dtype": "int32"}, {"name": "StatefulPartitionedCall/model_13/decoder_4/decoder_layer_28/feed_forward_58/dense_122/Tensordot/GatherV2/axis", "shape": [], "dtype": "int32"}, {"name": "StatefulPartitionedCall/model_13/decoder_4/decoder_layer_28/feed_forward_58/dense_122/Tensordot/Const_2", "shape": [1], "dtype": "int32"}, {"name": "StatefulPartitionedCall/model_13/decoder_4/decoder_layer_28/feed_forward_58/dense_122/Tensordot/concat_1/axis", "shape": [], "dtype": "int32"}, {"name": "StatefulPartitionedCall/model_13/decoder_4/decoder_layer_28/feed_forward_58/dense_122/BiasAdd/ReadVariableOp", "shape": [512], "dtype": "float32"}, {"name": "StatefulPartitionedCall/model_13/decoder_4/decoder_layer_28/feed_forward_58/layer_normalization_155/mul/ReadVariableOp", "shape": [512], "dtype": "float32"}, {"name": "StatefulPartitionedCall/model_13/decoder_4/decoder_layer_28/feed_forward_58/layer_normalization_155/add/ReadVariableOp", "shape": [512], "dtype": "float32"}, {"name": "StatefulPartitionedCall/model_13/decoder_4/decoder_layer_29/causal_self_attention_29/multi_head_attention_88/value/einsum/Einsum/ReadVariableOp", "shape": [512, 8, 64], "dtype": "float32"}, {"name": "StatefulPartitionedCall/model_13/decoder_4/decoder_layer_29/causal_self_attention_29/multi_head_attention_88/value/add/ReadVariableOp", "shape": [8, 64], "dtype": "float32"}, {"name": "StatefulPartitionedCall/model_13/decoder_4/decoder_layer_29/causal_self_attention_29/multi_head_attention_88/attention_output/einsum/Einsum/ReadVariableOp", "shape": [8, 64, 512], "dtype": "float32"}, {"name": "StatefulPartitionedCall/model_13/decoder_4/decoder_layer_29/causal_self_attention_29/multi_head_attention_88/attention_output/add/ReadVariableOp", "shape": [512], "dtype": "float32"}, {"name": "StatefulPartitionedCall/model_13/decoder_4/decoder_layer_29/causal_self_attention_29/layer_normalization_156/mul/ReadVariableOp", "shape": [512], "dtype": "float32"}, {"name": "StatefulPartitionedCall/model_13/decoder_4/decoder_layer_29/causal_self_attention_29/layer_normalization_156/add/ReadVariableOp", "shape": [512], "dtype": "float32"}, {"name": "StatefulPartitionedCall/model_13/decoder_4/decoder_layer_29/cross_attention_29/multi_head_attention_89/query/einsum/Einsum/ReadVariableOp", "shape": [512, 8, 64], "dtype": "float32"}, {"name": "StatefulPartitionedCall/model_13/decoder_4/decoder_layer_29/cross_attention_29/multi_head_attention_89/query/add/ReadVariableOp", "shape": [8, 64], "dtype": "float32"}, {"name": "StatefulPartitionedCall/model_13/decoder_4/decoder_layer_29/cross_attention_29/multi_head_attention_89/Mul/y", "shape": [], "dtype": "float32"}, {"name": "StatefulPartitionedCall/model_13/decoder_4/decoder_layer_29/cross_attention_29/multi_head_attention_89/softmax_143/sub/x", "shape": [], "dtype": "float32"}, {"name": "StatefulPartitionedCall/model_13/decoder_4/positional_embedding_4/NotEqual/y", "shape": [], "dtype": "float32"}, {"name": "StatefulPartitionedCall/model_13/decoder_4/decoder_layer_29/cross_attention_29/multi_head_attention_89/strided_slice/stack", "shape": [3], "dtype": "int32"}, {"name": "StatefulPartitionedCall/model_13/decoder_4/decoder_layer_29/cross_attention_29/multi_head_attention_89/strided_slice/stack_1", "shape": [3], "dtype": "int32"}, {"name": "StatefulPartitionedCall/model_13/decoder_4/decoder_layer_29/cross_attention_29/multi_head_attention_89/strided_slice/stack_2", "shape": [3], "dtype": "int32"}, {"name": "StatefulPartitionedCall/model_13/decoder_4/decoder_layer_29/cross_attention_29/multi_head_attention_89/ExpandDims/dim", "shape": [], "dtype": "int32"}, {"name": "StatefulPartitionedCall/model_13/decoder_4/decoder_layer_29/cross_attention_29/multi_head_attention_89/softmax_143/mul/y", "shape": [], "dtype": "float32"}, {"name": "StatefulPartitionedCall/model_13/model_12/stem_conv/Conv2D_weights", "shape": [3, 3, 3, 48], "dtype": "float32"}, {"name": "StatefulPartitionedCall/model_13/model_12/stem_conv/Conv2D_bn_offset", "shape": [48], "dtype": "float32"}, {"name": "StatefulPartitionedCall/model_13/model_12/block1a_dwconv/depthwise_weights", "shape": [3, 3, 48, 1], "dtype": "float32"}, {"name": "StatefulPartitionedCall/model_13/model_12/block1a_dwconv/depthwise_bn_offset", "shape": [48], "dtype": "float32"}, {"name": "StatefulPartitionedCall/model_13/model_12/block1a_project_conv/Conv2D_weights", "shape": [1, 1, 48, 24], "dtype": "float32"}, {"name": "StatefulPartitionedCall/model_13/model_12/block1a_project_conv/Conv2D_bn_offset", "shape": [24], "dtype": "float32"}, {"name": "StatefulPartitionedCall/model_13/model_12/block1b_dwconv/depthwise_weights", "shape": [3, 3, 24, 1], "dtype": "float32"}, {"name": "StatefulPartitionedCall/model_13/model_12/block1b_dwconv/depthwise_bn_offset", "shape": [24], "dtype": "float32"}, {"name": "StatefulPartitionedCall/model_13/model_12/block1b_project_conv/Conv2D_weights", "shape": [1, 1, 24, 24], "dtype": "float32"}, {"name": "StatefulPartitionedCall/model_13/model_12/block1b_project_conv/Conv2D_bn_offset", "shape": [24], "dtype": "float32"}, {"name": "StatefulPartitionedCall/model_13/model_12/block1c_dwconv/depthwise_weights", "shape": [3, 3, 24, 1], "dtype": "float32"}, {"name": "StatefulPartitionedCall/model_13/model_12/block1c_dwconv/depthwise_bn_offset", "shape": [24], "dtype": "float32"}, {"name": "StatefulPartitionedCall/model_13/model_12/block1c_project_conv/Conv2D_weights", "shape": [1, 1, 24, 24], "dtype": "float32"}, {"name": "StatefulPartitionedCall/model_13/model_12/block1c_project_conv/Conv2D_bn_offset", "shape": [24], "dtype": "float32"}, {"name": "StatefulPartitionedCall/model_13/model_12/block2a_expand_conv/Conv2D_weights", "shape": [1, 1, 24, 144], "dtype": "float32"}, {"name": "StatefulPartitionedCall/model_13/model_12/block2a_expand_conv/Conv2D_bn_offset", "shape": [144], "dtype": "float32"}, {"name": "StatefulPartitionedCall/model_13/model_12/block2a_dwconv/depthwise_weights", "shape": [3, 3, 144, 1], "dtype": "float32"}, {"name": "StatefulPartitionedCall/model_13/model_12/block2a_dwconv/depthwise_bn_offset", "shape": [144], "dtype": "float32"}, {"name": "StatefulPartitionedCall/model_13/model_12/block2a_project_conv/Conv2D_weights", "shape": [1, 1, 144, 40], "dtype": "float32"}, {"name": "StatefulPartitionedCall/model_13/model_12/block2a_project_conv/Conv2D_bn_offset", "shape": [40], "dtype": "float32"}, {"name": "StatefulPartitionedCall/model_13/model_12/block2b_expand_conv/Conv2D_weights", "shape": [1, 1, 40, 240], "dtype": "float32"}, {"name": "StatefulPartitionedCall/model_13/model_12/block2b_expand_conv/Conv2D_bn_offset", "shape": [240], "dtype": "float32"}, {"name": "StatefulPartitionedCall/model_13/model_12/block2b_dwconv/depthwise_weights", "shape": [3, 3, 240, 1], "dtype": "float32"}, {"name": "StatefulPartitionedCall/model_13/model_12/block2b_dwconv/depthwise_bn_offset", "shape": [240], "dtype": "float32"}, {"name": "StatefulPartitionedCall/model_13/model_12/block2b_project_conv/Conv2D_weights", "shape": [1, 1, 240, 40], "dtype": "float32"}, {"name": "StatefulPartitionedCall/model_13/model_12/block2b_project_conv/Conv2D_bn_offset", "shape": [40], "dtype": "float32"}, {"name": "StatefulPartitionedCall/model_13/model_12/block2c_expand_conv/Conv2D_weights", "shape": [1, 1, 40, 240], "dtype": "float32"}, {"name": "StatefulPartitionedCall/model_13/model_12/block2c_expand_conv/Conv2D_bn_offset", "shape": [240], "dtype": "float32"}, {"name": "StatefulPartitionedCall/model_13/model_12/block2c_dwconv/depthwise_weights", "shape": [3, 3, 240, 1], "dtype": "float32"}, {"name": "StatefulPartitionedCall/model_13/model_12/block2c_dwconv/depthwise_bn_offset", "shape": [240], "dtype": "float32"}, {"name": "StatefulPartitionedCall/model_13/model_12/block2c_project_conv/Conv2D_weights", "shape": [1, 1, 240, 40], "dtype": "float32"}, {"name": "StatefulPartitionedCall/model_13/model_12/block2c_project_conv/Conv2D_bn_offset", "shape": [40], "dtype": "float32"}, {"name": "StatefulPartitionedCall/model_13/model_12/block2d_expand_conv/Conv2D_weights", "shape": [1, 1, 40, 240], "dtype": "float32"}, {"name": "StatefulPartitionedCall/model_13/model_12/block2d_expand_conv/Conv2D_bn_offset", "shape": [240], "dtype": "float32"}, {"name": "StatefulPartitionedCall/model_13/model_12/block2d_dwconv/depthwise_weights", "shape": [3, 3, 240, 1], "dtype": "float32"}, {"name": "StatefulPartitionedCall/model_13/model_12/block2d_dwconv/depthwise_bn_offset", "shape": [240], "dtype": "float32"}, {"name": "StatefulPartitionedCall/model_13/model_12/block2d_project_conv/Conv2D_weights", "shape": [1, 1, 240, 40], "dtype": "float32"}, {"name": "StatefulPartitionedCall/model_13/model_12/block2d_project_conv/Conv2D_bn_offset", "shape": [40], "dtype": "float32"}, {"name": "StatefulPartitionedCall/model_13/model_12/block2e_expand_conv/Conv2D_weights", "shape": [1, 1, 40, 240], "dtype": "float32"}, {"name": "StatefulPartitionedCall/model_13/model_12/block2e_expand_conv/Conv2D_bn_offset", "shape": [240], "dtype": "float32"}, {"name": "StatefulPartitionedCall/model_13/model_12/block2e_dwconv/depthwise_weights", "shape": [3, 3, 240, 1], "dtype": "float32"}, {"name": "StatefulPartitionedCall/model_13/model_12/block2e_dwconv/depthwise_bn_offset", "shape": [240], "dtype": "float32"}, {"name": "StatefulPartitionedCall/model_13/model_12/block2e_project_conv/Conv2D_weights", "shape": [1, 1, 240, 40], "dtype": "float32"}, {"name": "StatefulPartitionedCall/model_13/model_12/block2e_project_conv/Conv2D_bn_offset", "shape": [40], "dtype": "float32"}, {"name": "StatefulPartitionedCall/model_13/model_12/block3a_expand_conv/Conv2D_weights", "shape": [1, 1, 40, 240], "dtype": "float32"}, {"name": "StatefulPartitionedCall/model_13/model_12/block3a_expand_conv/Conv2D_bn_offset", "shape": [240], "dtype": "float32"}, {"name": "StatefulPartitionedCall/model_13/model_12/block3a_dwconv/depthwise_weights", "shape": [5, 5, 240, 1], "dtype": "float32"}, {"name": "StatefulPartitionedCall/model_13/model_12/block3a_dwconv/depthwise_bn_offset", "shape": [240], "dtype": "float32"}, {"name": "StatefulPartitionedCall/model_13/model_12/block3a_project_conv/Conv2D_weights", "shape": [1, 1, 240, 64], "dtype": "float32"}, {"name": "StatefulPartitionedCall/model_13/model_12/block3a_project_conv/Conv2D_bn_offset", "shape": [64], "dtype": "float32"}, {"name": "StatefulPartitionedCall/model_13/model_12/block3b_expand_conv/Conv2D_weights", "shape": [1, 1, 64, 384], "dtype": "float32"}, {"name": "StatefulPartitionedCall/model_13/model_12/block3b_expand_conv/Conv2D_bn_offset", "shape": [384], "dtype": "float32"}, {"name": "StatefulPartitionedCall/model_13/model_12/block3b_dwconv/depthwise_weights", "shape": [5, 5, 384, 1], "dtype": "float32"}, {"name": "StatefulPartitionedCall/model_13/model_12/block3b_dwconv/depthwise_bn_offset", "shape": [384], "dtype": "float32"}, {"name": "StatefulPartitionedCall/model_13/model_12/block3b_project_conv/Conv2D_weights", "shape": [1, 1, 384, 64], "dtype": "float32"}, {"name": "StatefulPartitionedCall/model_13/model_12/block3b_project_conv/Conv2D_bn_offset", "shape": [64], "dtype": "float32"}, {"name": "StatefulPartitionedCall/model_13/model_12/block3c_expand_conv/Conv2D_weights", "shape": [1, 1, 64, 384], "dtype": "float32"}, {"name": "StatefulPartitionedCall/model_13/model_12/block3c_expand_conv/Conv2D_bn_offset", "shape": [384], "dtype": "float32"}, {"name": "StatefulPartitionedCall/model_13/model_12/block3c_dwconv/depthwise_weights", "shape": [5, 5, 384, 1], "dtype": "float32"}, {"name": "StatefulPartitionedCall/model_13/model_12/block3c_dwconv/depthwise_bn_offset", "shape": [384], "dtype": "float32"}, {"name": "StatefulPartitionedCall/model_13/model_12/block3c_project_conv/Conv2D_weights", "shape": [1, 1, 384, 64], "dtype": "float32"}, {"name": "StatefulPartitionedCall/model_13/model_12/block3c_project_conv/Conv2D_bn_offset", "shape": [64], "dtype": "float32"}, {"name": "StatefulPartitionedCall/model_13/model_12/block3d_expand_conv/Conv2D_weights", "shape": [1, 1, 64, 384], "dtype": "float32"}, {"name": "StatefulPartitionedCall/model_13/model_12/block3d_expand_conv/Conv2D_bn_offset", "shape": [384], "dtype": "float32"}, {"name": "StatefulPartitionedCall/model_13/model_12/block3d_dwconv/depthwise_weights", "shape": [5, 5, 384, 1], "dtype": "float32"}, {"name": "StatefulPartitionedCall/model_13/model_12/block3d_dwconv/depthwise_bn_offset", "shape": [384], "dtype": "float32"}, {"name": "StatefulPartitionedCall/model_13/model_12/block3d_project_conv/Conv2D_weights", "shape": [1, 1, 384, 64], "dtype": "float32"}, {"name": "StatefulPartitionedCall/model_13/model_12/block3d_project_conv/Conv2D_bn_offset", "shape": [64], "dtype": "float32"}, {"name": "StatefulPartitionedCall/model_13/model_12/block3e_expand_conv/Conv2D_weights", "shape": [1, 1, 64, 384], "dtype": "float32"}, {"name": "StatefulPartitionedCall/model_13/model_12/block3e_expand_conv/Conv2D_bn_offset", "shape": [384], "dtype": "float32"}, {"name": "StatefulPartitionedCall/model_13/model_12/block3e_dwconv/depthwise_weights", "shape": [5, 5, 384, 1], "dtype": "float32"}, {"name": "StatefulPartitionedCall/model_13/model_12/block3e_dwconv/depthwise_bn_offset", "shape": [384], "dtype": "float32"}, {"name": "StatefulPartitionedCall/model_13/model_12/block3e_project_conv/Conv2D_weights", "shape": [1, 1, 384, 64], "dtype": "float32"}, {"name": "StatefulPartitionedCall/model_13/model_12/block3e_project_conv/Conv2D_bn_offset", "shape": [64], "dtype": "float32"}, {"name": "StatefulPartitionedCall/model_13/model_12/block4a_expand_conv/Conv2D_weights", "shape": [1, 1, 64, 384], "dtype": "float32"}, {"name": "StatefulPartitionedCall/model_13/model_12/block4a_expand_conv/Conv2D_bn_offset", "shape": [384], "dtype": "float32"}, {"name": "StatefulPartitionedCall/model_13/model_12/block4a_dwconv/depthwise_weights", "shape": [3, 3, 384, 1], "dtype": "float32"}, {"name": "StatefulPartitionedCall/model_13/model_12/block4a_dwconv/depthwise_bn_offset", "shape": [384], "dtype": "float32"}, {"name": "StatefulPartitionedCall/model_13/model_12/block4a_project_conv/Conv2D_weights", "shape": [1, 1, 384, 128], "dtype": "float32"}, {"name": "StatefulPartitionedCall/model_13/model_12/block4a_project_conv/Conv2D_bn_offset", "shape": [128], "dtype": "float32"}, {"name": "StatefulPartitionedCall/model_13/model_12/block4b_expand_conv/Conv2D_weights", "shape": [1, 1, 128, 768], "dtype": "float32"}, {"name": "StatefulPartitionedCall/model_13/model_12/block4b_expand_conv/Conv2D_bn_offset", "shape": [768], "dtype": "float32"}, {"name": "StatefulPartitionedCall/model_13/model_12/block4b_dwconv/depthwise_weights", "shape": [3, 3, 768, 1], "dtype": "float32"}, {"name": "StatefulPartitionedCall/model_13/model_12/block4b_dwconv/depthwise_bn_offset", "shape": [768], "dtype": "float32"}, {"name": "StatefulPartitionedCall/model_13/model_12/block4b_project_conv/Conv2D_weights", "shape": [1, 1, 768, 128], "dtype": "float32"}, {"name": "StatefulPartitionedCall/model_13/model_12/block4b_project_conv/Conv2D_bn_offset", "shape": [128], "dtype": "float32"}, {"name": "StatefulPartitionedCall/model_13/model_12/block4c_expand_conv/Conv2D_weights", "shape": [1, 1, 128, 768], "dtype": "float32"}, {"name": "StatefulPartitionedCall/model_13/model_12/block4c_expand_conv/Conv2D_bn_offset", "shape": [768], "dtype": "float32"}, {"name": "StatefulPartitionedCall/model_13/model_12/block4c_dwconv/depthwise_weights", "shape": [3, 3, 768, 1], "dtype": "float32"}, {"name": "StatefulPartitionedCall/model_13/model_12/block4c_dwconv/depthwise_bn_offset", "shape": [768], "dtype": "float32"}, {"name": "StatefulPartitionedCall/model_13/model_12/block4c_project_conv/Conv2D_weights", "shape": [1, 1, 768, 128], "dtype": "float32"}, {"name": "StatefulPartitionedCall/model_13/model_12/block4c_project_conv/Conv2D_bn_offset", "shape": [128], "dtype": "float32"}, {"name": "StatefulPartitionedCall/model_13/model_12/block4d_expand_conv/Conv2D_weights", "shape": [1, 1, 128, 768], "dtype": "float32"}, {"name": "StatefulPartitionedCall/model_13/model_12/block4d_expand_conv/Conv2D_bn_offset", "shape": [768], "dtype": "float32"}, {"name": "StatefulPartitionedCall/model_13/model_12/block4d_dwconv/depthwise_weights", "shape": [3, 3, 768, 1], "dtype": "float32"}, {"name": "StatefulPartitionedCall/model_13/model_12/block4d_dwconv/depthwise_bn_offset", "shape": [768], "dtype": "float32"}, {"name": "StatefulPartitionedCall/model_13/model_12/block4d_project_conv/Conv2D_weights", "shape": [1, 1, 768, 128], "dtype": "float32"}, {"name": "StatefulPartitionedCall/model_13/model_12/block4d_project_conv/Conv2D_bn_offset", "shape": [128], "dtype": "float32"}, {"name": "StatefulPartitionedCall/model_13/model_12/block4e_expand_conv/Conv2D_weights", "shape": [1, 1, 128, 768], "dtype": "float32"}, {"name": "StatefulPartitionedCall/model_13/model_12/block4e_expand_conv/Conv2D_bn_offset", "shape": [768], "dtype": "float32"}, {"name": "StatefulPartitionedCall/model_13/model_12/block4e_dwconv/depthwise_weights", "shape": [3, 3, 768, 1], "dtype": "float32"}, {"name": "StatefulPartitionedCall/model_13/model_12/block4e_dwconv/depthwise_bn_offset", "shape": [768], "dtype": "float32"}, {"name": "StatefulPartitionedCall/model_13/model_12/block4e_project_conv/Conv2D_weights", "shape": [1, 1, 768, 128], "dtype": "float32"}, {"name": "StatefulPartitionedCall/model_13/model_12/block4e_project_conv/Conv2D_bn_offset", "shape": [128], "dtype": "float32"}, {"name": "StatefulPartitionedCall/model_13/model_12/block4f_expand_conv/Conv2D_weights", "shape": [1, 1, 128, 768], "dtype": "float32"}, {"name": "StatefulPartitionedCall/model_13/model_12/block4f_expand_conv/Conv2D_bn_offset", "shape": [768], "dtype": "float32"}, {"name": "StatefulPartitionedCall/model_13/model_12/block4f_dwconv/depthwise_weights", "shape": [3, 3, 768, 1], "dtype": "float32"}, {"name": "StatefulPartitionedCall/model_13/model_12/block4f_dwconv/depthwise_bn_offset", "shape": [768], "dtype": "float32"}, {"name": "StatefulPartitionedCall/model_13/model_12/block4f_project_conv/Conv2D_weights", "shape": [1, 1, 768, 128], "dtype": "float32"}, {"name": "StatefulPartitionedCall/model_13/model_12/block4f_project_conv/Conv2D_bn_offset", "shape": [128], "dtype": "float32"}, {"name": "StatefulPartitionedCall/model_13/model_12/block4g_expand_conv/Conv2D_weights", "shape": [1, 1, 128, 768], "dtype": "float32"}, {"name": "StatefulPartitionedCall/model_13/model_12/block4g_expand_conv/Conv2D_bn_offset", "shape": [768], "dtype": "float32"}, {"name": "StatefulPartitionedCall/model_13/model_12/block4g_dwconv/depthwise_weights", "shape": [3, 3, 768, 1], "dtype": "float32"}, {"name": "StatefulPartitionedCall/model_13/model_12/block4g_dwconv/depthwise_bn_offset", "shape": [768], "dtype": "float32"}, {"name": "StatefulPartitionedCall/model_13/model_12/block4g_project_conv/Conv2D_weights", "shape": [1, 1, 768, 128], "dtype": "float32"}, {"name": "StatefulPartitionedCall/model_13/model_12/block4g_project_conv/Conv2D_bn_offset", "shape": [128], "dtype": "float32"}, {"name": "StatefulPartitionedCall/model_13/model_12/block5a_expand_conv/Conv2D_weights", "shape": [1, 1, 128, 768], "dtype": "float32"}, {"name": "StatefulPartitionedCall/model_13/model_12/block5a_expand_conv/Conv2D_bn_offset", "shape": [768], "dtype": "float32"}, {"name": "StatefulPartitionedCall/model_13/model_12/block5a_dwconv/depthwise_weights", "shape": [5, 5, 768, 1], "dtype": "float32"}, {"name": "StatefulPartitionedCall/model_13/model_12/block5a_dwconv/depthwise_bn_offset", "shape": [768], "dtype": "float32"}, {"name": "StatefulPartitionedCall/model_13/model_12/block5a_project_conv/Conv2D_weights", "shape": [1, 1, 768, 176], "dtype": "float32"}, {"name": "StatefulPartitionedCall/model_13/model_12/block5a_project_conv/Conv2D_bn_offset", "shape": [176], "dtype": "float32"}, {"name": "StatefulPartitionedCall/model_13/model_12/block5b_expand_conv/Conv2D_weights", "shape": [1, 1, 176, 1056], "dtype": "float32"}, {"name": "StatefulPartitionedCall/model_13/model_12/block5b_expand_conv/Conv2D_bn_offset", "shape": [1056], "dtype": "float32"}, {"name": "StatefulPartitionedCall/model_13/model_12/block5b_dwconv/depthwise_weights", "shape": [5, 5, 1056, 1], "dtype": "float32"}, {"name": "StatefulPartitionedCall/model_13/model_12/block5b_dwconv/depthwise_bn_offset", "shape": [1056], "dtype": "float32"}, {"name": "StatefulPartitionedCall/model_13/model_12/block5b_project_conv/Conv2D_weights", "shape": [1, 1, 1056, 176], "dtype": "float32"}, {"name": "StatefulPartitionedCall/model_13/model_12/block5b_project_conv/Conv2D_bn_offset", "shape": [176], "dtype": "float32"}, {"name": "StatefulPartitionedCall/model_13/model_12/block5c_expand_conv/Conv2D_weights", "shape": [1, 1, 176, 1056], "dtype": "float32"}, {"name": "StatefulPartitionedCall/model_13/model_12/block5c_expand_conv/Conv2D_bn_offset", "shape": [1056], "dtype": "float32"}, {"name": "StatefulPartitionedCall/model_13/model_12/block5c_dwconv/depthwise_weights", "shape": [5, 5, 1056, 1], "dtype": "float32"}, {"name": "StatefulPartitionedCall/model_13/model_12/block5c_dwconv/depthwise_bn_offset", "shape": [1056], "dtype": "float32"}, {"name": "StatefulPartitionedCall/model_13/model_12/block5c_project_conv/Conv2D_weights", "shape": [1, 1, 1056, 176], "dtype": "float32"}, {"name": "StatefulPartitionedCall/model_13/model_12/block5c_project_conv/Conv2D_bn_offset", "shape": [176], "dtype": "float32"}, {"name": "StatefulPartitionedCall/model_13/model_12/block5d_expand_conv/Conv2D_weights", "shape": [1, 1, 176, 1056], "dtype": "float32"}, {"name": "StatefulPartitionedCall/model_13/model_12/block5d_expand_conv/Conv2D_bn_offset", "shape": [1056], "dtype": "float32"}, {"name": "StatefulPartitionedCall/model_13/model_12/block5d_dwconv/depthwise_weights", "shape": [5, 5, 1056, 1], "dtype": "float32"}, {"name": "StatefulPartitionedCall/model_13/model_12/block5d_dwconv/depthwise_bn_offset", "shape": [1056], "dtype": "float32"}, {"name": "StatefulPartitionedCall/model_13/model_12/block5d_project_conv/Conv2D_weights", "shape": [1, 1, 1056, 176], "dtype": "float32"}, {"name": "StatefulPartitionedCall/model_13/model_12/block5d_project_conv/Conv2D_bn_offset", "shape": [176], "dtype": "float32"}, {"name": "StatefulPartitionedCall/model_13/model_12/block5e_expand_conv/Conv2D_weights", "shape": [1, 1, 176, 1056], "dtype": "float32"}, {"name": "StatefulPartitionedCall/model_13/model_12/block5e_expand_conv/Conv2D_bn_offset", "shape": [1056], "dtype": "float32"}, {"name": "StatefulPartitionedCall/model_13/model_12/block5e_dwconv/depthwise_weights", "shape": [5, 5, 1056, 1], "dtype": "float32"}, {"name": "StatefulPartitionedCall/model_13/model_12/block5e_dwconv/depthwise_bn_offset", "shape": [1056], "dtype": "float32"}, {"name": "StatefulPartitionedCall/model_13/model_12/block5e_project_conv/Conv2D_weights", "shape": [1, 1, 1056, 176], "dtype": "float32"}, {"name": "StatefulPartitionedCall/model_13/model_12/block5e_project_conv/Conv2D_bn_offset", "shape": [176], "dtype": "float32"}, {"name": "StatefulPartitionedCall/model_13/model_12/block5f_expand_conv/Conv2D_weights", "shape": [1, 1, 176, 1056], "dtype": "float32"}, {"name": "StatefulPartitionedCall/model_13/model_12/block5f_expand_conv/Conv2D_bn_offset", "shape": [1056], "dtype": "float32"}, {"name": "StatefulPartitionedCall/model_13/model_12/block5f_dwconv/depthwise_weights", "shape": [5, 5, 1056, 1], "dtype": "float32"}, {"name": "StatefulPartitionedCall/model_13/model_12/block5f_dwconv/depthwise_bn_offset", "shape": [1056], "dtype": "float32"}, {"name": "StatefulPartitionedCall/model_13/model_12/block5f_project_conv/Conv2D_weights", "shape": [1, 1, 1056, 176], "dtype": "float32"}, {"name": "StatefulPartitionedCall/model_13/model_12/block5f_project_conv/Conv2D_bn_offset", "shape": [176], "dtype": "float32"}, {"name": "StatefulPartitionedCall/model_13/model_12/block5g_expand_conv/Conv2D_weights", "shape": [1, 1, 176, 1056], "dtype": "float32"}, {"name": "StatefulPartitionedCall/model_13/model_12/block5g_expand_conv/Conv2D_bn_offset", "shape": [1056], "dtype": "float32"}, {"name": "StatefulPartitionedCall/model_13/model_12/block5g_dwconv/depthwise_weights", "shape": [5, 5, 1056, 1], "dtype": "float32"}, {"name": "StatefulPartitionedCall/model_13/model_12/block5g_dwconv/depthwise_bn_offset", "shape": [1056], "dtype": "float32"}, {"name": "StatefulPartitionedCall/model_13/model_12/block5g_project_conv/Conv2D_weights", "shape": [1, 1, 1056, 176], "dtype": "float32"}, {"name": "StatefulPartitionedCall/model_13/model_12/block5g_project_conv/Conv2D_bn_offset", "shape": [176], "dtype": "float32"}, {"name": "StatefulPartitionedCall/model_13/model_12/block6a_expand_conv/Conv2D_weights", "shape": [1, 1, 176, 1056], "dtype": "float32"}, {"name": "StatefulPartitionedCall/model_13/model_12/block6a_expand_conv/Conv2D_bn_offset", "shape": [1056], "dtype": "float32"}, {"name": "StatefulPartitionedCall/model_13/model_12/block6a_dwconv/depthwise_weights", "shape": [5, 5, 1056, 1], "dtype": "float32"}, {"name": "StatefulPartitionedCall/model_13/model_12/block6a_dwconv/depthwise_bn_offset", "shape": [1056], "dtype": "float32"}, {"name": "StatefulPartitionedCall/model_13/model_12/block6a_project_conv/Conv2D_weights", "shape": [1, 1, 1056, 304], "dtype": "float32"}, {"name": "StatefulPartitionedCall/model_13/model_12/block6a_project_conv/Conv2D_bn_offset", "shape": [304], "dtype": "float32"}, {"name": "StatefulPartitionedCall/model_13/model_12/block6b_expand_conv/Conv2D_weights", "shape": [1, 1, 304, 1824], "dtype": "float32"}, {"name": "StatefulPartitionedCall/model_13/model_12/block6b_expand_conv/Conv2D_bn_offset", "shape": [1824], "dtype": "float32"}, {"name": "StatefulPartitionedCall/model_13/model_12/block6b_dwconv/depthwise_weights", "shape": [5, 5, 1824, 1], "dtype": "float32"}, {"name": "StatefulPartitionedCall/model_13/model_12/block6b_dwconv/depthwise_bn_offset", "shape": [1824], "dtype": "float32"}, {"name": "StatefulPartitionedCall/model_13/model_12/block6b_project_conv/Conv2D_weights", "shape": [1, 1, 1824, 304], "dtype": "float32"}, {"name": "StatefulPartitionedCall/model_13/model_12/block6b_project_conv/Conv2D_bn_offset", "shape": [304], "dtype": "float32"}, {"name": "StatefulPartitionedCall/model_13/model_12/block6c_expand_conv/Conv2D_weights", "shape": [1, 1, 304, 1824], "dtype": "float32"}, {"name": "StatefulPartitionedCall/model_13/model_12/block6c_expand_conv/Conv2D_bn_offset", "shape": [1824], "dtype": "float32"}, {"name": "StatefulPartitionedCall/model_13/model_12/block6c_dwconv/depthwise_weights", "shape": [5, 5, 1824, 1], "dtype": "float32"}, {"name": "StatefulPartitionedCall/model_13/model_12/block6c_dwconv/depthwise_bn_offset", "shape": [1824], "dtype": "float32"}, {"name": "StatefulPartitionedCall/model_13/model_12/block6c_project_conv/Conv2D_weights", "shape": [1, 1, 1824, 304], "dtype": "float32"}, {"name": "StatefulPartitionedCall/model_13/model_12/block6c_project_conv/Conv2D_bn_offset", "shape": [304], "dtype": "float32"}, {"name": "StatefulPartitionedCall/model_13/model_12/block6d_expand_conv/Conv2D_weights", "shape": [1, 1, 304, 1824], "dtype": "float32"}, {"name": "StatefulPartitionedCall/model_13/model_12/block6d_expand_conv/Conv2D_bn_offset", "shape": [1824], "dtype": "float32"}, {"name": "StatefulPartitionedCall/model_13/model_12/block6d_dwconv/depthwise_weights", "shape": [5, 5, 1824, 1], "dtype": "float32"}, {"name": "StatefulPartitionedCall/model_13/model_12/block6d_dwconv/depthwise_bn_offset", "shape": [1824], "dtype": "float32"}, {"name": "StatefulPartitionedCall/model_13/model_12/block6d_project_conv/Conv2D_weights", "shape": [1, 1, 1824, 304], "dtype": "float32"}, {"name": "StatefulPartitionedCall/model_13/model_12/block6d_project_conv/Conv2D_bn_offset", "shape": [304], "dtype": "float32"}, {"name": "StatefulPartitionedCall/model_13/model_12/block6e_expand_conv/Conv2D_weights", "shape": [1, 1, 304, 1824], "dtype": "float32"}, {"name": "StatefulPartitionedCall/model_13/model_12/block6e_expand_conv/Conv2D_bn_offset", "shape": [1824], "dtype": "float32"}, {"name": "StatefulPartitionedCall/model_13/model_12/block6e_dwconv/depthwise_weights", "shape": [5, 5, 1824, 1], "dtype": "float32"}, {"name": "StatefulPartitionedCall/model_13/model_12/block6e_dwconv/depthwise_bn_offset", "shape": [1824], "dtype": "float32"}, {"name": "StatefulPartitionedCall/model_13/model_12/block6e_project_conv/Conv2D_weights", "shape": [1, 1, 1824, 304], "dtype": "float32"}, {"name": "StatefulPartitionedCall/model_13/model_12/block6e_project_conv/Conv2D_bn_offset", "shape": [304], "dtype": "float32"}, {"name": "StatefulPartitionedCall/model_13/model_12/block6f_expand_conv/Conv2D_weights", "shape": [1, 1, 304, 1824], "dtype": "float32"}, {"name": "StatefulPartitionedCall/model_13/model_12/block6f_expand_conv/Conv2D_bn_offset", "shape": [1824], "dtype": "float32"}, {"name": "StatefulPartitionedCall/model_13/model_12/block6f_dwconv/depthwise_weights", "shape": [5, 5, 1824, 1], "dtype": "float32"}, {"name": "StatefulPartitionedCall/model_13/model_12/block6f_dwconv/depthwise_bn_offset", "shape": [1824], "dtype": "float32"}, {"name": "StatefulPartitionedCall/model_13/model_12/block6f_project_conv/Conv2D_weights", "shape": [1, 1, 1824, 304], "dtype": "float32"}, {"name": "StatefulPartitionedCall/model_13/model_12/block6f_project_conv/Conv2D_bn_offset", "shape": [304], "dtype": "float32"}, {"name": "StatefulPartitionedCall/model_13/model_12/block6g_expand_conv/Conv2D_weights", "shape": [1, 1, 304, 1824], "dtype": "float32"}, {"name": "StatefulPartitionedCall/model_13/model_12/block6g_expand_conv/Conv2D_bn_offset", "shape": [1824], "dtype": "float32"}, {"name": "StatefulPartitionedCall/model_13/model_12/block6g_dwconv/depthwise_weights", "shape": [5, 5, 1824, 1], "dtype": "float32"}, {"name": "StatefulPartitionedCall/model_13/model_12/block6g_dwconv/depthwise_bn_offset", "shape": [1824], "dtype": "float32"}, {"name": "StatefulPartitionedCall/model_13/model_12/block6g_project_conv/Conv2D_weights", "shape": [1, 1, 1824, 304], "dtype": "float32"}, {"name": "StatefulPartitionedCall/model_13/model_12/block6g_project_conv/Conv2D_bn_offset", "shape": [304], "dtype": "float32"}, {"name": "StatefulPartitionedCall/model_13/model_12/block6h_expand_conv/Conv2D_weights", "shape": [1, 1, 304, 1824], "dtype": "float32"}, {"name": "StatefulPartitionedCall/model_13/model_12/block6h_expand_conv/Conv2D_bn_offset", "shape": [1824], "dtype": "float32"}, {"name": "StatefulPartitionedCall/model_13/model_12/block6h_dwconv/depthwise_weights", "shape": [5, 5, 1824, 1], "dtype": "float32"}, {"name": "StatefulPartitionedCall/model_13/model_12/block6h_dwconv/depthwise_bn_offset", "shape": [1824], "dtype": "float32"}, {"name": "StatefulPartitionedCall/model_13/model_12/block6h_project_conv/Conv2D_weights", "shape": [1, 1, 1824, 304], "dtype": "float32"}, {"name": "StatefulPartitionedCall/model_13/model_12/block6h_project_conv/Conv2D_bn_offset", "shape": [304], "dtype": "float32"}, {"name": "StatefulPartitionedCall/model_13/model_12/block6i_expand_conv/Conv2D_weights", "shape": [1, 1, 304, 1824], "dtype": "float32"}, {"name": "StatefulPartitionedCall/model_13/model_12/block6i_expand_conv/Conv2D_bn_offset", "shape": [1824], "dtype": "float32"}, {"name": "StatefulPartitionedCall/model_13/model_12/block6i_dwconv/depthwise_weights", "shape": [5, 5, 1824, 1], "dtype": "float32"}, {"name": "StatefulPartitionedCall/model_13/model_12/block6i_dwconv/depthwise_bn_offset", "shape": [1824], "dtype": "float32"}, {"name": "StatefulPartitionedCall/model_13/model_12/block6i_project_conv/Conv2D_weights", "shape": [1, 1, 1824, 304], "dtype": "float32"}, {"name": "StatefulPartitionedCall/model_13/model_12/block6i_project_conv/Conv2D_bn_offset", "shape": [304], "dtype": "float32"}, {"name": "StatefulPartitionedCall/model_13/model_12/block7a_expand_conv/Conv2D_weights", "shape": [1, 1, 304, 1824], "dtype": "float32"}, {"name": "StatefulPartitionedCall/model_13/model_12/block7a_expand_conv/Conv2D_bn_offset", "shape": [1824], "dtype": "float32"}, {"name": "StatefulPartitionedCall/model_13/model_12/block7a_dwconv/depthwise_weights", "shape": [3, 3, 1824, 1], "dtype": "float32"}, {"name": "StatefulPartitionedCall/model_13/model_12/block7a_dwconv/depthwise_bn_offset", "shape": [1824], "dtype": "float32"}, {"name": "StatefulPartitionedCall/model_13/model_12/block7a_project_conv/Conv2D_weights", "shape": [1, 1, 1824, 512], "dtype": "float32"}, {"name": "StatefulPartitionedCall/model_13/model_12/block7a_project_conv/Conv2D_bn_offset", "shape": [512], "dtype": "float32"}, {"name": "StatefulPartitionedCall/model_13/model_12/block7b_expand_conv/Conv2D_weights", "shape": [1, 1, 512, 3072], "dtype": "float32"}, {"name": "StatefulPartitionedCall/model_13/model_12/block7b_expand_conv/Conv2D_bn_offset", "shape": [3072], "dtype": "float32"}, {"name": "StatefulPartitionedCall/model_13/model_12/block7b_dwconv/depthwise_weights", "shape": [3, 3, 3072, 1], "dtype": "float32"}, {"name": "StatefulPartitionedCall/model_13/model_12/block7b_dwconv/depthwise_bn_offset", "shape": [3072], "dtype": "float32"}, {"name": "StatefulPartitionedCall/model_13/model_12/block7b_project_conv/Conv2D_weights", "shape": [1, 1, 3072, 512], "dtype": "float32"}, {"name": "StatefulPartitionedCall/model_13/model_12/block7b_project_conv/Conv2D_bn_offset", "shape": [512], "dtype": "float32"}, {"name": "StatefulPartitionedCall/model_13/model_12/block7c_expand_conv/Conv2D_weights", "shape": [1, 1, 512, 3072], "dtype": "float32"}, {"name": "StatefulPartitionedCall/model_13/model_12/block7c_expand_conv/Conv2D_bn_offset", "shape": [3072], "dtype": "float32"}, {"name": "StatefulPartitionedCall/model_13/model_12/block7c_dwconv/depthwise_weights", "shape": [3, 3, 3072, 1], "dtype": "float32"}, {"name": "StatefulPartitionedCall/model_13/model_12/block7c_dwconv/depthwise_bn_offset", "shape": [3072], "dtype": "float32"}, {"name": "StatefulPartitionedCall/model_13/model_12/block7c_project_conv/Conv2D_weights", "shape": [1, 1, 3072, 512], "dtype": "float32"}, {"name": "StatefulPartitionedCall/model_13/model_12/block7c_project_conv/Conv2D_bn_offset", "shape": [512], "dtype": "float32"}, {"name": "StatefulPartitionedCall/model_13/model_12/top_conv/Conv2D_weights", "shape": [1, 1, 512, 2048], "dtype": "float32"}, {"name": "StatefulPartitionedCall/model_13/model_12/top_conv/Conv2D_bn_offset", "shape": [2048], "dtype": "float32"}, {"name": "ConstantFolding/StatefulPartitionedCall/model_13/decoder_4/decoder_layer_24/causal_self_attention_24/layer_normalization_141/ones/packed_const_axis", "shape": [], "dtype": "int32"}, {"name": "ConstantFolding/StatefulPartitionedCall/model_13/decoder_4/decoder_layer_24/causal_self_attention_24/layer_normalization_141/zeros/packed_const_axis", "shape": [], "dtype": "int32"}, {"name": "ConstantFolding/StatefulPartitionedCall/model_13/encoder_4/encoder_layer_24/global_self_attention_24/layer_normalization_128/ones/packed_const_axis", "shape": [], "dtype": "int32"}, {"name": "ConstantFolding/StatefulPartitionedCall/model_13/encoder_4/encoder_layer_24/global_self_attention_24/layer_normalization_128/zeros/packed_const_axis", "shape": [], "dtype": "int32"}, {"name": "ConstantFolding/StatefulPartitionedCall/model_13/encoder_4/encoder_layer_24/feed_forward_48/layer_normalization_129/ones/packed_const_axis", "shape": [], "dtype": "int32"}, {"name": "ConstantFolding/StatefulPartitionedCall/model_13/encoder_4/encoder_layer_24/feed_forward_48/layer_normalization_129/zeros/packed_const_axis", "shape": [], "dtype": "int32"}, {"name": "ConstantFolding/StatefulPartitionedCall/model_13/encoder_4/encoder_layer_25/global_self_attention_25/layer_normalization_130/ones/packed_const_axis", "shape": [], "dtype": "int32"}, {"name": "ConstantFolding/StatefulPartitionedCall/model_13/encoder_4/encoder_layer_25/global_self_attention_25/layer_normalization_130/zeros/packed_const_axis", "shape": [], "dtype": "int32"}, {"name": "ConstantFolding/StatefulPartitionedCall/model_13/encoder_4/encoder_layer_25/feed_forward_49/layer_normalization_131/ones/packed_const_axis", "shape": [], "dtype": "int32"}, {"name": "ConstantFolding/StatefulPartitionedCall/model_13/encoder_4/encoder_layer_25/feed_forward_49/layer_normalization_131/zeros/packed_const_axis", "shape": [], "dtype": "int32"}, {"name": "ConstantFolding/StatefulPartitionedCall/model_13/encoder_4/encoder_layer_26/global_self_attention_26/layer_normalization_132/ones/packed_const_axis", "shape": [], "dtype": "int32"}, {"name": "ConstantFolding/StatefulPartitionedCall/model_13/encoder_4/encoder_layer_26/global_self_attention_26/layer_normalization_132/zeros/packed_const_axis", "shape": [], "dtype": "int32"}, {"name": "ConstantFolding/StatefulPartitionedCall/model_13/encoder_4/encoder_layer_26/feed_forward_50/layer_normalization_133/ones/packed_const_axis", "shape": [], "dtype": "int32"}, {"name": "ConstantFolding/StatefulPartitionedCall/model_13/encoder_4/encoder_layer_26/feed_forward_50/layer_normalization_133/zeros/packed_const_axis", "shape": [], "dtype": "int32"}, {"name": "ConstantFolding/StatefulPartitionedCall/model_13/encoder_4/encoder_layer_27/global_self_attention_27/layer_normalization_134/ones/packed_const_axis", "shape": [], "dtype": "int32"}, {"name": "ConstantFolding/StatefulPartitionedCall/model_13/encoder_4/encoder_layer_27/global_self_attention_27/layer_normalization_134/zeros/packed_const_axis", "shape": [], "dtype": "int32"}, {"name": "ConstantFolding/StatefulPartitionedCall/model_13/encoder_4/encoder_layer_27/feed_forward_51/layer_normalization_135/ones/packed_const_axis", "shape": [], "dtype": "int32"}, {"name": "ConstantFolding/StatefulPartitionedCall/model_13/encoder_4/encoder_layer_27/feed_forward_51/layer_normalization_135/zeros/packed_const_axis", "shape": [], "dtype": "int32"}, {"name": "ConstantFolding/StatefulPartitionedCall/model_13/encoder_4/encoder_layer_28/global_self_attention_28/layer_normalization_136/ones/packed_const_axis", "shape": [], "dtype": "int32"}, {"name": "ConstantFolding/StatefulPartitionedCall/model_13/encoder_4/encoder_layer_28/global_self_attention_28/layer_normalization_136/zeros/packed_const_axis", "shape": [], "dtype": "int32"}, {"name": "ConstantFolding/StatefulPartitionedCall/model_13/encoder_4/encoder_layer_28/feed_forward_52/layer_normalization_137/ones/packed_const_axis", "shape": [], "dtype": "int32"}, {"name": "ConstantFolding/StatefulPartitionedCall/model_13/encoder_4/encoder_layer_28/feed_forward_52/layer_normalization_137/zeros/packed_const_axis", "shape": [], "dtype": "int32"}, {"name": "ConstantFolding/StatefulPartitionedCall/model_13/encoder_4/encoder_layer_29/global_self_attention_29/layer_normalization_138/ones/packed_const_axis", "shape": [], "dtype": "int32"}, {"name": "ConstantFolding/StatefulPartitionedCall/model_13/encoder_4/encoder_layer_29/global_self_attention_29/layer_normalization_138/zeros/packed_const_axis", "shape": [], "dtype": "int32"}, {"name": "ConstantFolding/StatefulPartitionedCall/model_13/encoder_4/encoder_layer_29/feed_forward_53/layer_normalization_139/ones/packed_const_axis", "shape": [], "dtype": "int32"}, {"name": "ConstantFolding/StatefulPartitionedCall/model_13/encoder_4/encoder_layer_29/feed_forward_53/layer_normalization_139/zeros/packed_const_axis", "shape": [], "dtype": "int32"}, {"name": "ConstantFolding/StatefulPartitionedCall/model_13/encoder_4/layer_normalization_140/ones/packed_const_axis", "shape": [], "dtype": "int32"}, {"name": "ConstantFolding/StatefulPartitionedCall/model_13/encoder_4/layer_normalization_140/zeros/packed_const_axis", "shape": [], "dtype": "int32"}, {"name": "ConstantFolding/StatefulPartitionedCall/model_13/decoder_4/decoder_layer_24/cross_attention_24/layer_normalization_142/ones/packed_const_axis", "shape": [], "dtype": "int32"}, {"name": "ConstantFolding/StatefulPartitionedCall/model_13/decoder_4/decoder_layer_24/cross_attention_24/layer_normalization_142/zeros/packed_const_axis", "shape": [], "dtype": "int32"}, {"name": "ConstantFolding/StatefulPartitionedCall/model_13/decoder_4/decoder_layer_24/feed_forward_54/layer_normalization_143/ones/packed_const_axis", "shape": [], "dtype": "int32"}, {"name": "ConstantFolding/StatefulPartitionedCall/model_13/decoder_4/decoder_layer_24/feed_forward_54/layer_normalization_143/zeros/packed_const_axis", "shape": [], "dtype": "int32"}, {"name": "ConstantFolding/StatefulPartitionedCall/model_13/decoder_4/decoder_layer_25/causal_self_attention_25/layer_normalization_144/ones/packed_const_axis", "shape": [], "dtype": "int32"}, {"name": "ConstantFolding/StatefulPartitionedCall/model_13/decoder_4/decoder_layer_25/causal_self_attention_25/layer_normalization_144/zeros/packed_const_axis", "shape": [], "dtype": "int32"}, {"name": "ConstantFolding/StatefulPartitionedCall/model_13/decoder_4/decoder_layer_25/cross_attention_25/layer_normalization_145/ones/packed_const_axis", "shape": [], "dtype": "int32"}, {"name": "ConstantFolding/StatefulPartitionedCall/model_13/decoder_4/decoder_layer_25/cross_attention_25/layer_normalization_145/zeros/packed_const_axis", "shape": [], "dtype": "int32"}, {"name": "ConstantFolding/StatefulPartitionedCall/model_13/decoder_4/decoder_layer_25/feed_forward_55/layer_normalization_146/ones/packed_const_axis", "shape": [], "dtype": "int32"}, {"name": "ConstantFolding/StatefulPartitionedCall/model_13/decoder_4/decoder_layer_25/feed_forward_55/layer_normalization_146/zeros/packed_const_axis", "shape": [], "dtype": "int32"}, {"name": "ConstantFolding/StatefulPartitionedCall/model_13/decoder_4/decoder_layer_26/causal_self_attention_26/layer_normalization_147/ones/packed_const_axis", "shape": [], "dtype": "int32"}, {"name": "ConstantFolding/StatefulPartitionedCall/model_13/decoder_4/decoder_layer_26/causal_self_attention_26/layer_normalization_147/zeros/packed_const_axis", "shape": [], "dtype": "int32"}, {"name": "ConstantFolding/StatefulPartitionedCall/model_13/decoder_4/decoder_layer_26/cross_attention_26/layer_normalization_148/ones/packed_const_axis", "shape": [], "dtype": "int32"}, {"name": "ConstantFolding/StatefulPartitionedCall/model_13/decoder_4/decoder_layer_26/cross_attention_26/layer_normalization_148/zeros/packed_const_axis", "shape": [], "dtype": "int32"}, {"name": "ConstantFolding/StatefulPartitionedCall/model_13/decoder_4/decoder_layer_26/feed_forward_56/layer_normalization_149/ones/packed_const_axis", "shape": [], "dtype": "int32"}, {"name": "ConstantFolding/StatefulPartitionedCall/model_13/decoder_4/decoder_layer_26/feed_forward_56/layer_normalization_149/zeros/packed_const_axis", "shape": [], "dtype": "int32"}, {"name": "ConstantFolding/StatefulPartitionedCall/model_13/decoder_4/decoder_layer_27/causal_self_attention_27/layer_normalization_150/ones/packed_const_axis", "shape": [], "dtype": "int32"}, {"name": "ConstantFolding/StatefulPartitionedCall/model_13/decoder_4/decoder_layer_27/causal_self_attention_27/layer_normalization_150/zeros/packed_const_axis", "shape": [], "dtype": "int32"}, {"name": "ConstantFolding/StatefulPartitionedCall/model_13/decoder_4/decoder_layer_27/cross_attention_27/layer_normalization_151/ones/packed_const_axis", "shape": [], "dtype": "int32"}, {"name": "ConstantFolding/StatefulPartitionedCall/model_13/decoder_4/decoder_layer_27/cross_attention_27/layer_normalization_151/zeros/packed_const_axis", "shape": [], "dtype": "int32"}, {"name": "ConstantFolding/StatefulPartitionedCall/model_13/decoder_4/decoder_layer_27/feed_forward_57/layer_normalization_152/ones/packed_const_axis", "shape": [], "dtype": "int32"}, {"name": "ConstantFolding/StatefulPartitionedCall/model_13/decoder_4/decoder_layer_27/feed_forward_57/layer_normalization_152/zeros/packed_const_axis", "shape": [], "dtype": "int32"}, {"name": "ConstantFolding/StatefulPartitionedCall/model_13/decoder_4/decoder_layer_28/causal_self_attention_28/layer_normalization_153/ones/packed_const_axis", "shape": [], "dtype": "int32"}, {"name": "ConstantFolding/StatefulPartitionedCall/model_13/decoder_4/decoder_layer_28/causal_self_attention_28/layer_normalization_153/zeros/packed_const_axis", "shape": [], "dtype": "int32"}, {"name": "ConstantFolding/StatefulPartitionedCall/model_13/decoder_4/decoder_layer_28/cross_attention_28/layer_normalization_154/ones/packed_const_axis", "shape": [], "dtype": "int32"}, {"name": "ConstantFolding/StatefulPartitionedCall/model_13/decoder_4/decoder_layer_28/cross_attention_28/layer_normalization_154/zeros/packed_const_axis", "shape": [], "dtype": "int32"}, {"name": "ConstantFolding/StatefulPartitionedCall/model_13/decoder_4/decoder_layer_28/feed_forward_58/layer_normalization_155/ones/packed_const_axis", "shape": [], "dtype": "int32"}, {"name": "ConstantFolding/StatefulPartitionedCall/model_13/decoder_4/decoder_layer_28/feed_forward_58/layer_normalization_155/zeros/packed_const_axis", "shape": [], "dtype": "int32"}, {"name": "ConstantFolding/StatefulPartitionedCall/model_13/decoder_4/decoder_layer_29/causal_self_attention_29/layer_normalization_156/ones/packed_const_axis", "shape": [], "dtype": "int32"}, {"name": "ConstantFolding/StatefulPartitionedCall/model_13/decoder_4/decoder_layer_29/causal_self_attention_29/layer_normalization_156/zeros/packed_const_axis", "shape": [], "dtype": "int32"}, {"name": "ConstantFolding/StatefulPartitionedCall/model_13/decoder_4/decoder_layer_29/cross_attention_29/layer_normalization_157/ones/packed_const_axis", "shape": [], "dtype": "int32"}, {"name": "ConstantFolding/StatefulPartitionedCall/model_13/decoder_4/decoder_layer_29/cross_attention_29/layer_normalization_157/zeros/packed_const_axis", "shape": [], "dtype": "int32"}, {"name": "ConstantFolding/StatefulPartitionedCall/model_13/decoder_4/decoder_layer_29/feed_forward_59/layer_normalization_158/ones/packed_const_axis", "shape": [], "dtype": "int32"}, {"name": "ConstantFolding/StatefulPartitionedCall/model_13/decoder_4/decoder_layer_29/feed_forward_59/layer_normalization_158/zeros/packed_const_axis", "shape": [], "dtype": "int32"}, {"name": "ConstantFolding/StatefulPartitionedCall/model_13/decoder_4/layer_normalization_159/ones/packed_const_axis", "shape": [], "dtype": "int32"}, {"name": "ConstantFolding/StatefulPartitionedCall/model_13/decoder_4/layer_normalization_159/zeros/packed_const_axis", "shape": [], "dtype": "int32"}]}]}